models/alexa.tflite (tflite, 115400 bytes, 34 tensors)

model_1/dense_1/MatMul i1 [1, 7104] scale=0.0038263008 zero_point=0
00000000: e8f9 15f6 fbf5 cc01 11e9 eaff fbe7 ebf2
00000010: 02fa eff6 fcf8 0b00 00a6 abca f7ee e3e7
00000020: f9ed d21c f3f6 f5ef 0cee fc09 d510 01e0
00000030: f5e8 04d4 ffde fd00 0604 e80b e90b 24e1
00000040: ecf7 eeef e7ff 13d9 ff03 e8fc 07f5 fbdc
00000050: f009 01d0 f3ec b90c f610 0307 e205 ea03
00000060: e10d 1b0a f304 e1e8 fee6 f602 f9ef eee4
00000070: 0506 d9f8 f7f3 f80b e6db dbcf fb05 dff5
00000080: efee cef2 e80e ef0d 15ed 06ef c117 1ae8
00000090: f9f0 11f6 f6f8 1909 14fc 0d0b e0fc 0cf8
000000a0: f3f6 00c3 f3e6 1cda f7f6 fbd0 fdf9 f7f8
000000b0: f711 dce8 fcef def8 0105 f11e e806 f805
000000c0: ec03 04fa fee2 ea01 e800 fbfd 12f4 0beb
000000d0: 0815 ddea 07ec 0102 06e0 cad1 0cea f9f2
000000e0: f7dc c806 f901 f6e2 f9eb 04ff 1106 16e0
000000f0: f8f9 0c08 faf9 0100 0afd e106 edf6 0bf5
-0.09183122 -0.026784105 0.08035232 -0.038263008 -0.019131504 -0.04208931 -0.19896765 0.0038263008
0.065047115 -0.08800492 -0.08417862 -0.0038263008 -0.019131504 -0.09565752 -0.08035232 -0.05356821
0.0076526017 -0.022957806 -0.065047115 -0.038263008 -0.015305203 -0.030610407 0.04208931 0.0
0.0 -0.3443671 -0.32523558 -0.20662025 -0.034436706 -0.06887341 -0.110962726 -0.09565752
-0.026784105 -0.07269972 -0.17600983 0.10713642 -0.049741913 -0.038263008 -0.04208931 -0.065047115
0.04591561 -0.06887341 -0.015305203 0.034436706 -0.16453093 0.061220814 0.0038263008 -0.12244163
-0.04208931 -0.09183122 0.015305203 -0.16835724 -0.0038263008 -0.13009423 -0.011478903 0.0
0.022957806 0.015305203 -0.09183122 0.04208931 -0.08800492 0.04208931 0.13774683 -0.11861533
-0.076526016 -0.034436706 -0.06887341 -0.065047115 -0.09565752 -0.0038263008 0.07269972 -0.14922573
-0.0038263008 0.011478903 -0.09183122 -0.015305203 0.026784105 -0.04208931 -0.019131504 -0.13774683
-0.061220814 0.034436706 0.0038263008 -0.18366244 -0.049741913 -0.076526016 -0.27166736 0.04591561
-0.038263008 0.061220814 0.011478903 0.026784105 -0.114789024 0.019131504 -0.08417862 0.011478903
-0.11861533 0.049741913 0.10331012 0.038263008 -0.049741913 0.015305203 -0.11861533 -0.09183122
-0.0076526017 -0.099483825 -0.038263008 0.0076526017 -0.026784105 -0.065047115 -0.06887341 -0.10713642
0.019131504 0.022957806 -0.14922573 -0.030610407 -0.034436706 -0.049741913 -0.030610407 0.04208931
-0.099483825 -0.14157313 -0.14157313 -0.18748873 -0.019131504 0.019131504 -0.12626792 -0.04208931
-0.065047115 -0.06887341 -0.19131504 -0.05356821 -0.09183122 0.05356821 -0.065047115 0.049741913
0.08035232 -0.07269972 0.022957806 -0.065047115 -0.24105695 0.08800492 0.099483825 -0.09183122
-0.026784105 -0.061220814 0.065047115 -0.038263008 -0.038263008 -0.030610407 0.09565752 0.034436706
0.076526016 -0.015305203 0.049741913 0.04208931 -0.12244163 -0.015305203 0.04591561 -0.030610407
-0.049741913 -0.038263008 0.0 -0.23340435 -0.049741913 -0.099483825 0.10713642 -0.14539944
-0.034436706 -0.038263008 -0.019131504 -0.18366244 -0.011478903 -0.026784105 -0.034436706 -0.030610407
-0.034436706 0.065047115 -0.13774683 -0.09183122 -0.015305203 -0.065047115 -0.13009423 -0.030610407
0.0038263008 0.019131504 -0.057394512 0.114789024 -0.09183122 0.022957806 -0.030610407 0.019131504
-0.076526016 0.011478903 0.015305203 -0.022957806 -0.0076526017 -0.114789024 -0.08417862 0.0038263008
-0.09183122 0.0 -0.019131504 -0.011478903 0.06887341 -0.04591561 0.04208931 -0.08035232
0.030610407 0.08035232 -0.13392054 -0.08417862 0.026784105 -0.076526016 0.0038263008 0.0076526017
0.022957806 -0.12244163 -0.20662025 -0.17983614 0.04591561 -0.08417862 -0.026784105 -0.05356821
-0.034436706 -0.13774683 -0.21427284 0.022957806 -0.026784105 0.0038263008 -0.038263008 -0.114789024
-0.026784105 -0.08035232 0.015305203 -0.0038263008 0.065047115 0.022957806 0.08417862 -0.12244163
-0.030610407 -0.026784105 0.04591561 0.030610407 -0.022957806 -0.026784105 0.0038263008 0.0
0.038263008 -0.011478903 -0.11861533 0.022957806 -0.07269972 -0.038263008 0.04208931 -0.04208931

model_1/conv2d_43/Conv2D i1 [96, 1, 1, 72]
00000000: 0c14 1228 23ed d23f 08f4 1f8f 1dd9 4aef
00000010: fd15 c88a 06ee 14db f1e5 fbfd cb1d e20d
00000020: 14d7 00e3 08d5 1320 053b fe05 de07 effc
00000030: 06f3 17bc bbc9 aa9f dd99 adbc b8d4 a7e8
00000040: d6c0 352f e9f3 e781 dd98 3bf4 1273 c5a6
00000050: 112c 3e70 ecd3 a02f 4abd 2be5 292b e41a
00000060: 58eb 2550 53f8 f900 810c 6bcf dfeb 8232
00000070: e88d 0ad5 f5b2 bb37 f010 1b3e 1d40 1b34
00000080: 3e47 1dd1 2fd1 06e3 33ff 5e7f 2845 d8e1
00000090: ba03 f91d 1ed3 dcf6 ff16 2bf7 303a baf3
000000a0: f5aa 3ede dc5f d3f2 d9b6 eabc caee f727
000000b0: a5dc 9e1f f517 da1c dada 0210 e7ee 13ca
000000c0: e232 c4da 19c2 e0f3 9ffe b51b fdc7 c216
000000d0: d31a f011 21e2 f681 f14a 1d09 fa10 e337
000000e0: 12e0 e3fd 42ef 25f5 0d16 e4bf ec1e 081b
000000f0: 0dcd f7ea 091b 1b24 df05 0010 f7e6 191e
12 20 18 40 35 -19 -46 63
8 -12 31 -113 29 -39 74 -17
-3 21 -56 -118 6 -18 20 -37
-15 -27 -5 -3 -53 29 -30 13
20 -41 0 -29 8 -43 19 32
5 59 -2 5 -34 7 -17 -4
6 -13 23 -68 -69 -55 -86 -97
-35 -103 -83 -68 -72 -44 -89 -24
-42 -64 53 47 -23 -13 -25 -127
-35 -104 59 -12 18 115 -59 -90
17 44 62 112 -20 -45 -96 47
74 -67 43 -27 41 43 -28 26
88 -21 37 80 83 -8 -7 0
-127 12 107 -49 -33 -21 -126 50
-24 -115 10 -43 -11 -78 -69 55
-16 16 27 62 29 64 27 52
62 71 29 -47 47 -47 6 -29
51 -1 94 127 40 69 -40 -31
-70 3 -7 29 30 -45 -36 -10
-1 22 43 -9 48 58 -70 -13
-11 -86 62 -34 -36 95 -45 -14
-39 -74 -22 -68 -54 -18 -9 39
-91 -36 -98 31 -11 23 -38 28
-38 -38 2 16 -25 -18 19 -54
-30 50 -60 -38 25 -62 -32 -13
-97 -2 -75 27 -3 -57 -62 22
-45 26 -16 17 33 -30 -10 -127
-15 74 29 9 -6 16 -29 55
18 -32 -29 -3 66 -17 37 -11
13 22 -28 -65 -20 30 8 27
13 -51 -9 -22 9 27 27 36
-33 5 0 16 -9 -26 25 30

model_1/stream_20/conv2d_42/Conv2D i1 [24, 5, 1, 24]
00000000: 18f8 f2e2 311d cbda d1d7 e3e7 1ba8 14e4
00000010: 7f4c 92ab 4fbc f2e3 3e0e 161f 0629 e5de
00000020: 051b e5f1 28c9 00ec 594d e9c9 2fcb ed01
00000030: 08f5 0235 f40f ea14 0e15 0203 0bd4 be17
00000040: 262b dbfc e5c5 13ef 2830 1b1d e231 fe07
00000050: 0e3c 0739 19e4 d2e1 f9fc d2e6 d7ce 2ee9
00000060: 552f 3de6 e83c 0518 2223 3b3f f21a e1f2
00000070: 0604 2325 e3ef 38f6 272a 08be 1232 c0cc
00000080: ce06 ee36 2991 64b5 7f3f f5c0 f102 02b7
00000090: 13fc 1be2 ff0d d6f5 fee1 0403 09f4 3edb
000000a0: 3c18 e2f1 07ee 0cec 1cec e101 e3f1 fed9
000000b0: ebf3 e8f9 f7e5 2703 f40c e0ef d217 08f7
000000c0: 0805 de08 f0fa f3f7 0af0 fcdd ff0c 2e1a
000000d0: d5d9 ff06 f021 eb02 1ae6 0617 d4c3 0c05
000000e0: 1df3 fbc7 0414 3028 9ac8 ffed ef26 d3f5
000000f0: e10c c8c9 d3f7 d3c7 d89f 4126 298d b229
24 -8 -14 -30 49 29 -53 -38
-47 -41 -29 -25 27 -88 20 -28
127 76 -110 -85 79 -68 -14 -29
62 14 22 31 6 41 -27 -34
5 27 -27 -15 40 -55 0 -20
89 77 -23 -55 47 -53 -19 1
8 -11 2 53 -12 15 -22 20
14 21 2 3 11 -44 -66 23
38 43 -37 -4 -27 -59 19 -17
40 48 27 29 -30 49 -2 7
14 60 7 57 25 -28 -46 -31
-7 -4 -46 -26 -41 -50 46 -23
85 47 61 -26 -24 60 5 24
34 35 59 63 -14 26 -31 -14
6 4 35 37 -29 -17 56 -10
39 42 8 -66 18 50 -64 -52
-50 6 -18 54 41 -111 100 -75
127 63 -11 -64 -15 2 2 -73
19 -4 27 -30 -1 13 -42 -11
-2 -31 4 3 9 -12 62 -37
60 24 -30 -15 7 -18 12 -20
28 -20 -31 1 -29 -15 -2 -39
-21 -13 -24 -7 -9 -27 39 3
-12 12 -32 -17 -46 23 8 -9
8 5 -34 8 -16 -6 -13 -9
10 -16 -4 -35 -1 12 46 26
-43 -39 -1 6 -16 33 -21 2
26 -26 6 23 -44 -61 12 5
29 -13 -5 -57 4 20 48 40
-102 -56 -1 -19 -17 38 -45 -11
-31 12 -56 -55 -45 -9 -45 -57
-40 -97 65 38 41 -115 -78 41

model_1/stream_19/conv2d_41/Conv2D i1 [24, 5, 1, 24]
00000000: dfb7 15f6 0061 657f d6a9 9823 f55b f307
00000010: e6f5 201f c9da 33b9 15e9 fa01 311d 402f
00000020: ffd9 ebfa 0f25 cbec 3013 292d ee22 e9d2
00000030: f932 1613 0df8 50fb fc1b ffcf dffd 1520
00000040: fad8 3054 1fde f4ce fc05 190c 09e7 efd1
00000050: 41ea f7e6 e2e9 fb62 3109 3814 3f46 1a0f
00000060: f520 702a 44f5 ea0c 07e5 19e7 c6f2 0a19
00000070: fd16 4160 5c05 e618 c397 a92e aadd 7f17
00000080: dede cc22 e7fe fe88 cff5 f066 cab3 1ace
00000090: d3a3 15f7 3b2d 4c34 3995 87cf a2fe bf2a
000000a0: 1a98 3d4c 1cdf ca15 b3fe d2f2 15f8 fd21
000000b0: 2cd7 24a5 cb07 fbe1 be90 dbfc 9bbf 3ac6
000000c0: 3af5 153a fa13 185c bcf9 491b e5f9 0160
000000d0: 2814 661c feca ffba d5b4 5e48 2427 0cd9
000000e0: 5d28 ee1d d405 684e f0ed 174d 16fa 1a03
000000f0: cff4 2224 07e8 180b 2cf9 da42 ed27 cc0f
-33 -73 21 -10 0 97 101 127
-42 -87 -104 35 -11 91 -13 7
-26 -11 32 31 -55 -38 51 -71
21 -23 -6 1 49 29 64 47
-1 -39 -21 -6 15 37 -53 -20
48 19 41 45 -18 34 -23 -46
-7 50 22 19 13 -8 80 -5
-4 27 -1 -49 -33 -3 21 32
-6 -40 48 84 31 -34 -12 -50
-4 5 25 12 9 -25 -17 -47
65 -22 -9 -26 -30 -23 -5 98
49 9 56 20 63 70 26 15
-11 32 112 42 68 -11 -22 12
7 -27 25 -25 -58 -14 10 25
-3 22 65 96 92 5 -26 24
-61 -105 -87 46 -86 -35 127 23
-34 -34 -52 34 -25 -2 -2 -120
-49 -11 -16 102 -54 -77 26 -50
-45 -93 21 -9 59 45 76 52
57 -107 -121 -49 -94 -2 -65 42
26 -104 61 76 28 -33 -54 21
-77 -2 -46 -14 21 -8 -3 33
44 -41 36 -91 -53 7 -5 -31
-66 -112 -37 -4 -101 -65 58 -58
58 -11 21 58 -6 19 24 92
-68 -7 73 27 -27 -7 1 96
40 20 102 28 -2 -54 -1 -70
-43 -76 94 72 36 39 12 -39
93 40 -18 29 -44 5 104 78
-16 -19 23 77 22 -6 26 3
-49 -12 34 36 7 -24 24 11
44 -7 -38 66 -19 39 -52 15

model_1/conv2d_40/Conv2D i1 [24, 1, 1, 64]
00000000: c104 04e8 a74a cbd8 53f2 f27f 0476 df06
00000010: 36de dbe5 ca19 db12 0204 f7ff 48d5 efc8
00000020: 25e5 0dcc b2e6 2d46 2d09 21c4 a7f8 c000
00000030: ae29 1319 3211 480b 4803 8813 19ec cfc2
00000040: f93a 44f5 20ff e9c7 7fed 0e65 25dc 281c
00000050: 2122 2049 0b08 2dcd 1cf7 bfe1 3d2d b9e1
00000060: cdd2 fbeb 6ff1 fadf c81e b93e f522 ee72
00000070: 0b24 1d21 19e6 1c3d 1aeb 0405 11a5 21b9
00000080: 5fab e139 2fa6 bd46 d056 6f81 3029 272b
00000090: c3f3 5bdc 5e19 aca6 b8d9 77ed 12a9 67f4
000000a0: 1741 15a3 1fba 542e 1f14 59f9 0b40 065f
000000b0: d6df a270 2a58 1a00 fd55 2a6f 273d f72a
000000c0: 2228 d54b 14e9 cd7f cc46 d894 ddbd b4a3
000000d0: f833 cfc9 3e07 3698 ccde 1fc2 59a6 cd36
000000e0: 09df ffdb 040b 23df 4820 fba8 c156 c0c1
000000f0: 28d3 e0c4 ea5b 0541 a723 33f9 111c b363
-63 4 4 -24 -89 74 -53 -40
83 -14 -14 127 4 118 -33 6
54 -34 -37 -27 -54 25 -37 18
2 4 -9 -1 72 -43 -17 -56
37 -27 13 -52 -78 -26 45 70
45 9 33 -60 -89 -8 -64 0
-82 41 19 25 50 17 72 11
72 3 -120 19 25 -20 -49 -62
-7 58 68 -11 32 -1 -23 -57
127 -19 14 101 37 -36 40 28
33 34 32 73 11 8 45 -51
28 -9 -65 -31 61 45 -71 -31
-51 -46 -5 -21 111 -15 -6 -33
-56 30 -71 62 -11 34 -18 114
11 36 29 33 25 -26 28 61
26 -21 4 5 17 -91 33 -71
95 -85 -31 57 47 -90 -67 70
-48 86 111 -127 48 41 39 43
-61 -13 91 -36 94 25 -84 -90
-72 -39 119 -19 18 -87 103 -12
23 65 21 -93 31 -70 84 46
31 20 89 -7 11 64 6 95
-42 -33 -94 112 42 88 26 0
-3 85 42 111 39 61 -9 42
34 40 -43 75 20 -23 -51 127
-52 70 -40 -108 -35 -67 -76 -93
-8 51 -49 -55 62 7 54 -104
-52 -34 31 -62 89 -90 -51 54
9 -33 -1 -37 4 11 35 -33
72 32 -5 -88 -63 86 -64 -63
40 -45 -32 -60 -22 91 5 65
-89 35 51 -7 17 28 -77 99

model_1/stream_18/conv2d_39/Conv2D i1 [24, 5, 1, 24]
00000000: e003 52db d909 d3d2 1ce1 136a bcc5 0de7
00000010: 28a5 dec8 b7d4 13ce 29bc 0aac 3423 bf2b
00000020: 0bd4 d969 06ce cb01 f9a1 810f 1344 edca
00000030: e618 0df1 da58 e935 fa05 d823 14f4 1916
00000040: 65b9 d42c 4454 10db 41f9 3122 0633 210d
00000050: 43bd f422 aa13 0216 2604 1a0e 6f5f 1745
00000060: 61db 61f0 faf2 ea20 5bf7 393f c448 e65e
00000070: ccfb 2d07 2053 0e5a 2128 34df 3a1b b23e
00000080: 18c0 2f2d 05d2 23f8 1ac9 0a3b 27fd 523e
00000090: 4a10 32ff 4d01 cd17 30f8 5463 f2f5 ef1b
000000a0: 1322 d943 da3b 05ee 12ea 2701 3f22 f33b
000000b0: 09b1 073d dbd6 224f 09d8 aefd 2128 16fb
000000c0: 140f 08e1 0726 de40 1fec 2e32 1cae 2b3b
000000d0: 06e2 05ff 1554 3623 3e09 03e7 fb66 9a51
000000e0: e4d4 6301 3018 22f7 1320 4ae3 4e7f 434c
000000f0: 000d acd0 fa1d aa1f 5dcc 1f00 52db cb2a
-32 3 82 -37 -39 9 -45 -46
28 -31 19 106 -68 -59 13 -25
40 -91 -34 -56 -73 -44 19 -50
41 -68 10 -84 52 35 -65 43
11 -44 -39 105 6 -50 -53 1
-7 -95 -127 15 19 68 -19 -54
-26 24 13 -15 -38 88 -23 53
-6 5 -40 35 20 -12 25 22
101 -71 -44 44 68 84 16 -37
65 -7 49 34 6 51 33 13
67 -67 -12 34 -86 19 2 22
38 4 26 14 111 95 23 69
97 -37 97 -16 -6 -14 -22 32
91 -9 57 63 -60 72 -26 94
-52 -5 45 7 32 83 14 90
33 40 52 -33 58 27 -78 62
24 -64 47 45 5 -46 35 -8
26 -55 10 59 39 -3 82 62
74 16 50 -1 77 1 -51 23
48 -8 84 99 -14 -11 -17 27
19 34 -39 67 -38 59 5 -18
18 -22 39 1 63 34 -13 59
9 -79 7 61 -37 -42 34 79
9 -40 -82 -3 33 40 22 -5
20 15 8 -31 7 38 -34 64
31 -20 46 50 28 -82 43 59
6 -30 5 -1 21 84 54 35
62 9 3 -25 -5 102 -102 81
-28 -44 99 1 48 24 34 -9
19 32 74 -29 78 127 67 76
0 13 -84 -48 -6 29 -86 31
93 -52 31 0 82 -37 -53 42

model_1/conv2d_38/Conv2D i1 [24, 1, 1, 64]
00000000: 45f0 2515 25df 35ff db30 11f0 fcdc d27f
00000010: d2f6 2a20 bc0d c502 11d8 1302 1de1 17d4
00000020: 132a 0030 edc2 1503 e3b4 dc60 a619 bbf7
00000030: 1dfc 2f09 f4e9 c1d0 e3f6 e5e5 fcd0 f6fa
00000040: 0d01 0ab7 07ff dd3f 23ef 3204 c247 e430
00000050: ab33 ebec 3105 d853 0e81 fd22 03ea d62d
00000060: 0df3 2fb3 b3ed 2b23 09f4 37cb ceb0 d821
00000070: feb5 1ed2 0ec5 27e4 d324 01e2 55df e827
00000080: da3a dcfb 349b f9c7 1f01 5222 e3d9 e349
00000090: 11bb eada 2de3 f91b f3de 0f99 0e6f 4a47
000000a0: 81b1 5ec5 e564 b790 d613 27fa 9969 d715
000000b0: 4b42 3ceb e062 06f9 0eae 5d0a 9ce3 194e
000000c0: d7ec 13d6 6307 baf7 09ef c458 2615 ddf7
000000d0: fcdc 30f5 9142 03d3 ef81 e90a f5f1 bae8
000000e0: 21b8 cdea 2606 d0ee eb02 e941 fa74 ed64
000000f0: 0d62 f5fc a4e9 2354 1b35 d2eb 47dc 2539
69 -16 37 21 37 -33 53 -1
-37 48 17 -16 -4 -36 -46 127
-46 -10 42 32 -68 13 -59 2
17 -40 19 2 29 -31 23 -44
19 42 0 48 -19 -62 21 3
-29 -76 -36 96 -90 25 -69 -9
29 -4 47 9 -12 -23 -63 -48
-29 -10 -27 -27 -4 -48 -10 -6
13 1 10 -73 7 -1 -35 63
35 -17 50 4 -62 71 -28 48
-85 51 -21 -20 49 5 -40 83
14 -127 -3 34 3 -22 -42 45
13 -13 47 -77 -77 -19 43 35
9 -12 55 -53 -50 -80 -40 33
-2 -75 30 -46 14 -59 39 -28
-45 36 1 -30 85 -33 -24 39
-38 58 -36 -5 52 -101 -7 -57
31 1 82 34 -29 -39 -29 73
17 -69 -22 -38 45 -29 -7 27
-13 -34 15 -103 14 111 74 71
-127 -79 94 -59 -27 100 -73 -112
-42 19 39 -6 -103 105 -41 21
75 66 60 -21 -32 98 6 -7
14 -82 93 10 -100 -29 25 78
-41 -20 19 -42 99 7 -70 -9
9 -17 -60 88 38 21 -35 -9
-4 -36 48 -11 -111 66 3 -45
-17 -127 -23 10 -11 -15 -70 -24
33 -72 -51 -22 38 6 -48 -18
-21 2 -23 65 -6 116 -19 100
13 98 -11 -4 -92 -23 35 84
27 53 -46 -21 71 -36 37 57

model_1/conv2d_37/Conv2D i1 [24, 1, 1, 64]
00000000: ec05 cf0c ef94 18a5 a87f 0eed f44b 1135
00000010: f3b9 11d8 cb53 16fb d0fa ece0 5c10 1a06
00000020: 9fd1 f7d4 a1ef 0e28 14e4 f0de 2d17 bcd0
00000030: dde8 b638 0e5c 3123 35fe 1029 6609 1d1d
00000040: 4728 e2a1 c1b6 f215 c4d8 c3af c593 e125
00000050: d120 0c00 e2f0 d238 5ceb e9e1 43dd b7f5
00000060: f3e0 8fdc 9fb4 e81e 9418 c0f1 a900 52d6
00000070: 7f38 efe7 0100 09d2 be08 a8de d2f8 b920
00000080: e127 01d2 4527 11d8 9dc8 31d9 ede0 6ef4
00000090: 0886 c624 05e6 3648 c41b cbe9 ac1a d0ff
000000a0: e2d5 c6b7 2da8 c127 122d e69a fb23 7aff
000000b0: 4cce 22a3 c281 ea3a 99bb b2f9 cc35 0ee0
000000c0: c4b3 1adf cfdd f781 b613 e002 e235 be04
000000d0: b9bf f5ab 1a6a df03 c707 c004 382e a5fa
000000e0: bbd6 128a 028e a736 1b1c f1ec f0dc b302
000000f0: 121c 06d9 ce23 6715 b906 0caa fc33 ba41
-20 5 -49 12 -17 -108 24 -91
-88 127 14 -19 -12 75 17 53
-13 -71 17 -40 -53 83 22 -5
-48 -6 -20 -32 92 16 26 6
-97 -47 -9 -44 -95 -17 14 40
20 -28 -16 -34 45 23 -68 -48
-35 -24 -74 56 14 92 49 35
53 -2 16 41 102 9 29 29
71 40 -30 -95 -63 -74 -14 21
-60 -40 -61 -81 -59 -109 -31 37
-47 32 12 0 -30 -16 -46 56
92 -21 -23 -31 67 -35 -73 -11
-13 -32 -113 -36 -97 -76 -24 30
-108 24 -64 -15 -87 0 82 -42
127 56 -17 -25 1 0 9 -46
-66 8 -88 -34 -46 -8 -71 32
-31 39 1 -46 69 39 17 -40
-99 -56 49 -39 -19 -32 110 -12
8 -122 -58 36 5 -26 54 72
-60 27 -53 -23 -84 26 -48 -1
-30 -43 -58 -73 45 -88 -63 39
18 45 -26 -102 -5 35 122 -1
76 -50 34 -93 -62 -127 -22 58
-103 -69 -78 -7 -52 53 14 -32
-60 -77 26 -33 -49 -35 -9 -127
-74 19 -32 2 -30 53 -66 4
-71 -65 -11 -85 26 106 -33 3
-57 7 -64 4 56 46 -91 -6
-69 -42 18 -118 2 -114 -89 54
27 28 -15 -20 -16 -36 -77 2
18 28 6 -39 -50 35 103 21
-71 6 12 -86 -4 51 -70 65

model_1/conv2d_36/Conv2D i1 [64, 1, 1, 72]
00000000: 76d7 1eff 10f0 48e2 c802 014f 1b11 0956
00000010: cb01 c227 dadd 143f 0ef4 f918 fd2d 5721
00000020: 04eb c8f3 da22 bce2 d119 e7cf 1338 32f4
00000030: 0ff9 4f11 f205 ce28 e359 c51b d201 3d9d
00000040: bf09 e720 89d3 eb81 ecff 7d8b 1b1c 0be2
00000050: a5ae e42f 27d7 3e1a 0330 4a1b 581b caa5
00000060: 0049 dced cdce 0e16 19a8 20e1 12ca 0ff5
00000070: dce5 f7f3 c9ee c506 f707 ca0b b6b4 f02b
00000080: 21ac 1c8b 15eb 0d22 45fc 7fd8 10f0 13fa
00000090: 3352 f108 03ee 6f1d dc65 06b7 7e34 da1e
000000a0: 3f33 fe09 49b6 5724 93bc 1606 b912 cfd8
000000b0: f80d 2d29 e97f f900 12f1 2540 bd98 cbbb
000000c0: 35d6 d56b 044f 2232 491d aa42 c94a c526
000000d0: 11f8 4a61 5cf2 1134 efc2 38ba 0001 98d5
000000e0: e2a9 edb1 62c7 d1ff cba7 ec85 7fc6 0487
000000f0: c6e9 cdcd 0d31 b54e 07c7 bde8 f9ad 1445
118 -41 30 -1 16 -16 72 -30
-56 2 1 79 27 17 9 86
-53 1 -62 39 -38 -35 20 63
14 -12 -7 24 -3 45 87 33
4 -21 -56 -13 -38 34 -68 -30
-47 25 -25 -49 19 56 50 -12
15 -7 79 17 -14 5 -50 40
-29 89 -59 27 -46 1 61 -99
-65 9 -25 32 -119 -45 -21 -127
-20 -1 125 -117 27 28 11 -30
-91 -82 -28 47 39 -41 62 26
3 48 74 27 88 27 -54 -91
0 73 -36 -19 -51 -50 14 22
25 -88 32 -31 18 -54 15 -11
-36 -27 -9 -13 -55 -18 -59 6
-9 7 -54 11 -74 -76 -16 43
33 -84 28 -117 21 -21 13 34
69 -4 127 -40 16 -16 19 -6
51 82 -15 8 3 -18 111 29
-36 101 6 -73 126 52 -38 30
63 51 -2 9 73 -74 87 36
-109 -68 22 6 -71 18 -49 -40
-8 13 45 41 -23 127 -7 0
18 -15 37 64 -67 -104 -53 -69
53 -42 -43 107 4 79 34 50
73 29 -86 66 -55 74 -59 38
17 -8 74 97 92 -14 17 52
-17 -62 56 -70 0 1 -104 -43
-30 -87 -19 -79 98 -57 -47 -1
-53 -89 -20 -123 127 -58 4 -121
-58 -23 -51 -51 13 49 -75 78
7 -57 -67 -24 -7 -83 20 69

model_1/stream_17/conv2d_35/Conv2D i1 [24, 5, 1, 24]
00000000: 01ec b859 0809 e6e2 07c6 c643 ebae 124b
00000010: 05c4 d753 6243 8155 0400 afef 222f 1403
00000020: dcfd 3924 f6dd e438 f7e5 f841 f126 d653
00000030: f21a e5e9 f2f0 1de6 fce3 163c e3da 0219
00000040: cbf2 d5fe f212 d939 1ceb 0802 17d2 022f
00000050: cabd 11ed 2231 f7ca bd1c dcde b929 d0e9
00000060: 20c6 23b5 c7e9 24ea cdf2 e9d6 db55 e4c3
00000070: b039 01ae cf0e fdd8 78c8 19e1 0609 1eaf
00000080: a87f 3906 f4d0 f7bf c0f9 0faa dbb4 21cf
00000090: 2d03 0f01 190c 26d0 e10d fd1c 03f0 ddda
000000a0: deec 2ce8 ded5 15ea 0eee 0125 f7e9 281b
000000b0: f31e e108 f9e7 f003 e2e2 0b18 ff00 f306
000000c0: e2ee fd2d 23e5 21f2 0301 010d d0fe f7ef
000000d0: 07fe 0eee f7fc e401 0aff f509 ddf0 16fd
000000e0: f023 03fc e911 12e3 fef4 260b 1d06 152e
000000f0: 06b4 28c4 eb47 fc81 db0c 3dff dce3 b2cc
1 -20 -72 89 8 9 -26 -30
7 -58 -58 67 -21 -82 18 75
5 -60 -41 83 98 67 -127 85
4 0 -81 -17 34 47 20 3
-36 -3 57 36 -10 -35 -28 56
-9 -27 -8 65 -15 38 -42 83
-14 26 -27 -23 -14 -16 29 -26
-4 -29 22 60 -29 -38 2 25
-53 -14 -43 -2 -14 18 -39 57
28 -21 8 2 23 -46 2 47
-54 -67 17 -19 34 49 -9 -54
-67 28 -36 -34 -71 41 -48 -23
32 -58 35 -75 -57 -23 36 -22
-51 -14 -23 -42 -37 85 -28 -61
-80 57 1 -82 -49 14 -3 -40
120 -56 25 -31 6 9 30 -81
-88 127 57 6 -12 -48 -9 -65
-64 -7 15 -86 -37 -76 33 -49
45 3 15 1 25 12 38 -48
-31 13 -3 28 3 -16 -35 -38
-34 -20 44 -24 -34 -43 21 -22
14 -18 1 37 -9 -23 40 27
-13 30 -31 8 -7 -25 -16 3
-30 -30 11 24 -1 0 -13 6
-30 -18 -3 45 35 -27 33 -14
3 1 1 13 -48 -2 -9 -17
7 -2 14 -18 -9 -4 -28 1
10 -1 -11 9 -35 -16 22 -3
-16 35 3 -4 -23 17 18 -29
-2 -12 38 11 29 6 21 46
6 -76 40 -60 -21 71 -4 -127
-37 12 61 -1 -36 -29 -78 -52

model_1/stream_16/conv2d_34/Conv2D i1 [24, 5, 1, 24]
00000000: c1d2 7fc3 0720 beda e9f9 dcb9 b741 6d4f
00000010: ccae a8ed 21e4 918a b0ff 4ddc f106 bdbd
00000020: 00de c212 f327 2f27 f7ec dd13 1fdd f6e0
00000030: cdff 2b00 0b02 d4be dfcc fdd1 1304 0712
00000040: 1b1e 0f09 1de3 e0eb 0022 1d0a 07c3 e5ee
00000050: 0cf7 da17 26cc 3707 1904 1405 d906 dc07
00000060: 1b19 f408 d59d 0a1a ebec ec04 28ea 2eb4
00000070: f5bf 0618 dafc 0ec8 faf0 ca11 01ef e459
00000080: e5e2 0ddd 7fae c6e5 adbc f211 f852 1dcd
00000090: e904 f422 dce7 10ff ee04 f5fc 42e2 0e12
000000a0: eae3 f9f5 ed1e e0cd feee 0516 d3e6 ff0d
000000b0: e006 dafb fff9 2808 3517 0819 fbf3 f7e7
000000c0: e5f9 ec06 def5 ebd9 04fc 06ee ff02 1502
000000d0: 3817 2209 ec02 f9ea 0806 e5e4 eb04 e6f0
000000e0: 020d 0719 f40b 1014 0926 eff6 dae9 11e4
000000f0: b527 0718 e6b3 b1d8 c2be 00ab 54e5 281c
-63 -46 127 -61 7 32 -66 -38
-23 -7 -36 -71 -73 65 109 79
-52 -82 -88 -19 33 -28 -111 -118
-80 -1 77 -36 -15 6 -67 -67
0 -34 -62 18 -13 39 47 39
-9 -20 -35 19 31 -35 -10 -32
-51 -1 43 0 11 2 -44 -66
-33 -52 -3 -47 19 4 7 18
27 30 15 9 29 -29 -32 -21
0 34 29 10 7 -61 -27 -18
12 -9 -38 23 38 -52 55 7
25 4 20 5 -39 6 -36 7
27 25 -12 8 -43 -99 10 26
-21 -20 -20 4 40 -22 46 -76
-11 -65 6 24 -38 -4 14 -56
-6 -16 -54 17 1 -17 -28 89
-27 -30 13 -35 127 -82 -58 -27
-83 -68 -14 17 -8 82 29 -51
-23 4 -12 34 -36 -25 16 -1
-18 4 -11 -4 66 -30 14 18
-22 -29 -7 -11 -19 30 -32 -51
-2 -18 5 22 -45 -26 -1 13
-32 6 -38 -5 -1 -7 40 8
53 23 8 25 -5 -13 -9 -25
-27 -7 -20 6 -34 -11 -21 -39
4 -4 6 -18 -1 2 21 2
56 23 34 9 -20 2 -7 -22
8 6 -27 -28 -21 4 -26 -16
2 13 7 25 -12 11 16 20
9 38 -17 -10 -38 -23 17 -28
-75 39 7 24 -26 -77 -79 -40
-62 -66 0 -85 84 -27 40 28

model_1/conv2d_33/Conv2D i1 [24, 1, 1, 32]
00000000: cf1c 0c3c 02cf e3e8 e368 fb24 0d56 3f4a
00000010: 7f31 f4c4 b114 3536 facf 444b be2d 00fc
00000020: f743 c653 54aa bdb0 1ac3 bc04 f1c3 13f5
00000030: 15c9 1a44 b433 7f05 39c0 07aa 64e8 a4fc
00000040: c972 81fa 17b7 da00 23c0 cc19 f3da bef5
00000050: 243e f1ba 06f1 acac eaeb 19c8 fd99 f401
00000060: 2144 1c32 d348 b77f dc20 29fe ea2c 3d16
00000070: b8bc f528 ec02 ce5e ab19 35b7 3145 d1a1
00000080: efa2 545a 9a24 eff4 fe6b bf7f 0a5d 5dec
00000090: b910 deb9 0621 b303 cbbe 07c3 a12a 2310
000000a0: 283c 71e9 fcc2 8b96 d950 5217 dfe1 da02
000000b0: 6eb2 f581 4e53 c899 b99f e1a6 ef84 1adc
000000c0: a82e 283b 27f0 fcd4 7f29 11c9 04f9 f130
000000d0: 41e8 2fe2 fbcb 4616 322d 05fc 98bc 45df
000000e0: 1fec 31ea 2047 ac25 27eb 36e8 2eef dcf8
000000f0: 6596 b17f e62c a9d4 1bb1 4303 fa54 f1c4
-49 28 12 60 2 -49 -29 -24
-29 104 -5 36 13 86 63 74
127 49 -12 -60 -79 20 53 54
-6 -49 68 75 -66 45 0 -4
-9 67 -58 83 84 -86 -67 -80
26 -61 -68 4 -15 -61 19 -11
21 -55 26 68 -76 51 127 5
57 -64 7 -86 100 -24 -92 -4
-55 114 -127 -6 23 -73 -38 0
35 -64 -52 25 -13 -38 -66 -11
36 62 -15 -70 6 -15 -84 -84
-22 -21 25 -56 -3 -103 -12 1
33 68 28 50 -45 72 -73 127
-36 32 41 -2 -22 44 61 22
-72 -68 -11 40 -20 2 -50 94
-85 25 53 -73 49 69 -47 -95
-17 -94 84 90 -102 36 -17 -12
-2 107 -65 127 10 93 93 -20
-71 16 -34 -71 6 33 -77 3
-53 -66 7 -61 -95 42 35 16
40 60 113 -23 -4 -62 -117 -106
-39 80 82 23 -33 -31 -38 2
110 -78 -11 -127 78 83 -56 -103
-71 -97 -31 -90 -17 -124 26 -36
-88 46 40 59 39 -16 -4 -44
127 41 17 -55 4 -7 -15 48
65 -24 47 -30 -5 -53 70 22
50 45 5 -4 -104 -68 69 -33
31 -20 49 -22 32 71 -84 37
39 -21 54 -24 46 -17 -36 -8
101 -106 -79 127 -26 44 -87 -44
27 -79 67 3 -6 84 -15 -60

model_1/stream_15/conv2d_32/Conv2D i1 [24, 5, 1, 24]
00000000: 10ee 2005 0df8 dbcf 2433 cec4 f1c6 ceee
00000010: 31d3 3524 181e 1710 1ac8 06d1 b40d d400
00000020: 0306 d4ac 07fe f428 66e6 e953 17ee fa19
00000030: dc1a bdce eee3 1526 38f4 d4f4 2dc5 ea0b
00000040: 7830 e232 d5ed eb0b 181f e0d3 fb14 fdcf
00000050: 1de4 e6c0 6d0b 2cfe 54f8 ed30 f713 154f
00000060: 4129 3a54 db40 0305 ecd4 ffc2 7ffd f4d2
00000070: 43c9 fe0f 113a 6413 2b18 12d2 12c9 ff0f
00000080: e2cd 81e8 d889 1427 ffa8 a016 c0f3 dab4
00000090: bd37 26b4 1507 e4e5 c1ea 24f9 04ee e206
000000a0: 4227 244d 8cc3 12d2 f6fd eb0f 09c7 b7fc
000000b0: d8ef 07ea 238c d4c4 2a06 f419 d6b4 26c8
000000c0: f969 31d9 e13e d606 c430 29e1 2e96 0d05
000000d0: f52c d7ff fef6 2e4c 3a50 ed4d da30 132b
000000e0: c009 f9e0 f1aa 18e6 1f36 9aae 9425 72e3
000000f0: 4911 06f5 f1f2 15bc c207 5bfa cfc8 e712
16 -18 32 5 13 -8 -37 -49
36 51 -50 -60 -15 -58 -50 -18
49 -45 53 36 24 30 23 16
26 -56 6 -47 -76 13 -44 0
3 6 -44 -84 7 -2 -12 40
102 -26 -23 83 23 -18 -6 25
-36 26 -67 -50 -18 -29 21 38
56 -12 -44 -12 45 -59 -22 11
120 48 -30 50 -43 -19 -21 11
24 31 -32 -45 -5 20 -3 -49
29 -28 -26 -64 109 11 44 -2
84 -8 -19 48 -9 19 21 79
65 41 58 84 -37 64 3 5
-20 -44 -1 -62 127 -3 -12 -46
67 -55 -2 15 17 58 100 19
43 24 18 -46 18 -55 -1 15
-30 -51 -127 -24 -40 -119 20 39
-1 -88 -96 22 -64 -13 -38 -76
-67 55 38 -76 21 7 -28 -27
-63 -22 36 -7 4 -18 -30 6
66 39 36 77 -116 -61 18 -46
-10 -3 -21 15 9 -57 -73 -4
-40 -17 7 -22 35 -116 -44 -60
42 6 -12 25 -42 -76 38 -56
-7 105 49 -39 -31 62 -42 6
-60 48 41 -31 46 -106 13 5
-11 44 -41 -1 -2 -10 46 76
58 80 -19 77 -38 48 19 43
-64 9 -7 -32 -15 -86 24 -26
31 54 -102 -82 -108 37 114 -29
73 17 6 -11 -15 -14 21 -68
-62 7 91 -6 -49 -56 -25 18

model_1/conv2d_31/Conv2D i1 [24, 1, 1, 32]
00000000: 1a46 ffa4 4e47 8ab4 d8af aa3e f40c 092e
00000010: 9720 ac02 e2f1 ce3a c0f0 e5fa 7f37 1aa9
00000020: c92a 7dc0 55c6 490f b9fa 5650 dd7f 38ec
00000030: f046 179d 745b 2c51 32af 0b03 7ad9 b5bc
00000040: 332c f2da 0b27 2051 d81b 0808 2af5 de43
00000050: bb24 46ec 7f05 a4eb 3b35 1dfd fad6 c803
00000060: 22f0 f7e5 8f11 f581 f2a3 d21d 4f43 1fa4
00000070: 222e 1616 34dd e5a3 1a33 9f93 cbba 2662
00000080: 1e03 62f9 cab1 db90 000e aa81 4cba 7ab8
00000090: ef19 78f4 fc44 2a00 e1f2 eb93 e932 cd1f
000000a0: 5aee 40d0 3c19 83da 3b8f 10f5 ebc6 16d3
000000b0: 0bbf 1d3f 0fc6 a52a caf6 527f e4f4 49c6
000000c0: d5ff 445f 3235 0b7f 3dc4 c465 30c7 45b8
000000d0: a904 d456 0abb 8557 af1a 0e27 da3c f8cd
000000e0: 76d9 347f e03b 817f 5ed4 af30 b1bb 2ff3
000000f0: 15b1 3615 ef1d 4a45 eea7 bd02 9b6f 248d
26 70 -1 -92 78 71 -118 -76
-40 -81 -86 62 -12 12 9 46
-105 32 -84 2 -30 -15 -50 58
-64 -16 -27 -6 127 55 26 -87
-55 42 125 -64 85 -58 73 15
-71 -6 86 80 -35 127 56 -20
-16 70 23 -99 116 91 44 81
50 -81 11 3 122 -39 -75 -68
51 44 -14 -38 11 39 32 81
-40 27 8 8 42 -11 -34 67
-69 36 70 -20 127 5 -92 -21
59 53 29 -3 -6 -42 -56 3
34 -16 -9 -27 -113 17 -11 -127
-14 -93 -46 29 79 67 31 -92
34 46 22 22 52 -35 -27 -93
26 51 -97 -109 -53 -70 38 98
30 3 98 -7 -54 -79 -37 -112
0 14 -86 -127 76 -70 122 -72
-17 25 120 -12 -4 68 42 0
-31 -14 -21 -109 -23 50 -51 31
90 -18 64 -48 60 25 -125 -38
59 -113 16 -11 -21 -58 22 -45
11 -65 29 63 15 -58 -91 42
-54 -10 82 127 -28 -12 73 -58
-43 -1 68 95 50 53 11 127
61 -60 -60 101 48 -57 69 -72
-87 4 -44 86 10 -69 -123 87
-81 26 14 39 -38 60 -8 -51
118 -39 52 127 -32 59 -127 127
94 -44 -81 48 -79 -69 47 -13
21 -79 54 21 -17 29 74 69
-18 -89 -67 2 -101 111 36 -115

model_1/conv2d_30/Conv2D i1 [24, 1, 1, 32]
00000000: d3d0 107f c81b c40e 4761 34db 27d4 99ca
00000010: 2a69 3e01 9b06 e105 143f ea11 0908 f9a5
00000020: 0e49 e8dd 7be3 f0e6 29f1 d8d7 b70d 2a1e
00000030: 2bad 81f7 14ba 4adc e5bb e11f 020a e936
00000040: f07f dcfc 1a2a 8b01 44ed a60c 196f c81d
00000050: a998 b537 ebec 49ea 5b19 2659 4b60 3cdd
00000060: a53d bdb3 2003 f70a 0ee7 e29d abeb b226
00000070: e1cb e6eb 81e8 e6d0 d2e6 00e4 9a0a c4e9
00000080: d444 4643 683f 3dfd 1b0b f0bb aef2 ddb2
00000090: 174e 19f5 bfeb c71c 01c2 ec06 a633 a281
000000a0: f200 06d7 e9c3 eee2 f140 2ae9 1b20 2331
000000b0: 3cef f9e4 ddde 7fce d5c1 20e6 e611 200d
000000c0: ec3e ecf2 1f51 01cd 7f44 1c95 01b2 f1ea
000000d0: 2d28 3314 d91f 600a cd23 15d5 cc0e f909
000000e0: cce7 dacc 3dc4 2592 1370 1be4 ccd9 f94a
000000f0: 2681 2415 c2ba b534 b9e2 e9f6 b1bc 08c3
-45 -48 16 127 -56 27 -60 14
71 97 52 -37 39 -44 -103 -54
42 105 62 1 -101 6 -31 5
20 63 -22 17 9 8 -7 -91
14 73 -24 -35 123 -29 -16 -26
41 -15 -40 -41 -73 13 42 30
43 -83 -127 -9 20 -70 74 -36
-27 -69 -31 31 2 10 -23 54
-16 127 -36 -4 26 42 -117 1
68 -19 -90 12 25 111 -56 29
-87 -104 -75 55 -21 -20 73 -22
91 25 38 89 75 96 60 -35
-91 61 -67 -77 32 3 -9 10
14 -25 -30 -99 -85 -21 -78 38
-31 -53 -26 -21 -127 -24 -26 -48
-46 -26 0 -28 -102 10 -60 -23
-44 68 70 67 104 63 61 -3
27 11 -16 -69 -82 -14 -35 -78
23 78 25 -11 -65 -21 -57 28
1 -62 -20 6 -90 51 -94 -127
-14 0 6 -41 -23 -61 -18 -30
-15 64 42 -23 27 32 35 49
60 -17 -7 -28 -35 -34 127 -50
-43 -63 32 -26 -26 17 32 13
-20 62 -20 -14 31 81 1 -51
127 68 28 -107 1 -78 -15 -22
45 40 51 20 -39 31 96 10
-51 35 21 -43 -52 14 -7 9
-52 -25 -38 -52 61 -60 37 -110
19 112 27 -28 -52 -39 -7 74
38 -127 36 21 -62 -70 -75 52
-71 -30 -23 -10 -79 -68 8 -61

model_1/conv2d_29/Conv2D1 i1 [32, 1, 1, 72]
00000000: 0efd f3e2 07d3 5020 3329 e238 1a55 66a3
00000010: de3e 153d b7c4 3249 40d9 0734 574b fc05
00000020: 3226 0a0b eed8 d6e0 103b dc0e 3a3f 385d
00000030: cf12 b92c 32b8 08bf 9aff 0b04 18ab 4b22
00000040: ca28 17db 7f50 3202 0e1c c6b0 1138 382a
00000050: edb9 42e9 8130 e131 f4d8 d3d8 d8d3 45d8
00000060: f2cf 020d e305 fbfb e837 302e 1345 ed00
00000070: fcc3 c8ca d531 06d4 d4f5 0cc0 e000 1807
00000080: 2113 00bf 07e5 ea0b 04da 01f8 d6cf 031c
00000090: b0c6 08c2 509f f402 c815 5c5a 81ec 4248
000000a0: c794 b15b d008 f534 baf4 fbf5 5653 05af
000000b0: fe10 edd8 db1a 73de f019 39fb f6a2 5649
000000c0: a9fd 18fb 7e34 ed94 f3fe 4df9 fd21 b6d1
000000d0: f3ff 59c1 442c 5dc3 eacc 343c fb81 df18
000000e0: f8cd cedf b43a 22c4 f419 1272 5e60 ddc1
000000f0: d932 0c11 d1f3 291e d1c5 d9c5 e516 ba0b
14 -3 -13 -30 7 -45 80 32
51 41 -30 56 26 85 102 -93
-34 62 21 61 -73 -60 50 73
64 -39 7 52 87 75 -4 5
50 38 10 11 -18 -40 -42 -32
16 59 -36 14 58 63 56 93
-49 18 -71 44 50 -72 8 -65
-102 -1 11 4 24 -85 75 34
-54 40 23 -37 127 80 50 2
14 28 -58 -80 17 56 56 42
-19 -71 66 -23 -127 48 -31 49
-12 -40 -45 -40 -40 -45 69 -40
-14 -49 2 13 -29 5 -5 -5
-24 55 48 46 19 69 -19 0
-4 -61 -56 -54 -43 49 6 -44
-44 -11 12 -64 -32 0 24 7
33 19 0 -65 7 -27 -22 11
4 -38 1 -8 -42 -49 3 28
-80 -58 8 -62 80 -97 -12 2
-56 21 92 90 -127 -20 66 72
-57 -108 -79 91 -48 8 -11 52
-70 -12 -5 -11 86 83 5 -81
-2 16 -19 -40 -37 26 115 -34
-16 25 57 -5 -10 -94 86 73
-87 -3 24 -5 126 52 -19 -108
-13 -2 77 -7 -3 33 -74 -47
-13 -1 89 -63 68 44 93 -61
-22 -52 52 60 -5 -127 -33 24
-8 -51 -50 -33 -76 58 34 -60
-12 25 18 114 94 96 -35 -63
-39 50 12 17 -47 -13 41 30
-47 -59 -39 -59 -27 22 -70 11

model_1/stream_14/conv2d_28/Conv2D i1 [24, 3, 1, 24]
00000000: 41df 1634 d402 3ffa 3505 db1c 1119 ffeb
00000010: 12cf ca7f 40fc 10d4 24ee 2be1 e0dc 3d00
00000020: d7fb 1f0a fc29 19d4 e10a 112c f7e3 ec35
00000030: f2fc 0bf0 0f0f 02e4 dc20 0c12 e217 1fed
00000040: b812 31bf 2d0c c7ed 812a 2d32 3155 d741
00000050: f8b0 3cd8 651e 2095 d728 50cb f7ce ea06
00000060: 0bde 4005 3c5c dd03 f9da e7d3 4f28 1057
00000070: f6fb 4b91 d445 c70a 7dd0 3fce 51b9 ab2a
00000080: 8f57 08ec e7d1 0036 3839 03b3 c703 f19b
00000090: f33b 12dd 8120 dbe1 1533 154f 39ac cf45
000000a0: 0bb8 59e2 17ab 6ca4 ee01 f712 3bf5 2eeb
000000b0: f615 e631 35c9 f824 1e2a 42ec f72a 770a
000000c0: 271c 084b 571e c1d1 acdc e273 22f3 c1e4
000000d0: 1744 ff30 d82a 27fe b43e 2ef4 ad06 d0ee
000000e0: 2366 532f e304 32de 2d8c f521 2ccc 43e6
000000f0: 9fdb fca8 12dd 2302 13f2 22da 1616 3c81
65 -33 22 52 -44 2 63 -6
53 5 -37 28 17 25 -1 -21
18 -49 -54 127 64 -4 16 -44
36 -18 43 -31 -32 -36 61 0
-41 -5 31 10 -4 41 25 -44
-31 10 17 44 -9 -29 -20 53
-14 -4 11 -16 15 15 2 -28
-36 32 12 18 -30 23 31 -19
-72 18 49 -65 45 12 -57 -19
-127 42 45 50 49 85 -41 65
-8 -80 60 -40 101 30 32 -107
-41 40 80 -53 -9 -50 -22 6
11 -34 64 5 60 92 -35 3
-7 -38 -25 -45 79 40 16 87
-10 -5 75 -111 -44 69 -57 10
125 -48 63 -50 81 -71 -85 42
-113 87 8 -20 -25 -47 0 54
56 57 3 -77 -57 3 -15 -101
-13 59 18 -35 -127 32 -37 -31
21 51 21 79 57 -84 -49 69
11 -72 89 -30 23 -85 108 -92
-18 1 -9 18 59 -11 46 -21
-10 21 -26 49 53 -55 -8 36
30 42 66 -20 -9 42 119 10
39 28 8 75 87 30 -63 -47
-84 -36 -30 115 34 -13 -63 -28
23 68 -1 48 -40 42 39 -2
-76 62 46 -12 -83 6 -48 -18
35 102 83 47 -29 4 50 -34
45 -116 -11 33 44 -52 67 -26
-97 -37 -4 -88 18 -35 35 2
19 -14 34 -38 22 22 60 -127

model_1/stream_13/conv2d_27/Conv2D i1 [24, 3, 1, 24]
00000000: 0328 e113 1807 14ec f8b9 e1ed eae7 0dc2
00000010: 7f60 fcf5 df0a ead7 1e1d e125 14d5 ccc2
00000020: fcf1 f4d8 08e2 12fa 030b f5f8 cafa 0cde
00000030: 2804 e206 fe18 f71d ff1a 400c 0911 d925
00000040: 03e1 02eb 1ddc f805 0504 3900 af59 0a2a
00000050: d3d3 0f1d b8f9 9814 92e6 ed55 982c 5bdf
00000060: e78e 614b a30e 2821 f29b 3977 281a d54c
00000070: f609 7f0d a3c6 c0f4 27a6 31c4 adcb 49cd
00000080: f0ff bfee 74f8 5112 ceea 6b42 20a7 d8f5
00000090: 00fb 1f08 7298 eca7 dbfa 32e5 56e7 434d
000000a0: 6078 3a7a e510 b5da efd4 0fb2 f401 1dda
000000b0: 2b2c 1047 a2f7 ec53 f1ce d176 ec34 b548
000000c0: 7d2c 34ea b5e2 bfc0 3321 6ef0 cfde 6042
000000d0: d592 40d2 0cf0 097f 4a14 3f31 0600 cca9
000000e0: 06c9 f6a6 1223 c1d1 4714 f200 0f21 fefe
000000f0: 310b 0b00 4ecd cad0 13ca 3301 30ec ed46
3 40 -31 19 24 7 20 -20
-8 -71 -31 -19 -22 -25 13 -62
127 96 -4 -11 -33 10 -22 -41
30 29 -31 37 20 -43 -52 -62
-4 -15 -12 -40 8 -30 18 -6
3 11 -11 -8 -54 -6 12 -34
40 4 -30 6 -2 24 -9 29
-1 26 64 12 9 17 -39 37
3 -31 2 -21 29 -36 -8 5
5 4 57 0 -81 89 10 42
-45 -45 15 29 -72 -7 -104 20
-110 -26 -19 85 -104 44 91 -33
-25 -114 97 75 -93 14 40 33
-14 -101 57 119 40 26 -43 76
-10 9 127 13 -93 -58 -64 -12
39 -90 49 -60 -83 -53 73 -51
-16 -1 -65 -18 116 -8 81 18
-50 -22 107 66 32 -89 -40 -11
0 -5 31 8 114 -104 -20 -89
-37 -6 50 -27 86 -25 67 77
96 120 58 122 -27 16 -75 -38
-17 -44 15 -78 -12 1 29 -38
43 44 16 71 -94 -9 -20 83
-15 -50 -47 118 -20 52 -75 72
125 44 52 -22 -75 -30 -65 -64
51 33 110 -16 -49 -34 96 66
-43 -110 64 -46 12 -16 9 127
74 20 63 49 6 0 -52 -87
6 -55 -10 -90 18 35 -63 -47
71 20 -14 0 15 33 -2 -2
49 11 11 0 78 -51 -54 -48
19 -54 51 1 48 -20 -19 70

model_1/conv2d_26/Conv2D i1 [24, 1, 1, 32]
00000000: 0e48 f4ed 30df 241f e8ee f224 31c1 bd55
00000010: 0d72 8107 2fe6 0a12 f311 df3e 0216 bac6
00000020: e723 09e2 da3f bb0a c137 d5a1 1781 f7fe
00000030: d137 11c3 0c0f 172f ed46 d937 0c07 2de0
00000040: 0415 1407 f4d4 1638 f5e1 e234 ee81 160e
00000050: d25d f4dc 992e fab8 1bd0 d42d 0877 07e0
00000060: 2279 1b0d 4254 5f45 ebca 580a bb50 dc41
00000070: a756 352b 2598 2119 db50 6d27 fa32 81fd
00000080: 2351 dc50 4c75 2961 5e31 5a6a b5fe bd8f
00000090: a315 0107 e97f 31f3 1db3 b699 06e9 dd11
000000a0: fe21 06ff 3ace e8bd 0302 14da e6e6 7fd3
000000b0: 380e 6124 e9af a043 3bee 3a3e 0714 cb33
000000c0: f100 ee28 3f18 b4ef 4931 2a3d 3bda 3131
000000d0: 8110 c207 1521 2650 dc3a ddc0 111f 68cb
000000e0: cfdb dcdf 196e e9ee 04fb 35d5 37dc ad1d
000000f0: 0aeb dac7 cb66 db29 f559 d994 4348 7f1c
14 72 -12 -19 48 -33 36 31
-24 -18 -14 36 49 -63 -67 85
13 114 -127 7 47 -26 10 18
-13 17 -33 62 2 22 -70 -58
-25 35 9 -30 -38 63 -69 10
-63 55 -43 -95 23 -127 -9 -2
-47 55 17 -61 12 15 23 47
-19 70 -39 55 12 7 45 -32
4 21 20 7 -12 -44 22 56
-11 -31 -30 52 -18 -127 22 14
-46 93 -12 -36 -103 46 -6 -72
27 -48 -44 45 8 119 7 -32
34 121 27 13 66 84 95 69
-21 -54 88 10 -69 80 -36 65
-89 86 53 43 37 -104 33 25
-37 80 109 39 -6 50 -127 -3
35 81 -36 80 76 117 41 97
94 49 90 106 -75 -2 -67 -113
-93 21 1 7 -23 127 49 -13
29 -77 -74 -103 6 -23 -35 17
-2 33 6 -1 58 -50 -24 -67
3 2 20 -38 -26 -26 127 -45
56 14 97 36 -23 -81 -96 67
59 -18 58 62 7 20 -53 51
-15 0 -18 40 63 24 -76 -17
73 49 42 61 59 -38 49 49
-127 16 -62 7 21 33 38 80
-36 58 -35 -64 17 31 104 -53
-49 -37 -36 -33 25 110 -23 -18
4 -5 53 -43 55 -36 -83 29
10 -21 -38 -57 -53 102 -37 41
-11 89 -39 -108 67 72 127 28

model_1/stream_12/conv2d_25/Conv2D i1 [24, 3, 1, 24]
00000000: 4fc7 1b45 c732 d908 4959 2d7f 0deb 3943
00000010: fa4f fc23 0140 eae1 0d13 3908 1610 0e18
00000020: 15e6 2707 b10e 13df fbfb e543 ce44 0128
00000030: a6f9 c6ac 5ece 0713 ebd9 32a3 0c25 39eb
00000040: fe86 e049 11fc cf25 f0be 12cf e1fb f00a
00000050: 3a20 e527 0423 f222 c2c9 ece4 30ba cfa2
00000060: f2d8 0fb1 ae08 0e2d 7a3a fa35 3a03 1d35
00000070: c6b9 f3c5 3bcb 33e6 3ccb 0513 37e4 1cc6
00000080: 6525 fc13 7fdc 20e1 afed ead4 35bb 641e
00000090: 15f1 1526 4c1a 56cf 3c11 df21 44e5 e717
000000a0: fdf7 1006 1711 2543 2738 0021 491f 3f18
000000b0: 16f4 f523 fb04 0e60 cdec 2921 0b07 0837
000000c0: 1414 2501 471c 0919 1e01 d13f 3410 f17f
000000d0: e101 ec12 e2ca 3a0f c1bf df8f 21e1 b80b
000000e0: 45bf bf0f 3ae2 9e0a db81 ca3b fb9d e5d0
000000f0: f81b d8fe 12e6 c014 d8da d109 23ab ff27
79 -57 27 69 -57 50 -39 8
73 89 45 127 13 -21 57 67
-6 79 -4 35 1 64 -22 -31
13 19 57 8 22 16 14 24
21 -26 39 7 -79 14 19 -33
-5 -5 -27 67 -50 68 1 40
-90 -7 -58 -84 94 -50 7 19
-21 -39 50 -93 12 37 57 -21
-2 -122 -32 73 17 -4 -49 37
-16 -66 18 -49 -31 -5 -16 10
58 32 -27 39 4 35 -14 34
-62 -55 -20 -28 48 -70 -49 -94
-14 -40 15 -79 -82 8 14 45
122 58 -6 53 58 3 29 53
-58 -71 -13 -59 59 -53 51 -26
60 -53 5 19 55 -28 28 -58
101 37 -4 19 127 -36 32 -31
-81 -19 -22 -44 53 -69 100 30
21 -15 21 38 76 26 86 -49
60 17 -33 33 68 -27 -25 23
-3 -9 16 6 23 17 37 67
39 56 0 33 73 31 63 24
22 -12 -11 35 -5 4 14 96
-51 -20 41 33 11 7 8 55
20 20 37 1 71 28 9 25
30 1 -47 63 52 16 -15 127
-31 1 -20 18 -30 -54 58 15
-63 -65 -33 -113 33 -31 -72 11
69 -65 -65 15 58 -30 -98 10
-37 -127 -54 59 -5 -99 -27 -48
-8 27 -40 -2 18 -26 -64 20
-40 -38 -47 9 35 -85 -1 39

model_1/conv2d_24/Conv2D i1 [24, 1, 1, 32]
00000000: 0770 a9fa 0152 32be 3ada b25e 97a0 5f7f
00000010: 0713 aab6 df28 6be0 471c de44 0d68 d219
00000020: 9ed3 d434 69bc 982e 2956 4c2a f415 d4e3
00000030: b315 eef4 420b 20cf 36a4 d400 7f0c 5128
00000040: 671a f1df 0a09 f9ee 2d14 f323 bc27 cd13
00000050: 4d24 c902 dd19 cfd2 51fc b6db f27f 4137
00000060: 2a0c fd49 c51f affe f2db 52bd b92f 37e6
00000070: fdca fd61 9714 3818 6115 e0a3 180c 0b7f
00000080: 0dea 9e25 b853 a736 1468 31b3 57f3 c345
00000090: b957 3319 6a27 721f 5c2f d3ec 7fd8 2ae3
000000a0: 077f 4521 2d17 3e06 eddd c513 5847 bda5
000000b0: 1187 e81b afdb 57ad 99c3 eadf fa1a 011e
000000c0: ceae ade0 e9e8 e3c7 f34b 129a 30bd 6de6
000000d0: 3a0f ea2a 4430 ce74 7f00 0d2c 5116 dbcd
000000e0: 1dcc 2a22 29de d281 c1ef 3133 e140 11c0
000000f0: fbe2 6349 289c e349 8be5 3b23 a6e9 15ca
7 112 -87 -6 1 82 50 -66
58 -38 -78 94 -105 -96 95 127
7 19 -86 -74 -33 40 107 -32
71 28 -34 68 13 104 -46 25
-98 -45 -44 52 105 -68 -104 46
41 86 76 42 -12 21 -44 -29
-77 21 -18 -12 66 11 32 -49
54 -92 -44 0 127 12 81 40
103 26 -15 -33 10 9 -7 -18
45 20 -13 35 -68 39 -51 19
77 36 -55 2 -35 25 -49 -46
81 -4 -74 -37 -14 127 65 55
42 12 -3 73 -59 31 -81 -2
-14 -37 82 -67 -71 47 55 -26
-3 -54 -3 97 -105 20 56 24
97 21 -32 -93 24 12 11 127
13 -22 -98 37 -72 83 -89 54
20 104 49 -77 87 -13 -61 69
-71 87 51 25 106 39 114 31
92 47 -45 -20 127 -40 42 -29
7 127 69 33 45 23 62 6
-19 -35 -59 19 88 71 -67 -91
17 -121 -24 27 -81 -37 87 -83
-103 -61 -22 -33 -6 26 1 30
-50 -82 -83 -32 -23 -24 -29 -57
-13 75 18 -102 48 -67 109 -26
58 15 -22 42 68 48 -50 116
127 0 13 44 81 22 -37 -51
29 -52 42 34 41 -34 -46 -127
-63 -17 49 51 -31 64 17 -64
-5 -30 99 73 40 -100 -29 73
-117 -27 59 35 -90 -23 21 -54

model_1/conv2d_23/Conv2D i1 [24, 1, 1, 32]
00000000: f4a3 86ef d9b1 e1fd f315 09dd f3e5 f8f6
00000010: cdee 81c5 faa9 95c7 ca09 36aa 99e0 dded
00000020: 3cfa 40ef f704 d5ce bbce f20a e651 7981
00000030: 12cc 45e1 3807 fa95 c7a4 6725 e204 12c3
00000040: f241 d645 463d c8b8 8148 e4f7 bcdf bdf2
00000050: 3cf9 fff5 b94e bab3 7108 ca18 e96b 5c65
00000060: 0b2f 0e01 1e09 f9b1 7ff3 fc42 401e 1146
00000070: c223 3ad1 1c11 ed27 151d f6c7 251f 19d2
00000080: d4c3 03cb e32e 17ee d561 50ea 46b3 6396
00000090: 150d edce 7f1b 9bf6 d5f4 4845 30c0 4623
000000a0: 324b 2baa e9ef d5e8 1916 3d81 fbf1 64a8
000000b0: 0c88 f400 4000 263c b1c8 1cf9 9d29 0107
000000c0: f232 fcf1 31f2 e909 2d24 0f01 e535 fbb6
000000d0: df04 d881 cfed 02e0 f214 d513 04dc c8ee
000000e0: 03a9 f4e7 376d 51d7 cd05 1a3e 8158 7fed
000000f0: f622 6b42 e8f0 b253 2239 395d 2c27 6846
-12 -93 -122 -17 -39 -79 -31 -3
-13 21 9 -35 -13 -27 -8 -10
-51 -18 -127 -59 -6 -87 -107 -57
-54 9 54 -86 -103 -32 -35 -19
60 -6 64 -17 -9 4 -43 -50
-69 -50 -14 10 -26 81 121 -127
18 -52 69 -31 56 7 -6 -107
-57 -92 103 37 -30 4 18 -61
-14 65 -42 69 70 61 -56 -72
-127 72 -28 -9 -68 -33 -67 -14
60 -7 -1 -11 -71 78 -70 -77
113 8 -54 24 -23 107 92 101
11 47 14 1 30 9 -7 -79
127 -13 -4 66 64 30 17 70
-62 35 58 -47 28 17 -19 39
21 29 -10 -57 37 31 25 -46
-44 -61 3 -53 -29 46 23 -18
-43 97 80 -22 70 -77 99 -106
21 13 -19 -50 127 27 -101 -10
-43 -12 72 69 48 -64 70 35
50 75 43 -86 -23 -17 -43 -24
25 22 61 -127 -5 -15 100 -88
12 -120 -12 0 64 0 38 60
-79 -56 28 -7 -99 41 1 7
-14 50 -4 -15 49 -14 -23 9
45 36 15 1 -27 53 -5 -74
-33 4 -40 -127 -49 -19 2 -32
-14 20 -43 19 4 -36 -56 -18
3 -87 -12 -25 55 109 81 -41
-51 5 26 62 -127 88 127 -19
-10 34 107 66 -24 -16 -78 83
34 57 57 93 44 39 104 70

model_1/stream_11/conv2d_22/Conv2D i1 [32, 5, 1, 40]
00000000: aab9 e8de e3e1 efbf e0cb e6c8 e5d4 0ac0
00000010: d6ae d7f5 f8f5 0d0c f6f4 0313 f612 ff09
00000020: f624 0c4e 0a55 1b35 d9db f4e4 0ef9 1ee3
00000030: d0c2 eabf 0be5 04f8 fad1 e5f6 1e22 060e
00000040: 1303 fcdc e9e7 0f0a f726 11f9 2539 e9e3
00000050: 3c15 34ec 1214 483f 1810 00ec f2fa 13fd
00000060: 2e0d 2508 2e0e 2102 07ff 08e1 f5fc 19f7
00000070: 1ced f4ed f60f e0e2 7318 2df6 15fd 2429
00000080: 3d22 0d00 1100 2a04 351a 3ceb 0de6 21e3
00000090: 06f3 17dd f8d6 21bf fede feeb fee7 efd7
000000a0: 7f0a 1b05 da8d e2d1 401e 333d 2f0d 2629
000000b0: 4910 3fd9 efbe f4e8 04ef 16cc 1808 1be6
000000c0: e2be 079e 0dd0 0cce e706 f6ee 0a0a ffd9
000000d0: feec f5e7 09f5 0ff9 f0f7 f9f8 f307 070a
000000e0: 0106 04f4 0e02 f8f8 00f3 06ef 00c8 d90c
000000f0: f7ff 0806 0d03 13f3 03e9 f5f5 05f6 0eeb
-86 -71 -24 -34 -29 -31 -17 -65
-32 -53 -26 -56 -27 -44 10 -64
-42 -82 -41 -11 -8 -11 13 12
-10 -12 3 19 -10 18 -1 9
-10 36 12 78 10 85 27 53
-39 -37 -12 -28 14 -7 30 -29
-48 -62 -22 -65 11 -27 4 -8
-6 -47 -27 -10 30 34 6 14
19 3 -4 -36 -23 -25 15 10
-9 38 17 -7 37 57 -23 -29
60 21 52 -20 18 20 72 63
24 16 0 -20 -14 -6 19 -3
46 13 37 8 46 14 33 2
7 -1 8 -31 -11 -4 25 -9
28 -19 -12 -19 -10 15 -32 -30
115 24 45 -10 21 -3 36 41
61 34 13 0 17 0 42 4
53 26 60 -21 13 -26 33 -29
6 -13 23 -35 -8 -42 33 -65
-2 -34 -2 -21 -2 -25 -17 -41
127 10 27 5 -38 -115 -30 -47
64 30 51 61 47 13 38 41
73 16 63 -39 -17 -66 -12 -24
4 -17 22 -52 24 8 27 -26
-30 -66 7 -98 13 -48 12 -50
-25 6 -10 -18 10 10 -1 -39
-2 -20 -11 -25 9 -11 15 -7
-16 -9 -7 -8 -13 7 7 10
1 6 4 -12 14 2 -8 -8
0 -13 6 -17 0 -56 -39 12
-9 -1 8 6 13 3 19 -13
3 -23 -11 -11 5 -10 14 -21

tfl.pseudo_qconst i1 [1, 74, 1, 96] scale=0.013914971 zero_point=-128
00000000: 8080 8080 8080 8080 8080 8080 8080 8080
00000010: 8080 8080 8080 8080 8080 8080 8080 8080
00000020: 8080 8080 8080 8080 8080 8080 8080 8080
00000030: 8080 8080 8080 8080 8080 8080 8080 8080
00000040: 8080 8080 8080 8080 8080 8080 8080 8080
00000050: 8080 8080 8080 8080 8080 8080 8080 8080
00000060: 8080 8080 8080 8080 8080 8080 8080 8080
00000070: 8080 8080 8080 8080 8080 8080 8080 8080
00000080: 8080 8080 8080 8080 8080 8080 8080 8080
00000090: 8080 8080 8080 8080 8080 8080 8080 8080
000000a0: 8080 8080 8080 8080 8080 8080 8080 8080
000000b0: 8080 8080 8080 8080 8080 8080 8080 8080
000000c0: 8080 8080 8080 8080 8080 8080 8080 8080
000000d0: 8080 8080 8080 8080 8080 8080 8080 8080
000000e0: 8080 8080 8080 8080 8080 8080 8080 8080
000000f0: 8080 8080 8080 8080 8080 8080 8080 8080
0.0 0.0 0.0 0.0 0.0 0.0 0.0 0.0
0.0 0.0 0.0 0.0 0.0 0.0 0.0 0.0
0.0 0.0 0.0 0.0 0.0 0.0 0.0 0.0
0.0 0.0 0.0 0.0 0.0 0.0 0.0 0.0
0.0 0.0 0.0 0.0 0.0 0.0 0.0 0.0
0.0 0.0 0.0 0.0 0.0 0.0 0.0 0.0
0.0 0.0 0.0 0.0 0.0 0.0 0.0 0.0
0.0 0.0 0.0 0.0 0.0 0.0 0.0 0.0
0.0 0.0 0.0 0.0 0.0 0.0 0.0 0.0
0.0 0.0 0.0 0.0 0.0 0.0 0.0 0.0
0.0 0.0 0.0 0.0 0.0 0.0 0.0 0.0
0.0 0.0 0.0 0.0 0.0 0.0 0.0 0.0
0.0 0.0 0.0 0.0 0.0 0.0 0.0 0.0
0.0 0.0 0.0 0.0 0.0 0.0 0.0 0.0
0.0 0.0 0.0 0.0 0.0 0.0 0.0 0.0
0.0 0.0 0.0 0.0 0.0 0.0 0.0 0.0
0.0 0.0 0.0 0.0 0.0 0.0 0.0 0.0
0.0 0.0 0.0 0.0 0.0 0.0 0.0 0.0
0.0 0.0 0.0 0.0 0.0 0.0 0.0 0.0
0.0 0.0 0.0 0.0 0.0 0.0 0.0 0.0
0.0 0.0 0.0 0.0 0.0 0.0 0.0 0.0
0.0 0.0 0.0 0.0 0.0 0.0 0.0 0.0
0.0 0.0 0.0 0.0 0.0 0.0 0.0 0.0
0.0 0.0 0.0 0.0 0.0 0.0 0.0 0.0
0.0 0.0 0.0 0.0 0.0 0.0 0.0 0.0
0.0 0.0 0.0 0.0 0.0 0.0 0.0 0.0
0.0 0.0 0.0 0.0 0.0 0.0 0.0 0.0
0.0 0.0 0.0 0.0 0.0 0.0 0.0 0.0
0.0 0.0 0.0 0.0 0.0 0.0 0.0 0.0
0.0 0.0 0.0 0.0 0.0 0.0 0.0 0.0
0.0 0.0 0.0 0.0 0.0 0.0 0.0 0.0
0.0 0.0 0.0 0.0 0.0 0.0 0.0 0.0

tfl.pseudo_qconst1 i1 [1, 4, 1, 24] scale=0.08206118 zero_point=-128
00000000: 8080 8080 8080 8080 8080 8080 8080 8080
00000010: 8080 8080 8080 8080 8080 8080 8080 8080
00000020: 8080 8080 8080 8080 8080 8080 8080 8080
00000030: 8080 8080 8080 8080 8080 8080 8080 8080
00000040: 8080 8080 8080 8080 8080 8080 8080 8080
00000050: 8080 8080 8080 8080 8080 8080 8080 8080
0.0 0.0 0.0 0.0 0.0 0.0 0.0 0.0
0.0 0.0 0.0 0.0 0.0 0.0 0.0 0.0
0.0 0.0 0.0 0.0 0.0 0.0 0.0 0.0
0.0 0.0 0.0 0.0 0.0 0.0 0.0 0.0
0.0 0.0 0.0 0.0 0.0 0.0 0.0 0.0
0.0 0.0 0.0 0.0 0.0 0.0 0.0 0.0
0.0 0.0 0.0 0.0 0.0 0.0 0.0 0.0
0.0 0.0 0.0 0.0 0.0 0.0 0.0 0.0
0.0 0.0 0.0 0.0 0.0 0.0 0.0 0.0
0.0 0.0 0.0 0.0 0.0 0.0 0.0 0.0
0.0 0.0 0.0 0.0 0.0 0.0 0.0 0.0
0.0 0.0 0.0 0.0 0.0 0.0 0.0 0.0

tfl.pseudo_qconst2 i1 [1, 4, 1, 24] scale=0.0885808 zero_point=-128
00000000: 8080 8080 8080 8080 8080 8080 8080 8080
00000010: 8080 8080 8080 8080 8080 8080 8080 8080
00000020: 8080 8080 8080 8080 8080 8080 8080 8080
00000030: 8080 8080 8080 8080 8080 8080 8080 8080
00000040: 8080 8080 8080 8080 8080 8080 8080 8080
00000050: 8080 8080 8080 8080 8080 8080 8080 8080
0.0 0.0 0.0 0.0 0.0 0.0 0.0 0.0
0.0 0.0 0.0 0.0 0.0 0.0 0.0 0.0
0.0 0.0 0.0 0.0 0.0 0.0 0.0 0.0
0.0 0.0 0.0 0.0 0.0 0.0 0.0 0.0
0.0 0.0 0.0 0.0 0.0 0.0 0.0 0.0
0.0 0.0 0.0 0.0 0.0 0.0 0.0 0.0
0.0 0.0 0.0 0.0 0.0 0.0 0.0 0.0
0.0 0.0 0.0 0.0 0.0 0.0 0.0 0.0
0.0 0.0 0.0 0.0 0.0 0.0 0.0 0.0
0.0 0.0 0.0 0.0 0.0 0.0 0.0 0.0
0.0 0.0 0.0 0.0 0.0 0.0 0.0 0.0
0.0 0.0 0.0 0.0 0.0 0.0 0.0 0.0

tfl.pseudo_qconst3 i1 [1, 4, 1, 24] scale=0.073358014 zero_point=-128
00000000: 8080 8080 8080 8080 8080 8080 8080 8080
00000010: 8080 8080 8080 8080 8080 8080 8080 8080
00000020: 8080 8080 8080 8080 8080 8080 8080 8080
00000030: 8080 8080 8080 8080 8080 8080 8080 8080
00000040: 8080 8080 8080 8080 8080 8080 8080 8080
00000050: 8080 8080 8080 8080 8080 8080 8080 8080
0.0 0.0 0.0 0.0 0.0 0.0 0.0 0.0
0.0 0.0 0.0 0.0 0.0 0.0 0.0 0.0
0.0 0.0 0.0 0.0 0.0 0.0 0.0 0.0
0.0 0.0 0.0 0.0 0.0 0.0 0.0 0.0
0.0 0.0 0.0 0.0 0.0 0.0 0.0 0.0
0.0 0.0 0.0 0.0 0.0 0.0 0.0 0.0
0.0 0.0 0.0 0.0 0.0 0.0 0.0 0.0
0.0 0.0 0.0 0.0 0.0 0.0 0.0 0.0
0.0 0.0 0.0 0.0 0.0 0.0 0.0 0.0
0.0 0.0 0.0 0.0 0.0 0.0 0.0 0.0
0.0 0.0 0.0 0.0 0.0 0.0 0.0 0.0
0.0 0.0 0.0 0.0 0.0 0.0 0.0 0.0

tfl.pseudo_qconst4 i1 [1, 4, 1, 24] scale=0.054283503 zero_point=-128
00000000: 8080 8080 8080 8080 8080 8080 8080 8080
00000010: 8080 8080 8080 8080 8080 8080 8080 8080
00000020: 8080 8080 8080 8080 8080 8080 8080 8080
00000030: 8080 8080 8080 8080 8080 8080 8080 8080
00000040: 8080 8080 8080 8080 8080 8080 8080 8080
00000050: 8080 8080 8080 8080 8080 8080 8080 8080
0.0 0.0 0.0 0.0 0.0 0.0 0.0 0.0
0.0 0.0 0.0 0.0 0.0 0.0 0.0 0.0
0.0 0.0 0.0 0.0 0.0 0.0 0.0 0.0
0.0 0.0 0.0 0.0 0.0 0.0 0.0 0.0
0.0 0.0 0.0 0.0 0.0 0.0 0.0 0.0
0.0 0.0 0.0 0.0 0.0 0.0 0.0 0.0
0.0 0.0 0.0 0.0 0.0 0.0 0.0 0.0
0.0 0.0 0.0 0.0 0.0 0.0 0.0 0.0
0.0 0.0 0.0 0.0 0.0 0.0 0.0 0.0
0.0 0.0 0.0 0.0 0.0 0.0 0.0 0.0
0.0 0.0 0.0 0.0 0.0 0.0 0.0 0.0
0.0 0.0 0.0 0.0 0.0 0.0 0.0 0.0

tfl.pseudo_qconst5 i1 [1, 4, 1, 24] scale=0.04889282 zero_point=-128
00000000: 8080 8080 8080 8080 8080 8080 8080 8080
00000010: 8080 8080 8080 8080 8080 8080 8080 8080
00000020: 8080 8080 8080 8080 8080 8080 8080 8080
00000030: 8080 8080 8080 8080 8080 8080 8080 8080
00000040: 8080 8080 8080 8080 8080 8080 8080 8080
00000050: 8080 8080 8080 8080 8080 8080 8080 8080
0.0 0.0 0.0 0.0 0.0 0.0 0.0 0.0
0.0 0.0 0.0 0.0 0.0 0.0 0.0 0.0
0.0 0.0 0.0 0.0 0.0 0.0 0.0 0.0
0.0 0.0 0.0 0.0 0.0 0.0 0.0 0.0
0.0 0.0 0.0 0.0 0.0 0.0 0.0 0.0
0.0 0.0 0.0 0.0 0.0 0.0 0.0 0.0
0.0 0.0 0.0 0.0 0.0 0.0 0.0 0.0
0.0 0.0 0.0 0.0 0.0 0.0 0.0 0.0
0.0 0.0 0.0 0.0 0.0 0.0 0.0 0.0
0.0 0.0 0.0 0.0 0.0 0.0 0.0 0.0
0.0 0.0 0.0 0.0 0.0 0.0 0.0 0.0
0.0 0.0 0.0 0.0 0.0 0.0 0.0 0.0

tfl.pseudo_qconst6 i1 [1, 4, 1, 24] scale=0.049225405 zero_point=-128
00000000: 8080 8080 8080 8080 8080 8080 8080 8080
00000010: 8080 8080 8080 8080 8080 8080 8080 8080
00000020: 8080 8080 8080 8080 8080 8080 8080 8080
00000030: 8080 8080 8080 8080 8080 8080 8080 8080
00000040: 8080 8080 8080 8080 8080 8080 8080 8080
00000050: 8080 8080 8080 8080 8080 8080 8080 8080
0.0 0.0 0.0 0.0 0.0 0.0 0.0 0.0
0.0 0.0 0.0 0.0 0.0 0.0 0.0 0.0
0.0 0.0 0.0 0.0 0.0 0.0 0.0 0.0
0.0 0.0 0.0 0.0 0.0 0.0 0.0 0.0
0.0 0.0 0.0 0.0 0.0 0.0 0.0 0.0
0.0 0.0 0.0 0.0 0.0 0.0 0.0 0.0
0.0 0.0 0.0 0.0 0.0 0.0 0.0 0.0
0.0 0.0 0.0 0.0 0.0 0.0 0.0 0.0
0.0 0.0 0.0 0.0 0.0 0.0 0.0 0.0
0.0 0.0 0.0 0.0 0.0 0.0 0.0 0.0
0.0 0.0 0.0 0.0 0.0 0.0 0.0 0.0
0.0 0.0 0.0 0.0 0.0 0.0 0.0 0.0

tfl.pseudo_qconst7 i1 [1, 2, 1, 24] scale=0.03548552 zero_point=-128
00000000: 8080 8080 8080 8080 8080 8080 8080 8080
00000010: 8080 8080 8080 8080 8080 8080 8080 8080
00000020: 8080 8080 8080 8080 8080 8080 8080 8080
0.0 0.0 0.0 0.0 0.0 0.0 0.0 0.0
0.0 0.0 0.0 0.0 0.0 0.0 0.0 0.0
0.0 0.0 0.0 0.0 0.0 0.0 0.0 0.0
0.0 0.0 0.0 0.0 0.0 0.0 0.0 0.0
0.0 0.0 0.0 0.0 0.0 0.0 0.0 0.0
0.0 0.0 0.0 0.0 0.0 0.0 0.0 0.0

tfl.pseudo_qconst8 i1 [1, 2, 1, 24] scale=0.03576616 zero_point=-128
00000000: 8080 8080 8080 8080 8080 8080 8080 8080
00000010: 8080 8080 8080 8080 8080 8080 8080 8080
00000020: 8080 8080 8080 8080 8080 8080 8080 8080
0.0 0.0 0.0 0.0 0.0 0.0 0.0 0.0
0.0 0.0 0.0 0.0 0.0 0.0 0.0 0.0
0.0 0.0 0.0 0.0 0.0 0.0 0.0 0.0
0.0 0.0 0.0 0.0 0.0 0.0 0.0 0.0
0.0 0.0 0.0 0.0 0.0 0.0 0.0 0.0
0.0 0.0 0.0 0.0 0.0 0.0 0.0 0.0

tfl.pseudo_qconst9 i1 [1, 2, 1, 24] scale=0.03011813 zero_point=-128
00000000: 8080 8080 8080 8080 8080 8080 8080 8080
00000010: 8080 8080 8080 8080 8080 8080 8080 8080
00000020: 8080 8080 8080 8080 8080 8080 8080 8080
0.0 0.0 0.0 0.0 0.0 0.0 0.0 0.0
0.0 0.0 0.0 0.0 0.0 0.0 0.0 0.0
0.0 0.0 0.0 0.0 0.0 0.0 0.0 0.0
0.0 0.0 0.0 0.0 0.0 0.0 0.0 0.0
0.0 0.0 0.0 0.0 0.0 0.0 0.0 0.0
0.0 0.0 0.0 0.0 0.0 0.0 0.0 0.0

tfl.pseudo_qconst10 i1 [1, 5, 1, 40] scale=0.101960786 zero_point=-128
00000000: 8080 8080 8080 8080 8080 8080 8080 8080
00000010: 8080 8080 8080 8080 8080 8080 8080 8080
00000020: 8080 8080 8080 8080 8080 8080 8080 8080
00000030: 8080 8080 8080 8080 8080 8080 8080 8080
00000040: 8080 8080 8080 8080 8080 8080 8080 8080
00000050: 8080 8080 8080 8080 8080 8080 8080 8080
00000060: 8080 8080 8080 8080 8080 8080 8080 8080
00000070: 8080 8080 8080 8080 8080 8080 8080 8080
00000080: 8080 8080 8080 8080 8080 8080 8080 8080
00000090: 8080 8080 8080 8080 8080 8080 8080 8080
000000a0: 8080 8080 8080 8080 8080 8080 8080 8080
000000b0: 8080 8080 8080 8080 8080 8080 8080 8080
000000c0: 8080 8080 8080 8080
0.0 0.0 0.0 0.0 0.0 0.0 0.0 0.0
0.0 0.0 0.0 0.0 0.0 0.0 0.0 0.0
0.0 0.0 0.0 0.0 0.0 0.0 0.0 0.0
0.0 0.0 0.0 0.0 0.0 0.0 0.0 0.0
0.0 0.0 0.0 0.0 0.0 0.0 0.0 0.0
0.0 0.0 0.0 0.0 0.0 0.0 0.0 0.0
0.0 0.0 0.0 0.0 0.0 0.0 0.0 0.0
0.0 0.0 0.0 0.0 0.0 0.0 0.0 0.0
0.0 0.0 0.0 0.0 0.0 0.0 0.0 0.0
0.0 0.0 0.0 0.0 0.0 0.0 0.0 0.0
0.0 0.0 0.0 0.0 0.0 0.0 0.0 0.0
0.0 0.0 0.0 0.0 0.0 0.0 0.0 0.0
0.0 0.0 0.0 0.0 0.0 0.0 0.0 0.0
0.0 0.0 0.0 0.0 0.0 0.0 0.0 0.0
0.0 0.0 0.0 0.0 0.0 0.0 0.0 0.0
0.0 0.0 0.0 0.0 0.0 0.0 0.0 0.0
0.0 0.0 0.0 0.0 0.0 0.0 0.0 0.0
0.0 0.0 0.0 0.0 0.0 0.0 0.0 0.0
0.0 0.0 0.0 0.0 0.0 0.0 0.0 0.0
0.0 0.0 0.0 0.0 0.0 0.0 0.0 0.0
0.0 0.0 0.0 0.0 0.0 0.0 0.0 0.0
0.0 0.0 0.0 0.0 0.0 0.0 0.0 0.0
0.0 0.0 0.0 0.0 0.0 0.0 0.0 0.0
0.0 0.0 0.0 0.0 0.0 0.0 0.0 0.0
0.0 0.0 0.0 0.0 0.0 0.0 0.0 0.0
