models/hey_jarvis.tflite (tflite, 115400 bytes, 34 tensors)

model_1/dense_1/MatMul i1 [1, 7104] scale=0.012218242 zero_point=0
0	0xec	-0.24436483
1	0x02	0.024436483
2	0xf4	-0.1466189
3	0x06	0.07330945
4	0xf4	-0.1466189
5	0xdb	-0.45207494
6	0x16	0.2688013
7	0xdd	-0.42763844
8	0xe8	-0.2932378
9	0xfb	-0.061091207
10	0xdb	-0.45207494
11	0x03	0.036654726
12	0xfa	-0.07330945
13	0x00	0.0
14	0x32	0.6109121
15	0xd6	-0.5131661
16	0xdb	-0.45207494
17	0xf0	-0.19549187
18	0x17	0.28101957
19	0xff	-0.012218242
20	0x0d	0.15883714
21	0x29	0.5009479
22	0xc7	-0.69643974
23	0x01	0.012218242
24	0xfd	-0.036654726
25	0xdd	-0.42763844
26	0xd3	-0.5498209
27	0xf3	-0.15883714
28	0x1c	0.34211075
29	0xf9	-0.08552769
30	0xdc	-0.4398567
31	0x00	0.0
32	0xf9	-0.08552769
33	0xd3	-0.5498209
34	0x06	0.07330945
35	0xfb	-0.061091207
36	0x19	0.30545604
37	0xf9	-0.08552769
38	0xdd	-0.42763844
39	0x05	0.061091207
40	0xf4	-0.1466189
41	0xf6	-0.122182414
42	0x15	0.25658306
43	0x09	0.10996418
44	0x00	0.0
45	0x01	0.012218242
46	0xfb	-0.061091207
47	0x04	0.048872966
48	0x00	0.0
49	0xec	-0.24436483
50	0x1d	0.35432902
51	0x16	0.2688013
52	0xe3	-0.35432902
53	0xfe	-0.024436483
54	0xf3	-0.15883714
55	0xf5	-0.13440065
56	0xfe	-0.024436483
57	0xff	-0.012218242
58	0x07	0.08552769
59	0xb9	-0.8674952
60	0xcd	-0.6231303
61	0x0e	0.17105538
62	0xfc	-0.048872966
63	0xfc	-0.048872966
64	0x03	0.036654726
65	0x03	0.036654726
66	0x1b	0.32989252
67	0xf1	-0.18327363
68	0xfc	-0.048872966
69	0xf6	-0.122182414
70	0x16	0.2688013
71	0xe2	-0.36654726
72	0x1b	0.32989252
73	0xf2	-0.17105538
74	0xf8	-0.09774593
75	0xe2	-0.36654726
76	0xf7	-0.10996418
77	0x99	-1.2584789
78	0xe0	-0.39098373
79	0x17	0.28101957
80	0xf9	-0.08552769
81	0xe3	-0.35432902
82	0x01	0.012218242
83	0xc2	-0.757531
84	0x06	0.07330945
85	0x10	0.19549187
86	0xfd	-0.036654726
87	0xff	-0.012218242
88	0x01	0.012218242
89	0xf0	-0.19549187
90	0xff	-0.012218242
91	0xc5	-0.7208763
92	0x00	0.0
93	0xef	-0.2077101
94	0xff	-0.012218242
95	0x08	0.09774593
96	0x03	0.036654726
97	0x08	0.09774593
98	0xe2	-0.36654726
99	0x0d	0.15883714
100	0xf8	-0.09774593
101	0xe4	-0.34211075
102	0xf2	-0.17105538
103	0xea	-0.2688013
104	0x13	0.23214659
105	0xf9	-0.08552769
106	0xf3	-0.15883714
107	0xfc	-0.048872966
108	0xed	-0.23214659
109	0x10	0.19549187
110	0x48	0.8797134
111	0xd1	-0.5742574
112	0xec	-0.24436483
113	0xef	-0.2077101
114	0x09	0.10996418
115	0xfb	-0.061091207
116	0xef	-0.2077101
117	0x35	0.6475668
118	0xea	-0.2688013
119	0x00	0.0
120	0x08	0.09774593
121	0xef	-0.2077101
122	0x96	-1.2951336
123	0xf5	-0.13440065
124	0xfd	-0.036654726
125	0xf9	-0.08552769
126	0xf2	-0.17105538
127	0x05	0.061091207
128	0xfd	-0.036654726
129	0xca	-0.65978503
130	0x00	0.0
131	0xfb	-0.061091207
132	0xfb	-0.061091207
133	0x0e	0.17105538
134	0xec	-0.24436483
135	0x06	0.07330945
136	0x0c	0.1466189
137	0xe9	-0.28101957
138	0x02	0.024436483
139	0xf4	-0.1466189
140	0xf8	-0.09774593
141	0xff	-0.012218242
142	0xef	-0.2077101
143	0x01	0.012218242
144	0x06	0.07330945
145	0xec	-0.24436483
146	0x27	0.47651142
147	0xfa	-0.07330945
148	0xf6	-0.122182414
149	0x00	0.0
150	0xfc	-0.048872966
151	0xfd	-0.036654726
152	0x0e	0.17105538
153	0xfd	-0.036654726
154	0xec	-0.24436483
155	0xc6	-0.70865804
156	0xc6	-0.70865804
157	0x03	0.036654726
158	0x00	0.0
159	0x08	0.09774593
160	0x08	0.09774593
161	0x03	0.036654726
162	0x1b	0.32989252
163	0x0b	0.13440065
164	0x06	0.07330945
165	0xf6	-0.122182414
166	0x05	0.061091207
167	0xec	-0.24436483
168	0x17	0.28101957
169	0xfb	-0.061091207
170	0x05	0.061091207
171	0xef	-0.2077101
172	0x16	0.2688013
173	0xc6	-0.70865804
174	0x0a	0.122182414
175	0x09	0.10996418
176	0xde	-0.4154202
177	0xda	-0.46429318
178	0xfd	-0.036654726
179	0xd3	-0.5498209
180	0xfe	-0.024436483
181	0x0a	0.122182414
182	0x02	0.024436483
183	0x11	0.2077101
184	0xfd	-0.036654726
185	0xf1	-0.18327363
186	0xf4	-0.1466189
187	0xb7	-0.89193165
188	0xfe	-0.024436483
189	0xf7	-0.10996418
190	0xfb	-0.061091207
191	0xf8	-0.09774593
192	0xf1	-0.18327363
193	0x05	0.061091207
194	0xf7	-0.10996418
195	0xf1	-0.18327363
196	0xf1	-0.18327363
197	0xcd	-0.6231303
198	0xe4	-0.34211075
199	0xe8	-0.2932378
200	0xe4	-0.34211075
201	0xf6	-0.122182414
202	0xe9	-0.28101957
203	0x01	0.012218242
204	0xdd	-0.42763844
205	0xf0	-0.19549187
206	0x1f	0.3787655
207	0xf4	-0.1466189
208	0xf0	-0.19549187
209	0x11	0.2077101
210	0x02	0.024436483
211	0x03	0.036654726
212	0xf5	-0.13440065
213	0x0d	0.15883714
214	0xf1	-0.18327363
215	0xfe	-0.024436483
216	0x06	0.07330945
217	0xea	-0.2688013
218	0xd1	-0.5742574
219	0xf9	-0.08552769
220	0xfa	-0.07330945
221	0xf7	-0.10996418
222	0xf2	-0.17105538
223	0x05	0.061091207
224	0xfa	-0.07330945
225	0xfd	-0.036654726
226	0x07	0.08552769
227	0x11	0.2077101
228	0x03	0.036654726
229	0xf4	-0.1466189
230	0x0e	0.17105538
231	0xfa	-0.07330945
232	0x05	0.061091207
233	0xe7	-0.30545604
234	0x09	0.10996418
235	0xfb	-0.061091207
236	0xff	-0.012218242
237	0x00	0.0
238	0xda	-0.46429318
239	0x06	0.07330945
240	0xf5	-0.13440065
241	0xe5	-0.32989252
242	0x15	0.25658306
243	0xfe	-0.024436483
244	0xfc	-0.048872966
245	0x03	0.036654726
246	0xfe	-0.024436483
247	0x04	0.048872966
248	0x0a	0.122182414
249	0xf8	-0.09774593
250	0xdb	-0.45207494
251	0xf8	-0.09774593
252	0xdb	-0.45207494
253	0x11	0.2077101
254	0x01	0.012218242
255	0x04	0.048872966

model_1/conv2d_43/Conv2D i1 [96, 1, 1, 72]
0	0xc1	-63
1	0x0b	11
2	0xc4	-60
3	0xac	-84
4	0x3d	61
5	0xf4	-12
6	0xc6	-58
7	0xf7	-9
8	0xd9	-39
9	0xf6	-10
10	0xdd	-35
11	0x28	40
12	0xb0	-80
13	0xf0	-16
14	0xfa	-6
15	0xa2	-94
16	0xab	-85
17	0xa6	-90
18	0xbe	-66
19	0xf5	-11
20	0x18	24
21	0xe0	-32
22	0x3b	59
23	0xdb	-37
24	0x10	16
25	0x8e	-114
26	0x08	8
27	0x81	-127
28	0xdc	-36
29	0xa7	-89
30	0xc7	-57
31	0xbc	-68
32	0x27	39
33	0x25	37
34	0x8b	-117
35	0xca	-54
36	0xb5	-75
37	0x10	16
38	0xef	-17
39	0xa3	-93
40	0x32	50
41	0xba	-70
42	0x92	-110
43	0x8b	-117
44	0xda	-38
45	0x17	23
46	0xb7	-73
47	0x9a	-102
48	0xf3	-13
49	0xce	-50
50	0xec	-20
51	0xea	-22
52	0xf9	-7
53	0xca	-54
54	0x17	23
55	0xca	-54
56	0x10	16
57	0x21	33
58	0xd4	-44
59	0xf5	-11
60	0xef	-17
61	0xcb	-53
62	0xed	-19
63	0xb8	-72
64	0xa8	-88
65	0xc4	-60
66	0x12	18
67	0x09	9
68	0xaa	-86
69	0x34	52
70	0xde	-34
71	0xe9	-23
72	0x0a	10
73	0x3a	58
74	0x1e	30
75	0xde	-34
76	0xe4	-28
77	0xf5	-11
78	0xe9	-23
79	0x35	53
80	0xf2	-14
81	0xea	-22
82	0x00	0
83	0x2a	42
84	0xc2	-62
85	0xd9	-39
86	0x25	37
87	0xaf	-81
88	0xfc	-4
89	0xda	-38
90	0xc6	-58
91	0xce	-50
92	0xe7	-25
93	0x10	16
94	0xf6	-10
95	0x8f	-113
96	0xee	-18
97	0xcc	-52
98	0xea	-22
99	0xaf	-81
100	0xfe	-2
101	0x29	41
102	0xd4	-44
103	0x2f	47
104	0xfa	-6
105	0xf0	-16
106	0xa9	-87
107	0x04	4
108	0xb9	-71
109	0xd5	-43
110	0xb0	-80
111	0x0a	10
112	0x03	3
113	0x8e	-114
114	0xa8	-88
115	0x81	-127
116	0x00	0
117	0x0f	15
118	0xc8	-56
119	0xfc	-4
120	0xe3	-29
121	0xc4	-60
122	0x39	57
123	0xa3	-93
124	0x21	33
125	0xbd	-67
126	0x1d	29
127	0xd0	-48
128	0xf1	-15
129	0x14	20
130	0xef	-17
131	0x06	6
132	0xfe	-2
133	0xdc	-36
134	0xca	-54
135	0x8a	-118
136	0xec	-20
137	0x0a	10
138	0x08	8
139	0xbb	-69
140	0xe9	-23
141	0xf7	-9
142	0xef	-17
143	0xdb	-37
144	0xdf	-33
145	0xbb	-69
146	0xd5	-43
147	0xae	-82
148	0x50	80
149	0xda	-38
150	0xfc	-4
151	0xf3	-13
152	0xf1	-15
153	0xe7	-25
154	0xa4	-92
155	0xc2	-62
156	0x82	-126
157	0xf3	-13
158	0xe3	-29
159	0xf8	-8
160	0x05	5
161	0x81	-127
162	0x8b	-117
163	0xa9	-87
164	0xbe	-66
165	0xb1	-79
166	0xda	-38
167	0xa6	-90
168	0x3a	58
169	0xce	-50
170	0x99	-103
171	0xcd	-51
172	0xc9	-55
173	0xc7	-57
174	0x07	7
175	0xc1	-63
176	0x26	38
177	0xc7	-57
178	0xc3	-61
179	0xdf	-33
180	0xd1	-47
181	0x21	33
182	0xf2	-14
183	0xea	-22
184	0xcf	-49
185	0xc0	-64
186	0xde	-34
187	0xca	-54
188	0x47	71
189	0xc1	-63
190	0xe6	-26
191	0xdd	-35
192	0xf6	-10
193	0xf1	-15
194	0xb1	-79
195	0x27	39
196	0xf6	-10
197	0xee	-18
198	0x22	34
199	0xf1	-15
200	0x1b	27
201	0xc2	-62
202	0x02	2
203	0xf6	-10
204	0x11	17
205	0xb6	-74
206	0xfe	-2
207	0xfb	-5
208	0xfa	-6
209	0xc3	-61
210	0xc4	-60
211	0xfb	-5
212	0xe7	-25
213	0x8f	-113
214	0x25	37
215	0x08	8
216	0x1b	27
217	0x0e	14
218	0xda	-38
219	0xdc	-36
220	0xbc	-68
221	0x0a	10
222	0xef	-17
223	0x4c	76
224	0x05	5
225	0x23	35
226	0x08	8
227	0x08	8
228	0xf5	-11
229	0x52	82
230	0xe5	-27
231	0x4e	78
232	0x10	16
233	0xfd	-3
234	0x28	40
235	0xf5	-11
236	0x09	9
237	0xa1	-95
238	0xfa	-6
239	0xe4	-28
240	0xcd	-51
241	0x18	24
242	0x81	-127
243	0xfc	-4
244	0xfe	-2
245	0xdf	-33
246	0x54	84
247	0xb5	-75
248	0x08	8
249	0x0c	12
250	0x0f	15
251	0x02	2
252	0xe7	-25
253	0xd9	-39
254	0x55	85
255	0x07	7

model_1/stream_20/conv2d_42/Conv2D i1 [24, 5, 1, 24]
0	0xbd	-67
1	0x35	53
2	0x44	68
3	0x01	1
4	0x19	25
5	0x12	18
6	0xc4	-60
7	0x16	22
8	0xdc	-36
9	0x05	5
10	0x81	-127
11	0x26	38
12	0x3f	63
13	0x2b	43
14	0xfa	-6
15	0x34	52
16	0x19	25
17	0x46	70
18	0x41	65
19	0x1d	29
20	0x1f	31
21	0x33	51
22	0x39	57
23	0xa7	-89
24	0xdd	-35
25	0x37	55
26	0x4a	74
27	0xfd	-3
28	0x08	8
29	0x1e	30
30	0xca	-54
31	0x46	70
32	0x03	3
33	0x10	16
34	0xb1	-79
35	0x23	35
36	0x0c	12
37	0x31	49
38	0x1c	28
39	0x33	51
40	0x09	9
41	0x28	40
42	0x2d	45
43	0x18	24
44	0x1b	27
45	0x11	17
46	0x18	24
47	0xc2	-62
48	0xe7	-25
49	0x4a	74
50	0x35	53
51	0x0f	15
52	0xc5	-59
53	0x1f	31
54	0xef	-17
55	0x44	68
56	0xe1	-31
57	0x04	4
58	0xe3	-29
59	0x20	32
60	0x15	21
61	0x41	65
62	0x11	17
63	0x2f	47
64	0xfc	-4
65	0x30	48
66	0x12	18
67	0x0e	14
68	0x0c	12
69	0xfd	-3
70	0x1b	27
71	0xf4	-12
72	0x10	16
73	0x33	51
74	0x46	70
75	0x11	17
76	0xa5	-91
77	0xfd	-3
78	0x06	6
79	0x16	22
80	0xd9	-39
81	0xf4	-12
82	0x06	6
83	0x16	22
84	0x2a	42
85	0x4b	75
86	0x29	41
87	0x2b	43
88	0xd8	-40
89	0x40	64
90	0x08	8
91	0x01	1
92	0xf4	-12
93	0xef	-17
94	0x07	7
95	0x2b	43
96	0x16	22
97	0x68	104
98	0x67	103
99	0x10	16
100	0xaf	-81
101	0xd2	-46
102	0x3b	59
103	0x3e	62
104	0xcb	-53
105	0xf3	-13
106	0x2b	43
107	0x46	70
108	0x3d	61
109	0x3a	58
110	0x52	82
111	0x4e	78
112	0xe5	-27
113	0x40	64
114	0x16	22
115	0xf7	-9
116	0xe6	-26
117	0x00	0
118	0x2d	45
119	0x59	89
120	0xf3	-13
121	0x29	41
122	0x3e	62
123	0xfd	-3
124	0xed	-19
125	0xfe	-2
126	0xd0	-48
127	0x12	18
128	0xdd	-35
129	0x2a	42
130	0xa3	-93
131	0x1a	26
132	0x45	69
133	0x19	25
134	0xf5	-11
135	0x24	36
136	0x2e	46
137	0x50	80
138	0x13	19
139	0x32	50
140	0x0f	15
141	0x34	52
142	0x49	73
143	0xc3	-61
144	0x07	7
145	0x2a	42
146	0x47	71
147	0x0a	10
148	0xe4	-28
149	0x0e	14
150	0xe6	-26
151	0x46	70
152	0xe8	-24
153	0x11	17
154	0xe0	-32
155	0x11	17
156	0x19	25
157	0x1d	29
158	0x03	3
159	0x1d	29
160	0x32	50
161	0x35	53
162	0x18	24
163	0x1e	30
164	0x09	9
165	0x20	32
166	0x11	17
167	0xe4	-28
168	0x04	4
169	0x31	49
170	0x4a	74
171	0xff	-1
172	0xec	-20
173	0x22	34
174	0xf7	-9
175	0x52	82
176	0x01	1
177	0x05	5
178	0x12	18
179	0x26	38
180	0x2c	44
181	0x26	38
182	0x0c	12
183	0x2b	43
184	0x2f	47
185	0x2b	43
186	0x1e	30
187	0x20	32
188	0xff	-1
189	0x10	16
190	0x1d	29
191	0xf9	-7
192	0x0f	15
193	0x49	73
194	0x38	56
195	0x00	0
196	0xb9	-71
197	0xfd	-3
198	0x02	2
199	0x2f	47
200	0xf4	-12
201	0x02	2
202	0x29	41
203	0x14	20
204	0x41	65
205	0x2e	46
206	0x2a	42
207	0x2e	46
208	0x25	37
209	0x38	56
210	0x05	5
211	0x0c	12
212	0xeb	-21
213	0xff	-1
214	0x20	32
215	0x1a	26
216	0x33	51
217	0x7d	125
218	0x5e	94
219	0x0a	10
220	0x81	-127
221	0xb1	-79
222	0x1b	27
223	0x22	34
224	0xc2	-62
225	0xfc	-4
226	0x23	35
227	0x56	86
228	0x50	80
229	0x22	34
230	0x34	52
231	0x54	84
232	0x25	37
233	0x74	116
234	0x03	3
235	0x05	5
236	0xcc	-52
237	0xeb	-21
238	0x40	64
239	0x3c	60
240	0x1d	29
241	0xc2	-62
242	0xce	-50
243	0xf1	-15
244	0xdc	-36
245	0x00	0
246	0xc5	-59
247	0xea	-22
248	0x81	-127
249	0x3c	60
250	0x82	-126
251	0xd0	-48
252	0xd5	-43
253	0xf0	-16
254	0xb2	-78
255	0xfb	-5

model_1/stream_19/conv2d_41/Conv2D i1 [24, 5, 1, 24]
0	0x17	23
1	0xd9	-39
2	0xb5	-75
3	0xc2	-62
4	0xed	-19
5	0xdf	-33
6	0x04	4
7	0xf1	-15
8	0xca	-54
9	0xf9	-7
10	0xf9	-7
11	0xe1	-31
12	0x89	-119
13	0x28	40
14	0xc9	-55
15	0xe8	-24
16	0x04	4
17	0xb3	-77
18	0x7f	127
19	0xf9	-7
20	0x21	33
21	0xd7	-41
22	0x53	83
23	0xbe	-66
24	0xfb	-5
25	0xf1	-15
26	0xee	-18
27	0xe1	-31
28	0x17	23
29	0x0d	13
30	0x13	19
31	0x07	7
32	0xec	-20
33	0xf6	-10
34	0xf9	-7
35	0x00	0
36	0xe3	-29
37	0x22	34
38	0xf2	-14
39	0x0b	11
40	0x04	4
41	0xec	-20
42	0x46	70
43	0xfb	-5
44	0x10	16
45	0xf4	-12
46	0x1b	27
47	0xf0	-16
48	0xde	-34
49	0x08	8
50	0xf6	-10
51	0xce	-50
52	0x07	7
53	0x05	5
54	0x05	5
55	0x07	7
56	0x2a	42
57	0xfb	-5
58	0xf5	-11
59	0xed	-19
60	0xfd	-3
61	0x12	18
62	0xf2	-14
63	0x0f	15
64	0x10	16
65	0xde	-34
66	0x0e	14
67	0xeb	-21
68	0x26	38
69	0xfa	-6
70	0xf0	-16
71	0x04	4
72	0xd3	-45
73	0xfd	-3
74	0xfd	-3
75	0xb9	-71
76	0xec	-20
77	0x1a	26
78	0xf5	-11
79	0x12	18
80	0x29	41
81	0x02	2
82	0xe0	-32
83	0xe7	-25
84	0x0e	14
85	0xfd	-3
86	0x04	4
87	0xf7	-9
88	0xf5	-11
89	0xe7	-25
90	0xf2	-14
91	0xf5	-11
92	0x20	32
93	0x1b	27
94	0xdf	-33
95	0x0b	11
96	0xbc	-68
97	0xde	-34
98	0x26	38
99	0xb4	-76
100	0xd3	-45
101	0x1e	30
102	0x1d	29
103	0x3a	58
104	0x0a	10
105	0x17	23
106	0xca	-54
107	0xc7	-57
108	0x10	16
109	0xd5	-43
110	0x0a	10
111	0xdb	-37
112	0xc7	-57
113	0xd4	-44
114	0xf7	-9
115	0x0d	13
116	0xf7	-9
117	0x42	66
118	0xd0	-48
119	0x29	41
120	0x15	21
121	0x12	18
122	0x47	71
123	0x39	57
124	0x3b	59
125	0x5c	92
126	0x23	35
127	0x0d	13
128	0xc0	-64
129	0xb9	-71
130	0x13	19
131	0x30	48
132	0x7f	127
133	0x1c	28
134	0x60	96
135	0x2a	42
136	0x14	20
137	0x52	82
138	0xc0	-64
139	0x24	36
140	0x0a	10
141	0x15	21
142	0xf8	-8
143	0x26	38
144	0xf9	-7
145	0xeb	-21
146	0x11	17
147	0x12	18
148	0x07	7
149	0x28	40
150	0xfc	-4
151	0x06	6
152	0xf5	-11
153	0xe0	-32
154	0xec	-20
155	0xfd	-3
156	0x20	32
157	0x12	18
158	0x1b	27
159	0x05	5
160	0xdd	-35
161	0x12	18
162	0xf8	-8
163	0xed	-19
164	0x04	4
165	0x09	9
166	0xf6	-10
167	0x11	17
168	0xf8	-8
169	0xd5	-43
170	0x0c	12
171	0xd4	-44
172	0x0b	11
173	0x34	52
174	0x10	16
175	0x02	2
176	0xea	-22
177	0xe7	-25
178	0xec	-20
179	0xce	-50
180	0x12	18
181	0x0f	15
182	0x17	23
183	0xf9	-7
184	0xdb	-37
185	0x0f	15
186	0x29	41
187	0xeb	-21
188	0x02	2
189	0xef	-17
190	0x08	8
191	0x17	23
192	0xf6	-10
193	0xcb	-53
194	0x0a	10
195	0xd8	-40
196	0x00	0
197	0x2a	42
198	0x18	24
199	0x1a	26
200	0xd1	-47
201	0x05	5
202	0xd4	-44
203	0xc8	-56
204	0xf8	-8
205	0xf4	-12
206	0x1b	27
207	0xe5	-27
208	0xe8	-24
209	0x0e	14
210	0x37	55
211	0x0b	11
212	0xf1	-15
213	0x20	32
214	0xf2	-14
215	0x0b	11
216	0x1c	28
217	0xa0	-96
218	0x15	21
219	0xa3	-93
220	0xf4	-12
221	0x0f	15
222	0x3e	62
223	0x61	97
224	0xb2	-78
225	0x14	20
226	0xa6	-90
227	0xa6	-90
228	0xe4	-28
229	0xaf	-81
230	0xf9	-7
231	0xdc	-36
232	0xd8	-40
233	0xda	-38
234	0x5b	91
235	0x24	36
236	0xac	-84
237	0x4a	74
238	0xfa	-6
239	0x00	0
240	0x30	48
241	0x07	7
242	0x29	41
243	0x39	57
244	0x54	84
245	0x39	57
246	0x44	68
247	0xea	-22
248	0xf2	-14
249	0x05	5
250	0x0d	13
251	0x1b	27
252	0x16	22
253	0xd5	-43
254	0x7f	127
255	0x3d	61

model_1/conv2d_40/Conv2D i1 [24, 1, 1, 64]
0	0xa9	-87
1	0x29	41
2	0x42	66
3	0xae	-82
4	0xe8	-24
5	0x1e	30
6	0xd5	-43
7	0xbd	-67
8	0x31	49
9	0x1f	31
10	0x09	9
11	0x0f	15
12	0xb1	-79
13	0xfc	-4
14	0x0a	10
15	0xec	-20
16	0x55	85
17	0xca	-54
18	0xd3	-45
19	0x08	8
20	0x2e	46
21	0x32	50
22	0xd0	-48
23	0xd5	-43
24	0xfc	-4
25	0xf1	-15
26	0x35	53
27	0x2f	47
28	0xdc	-36
29	0xdc	-36
30	0x81	-127
31	0x9b	-101
32	0xf3	-13
33	0x54	84
34	0xcc	-52
35	0x3f	63
36	0x46	70
37	0xcc	-52
38	0xd3	-45
39	0x16	22
40	0xfe	-2
41	0x08	8
42	0xff	-1
43	0xef	-17
44	0xd0	-48
45	0xbe	-66
46	0xe0	-32
47	0x24	36
48	0xdc	-36
49	0x0a	10
50	0xbd	-67
51	0xe5	-27
52	0xf7	-9
53	0xff	-1
54	0x19	25
55	0x33	51
56	0xda	-38
57	0x0d	13
58	0x0f	15
59	0x56	86
60	0xe6	-26
61	0xf4	-12
62	0xde	-34
63	0x13	19
64	0x0b	11
65	0x34	52
66	0x02	2
67	0x20	32
68	0xd0	-48
69	0x0c	12
70	0x12	18
71	0x1d	29
72	0x01	1
73	0xd9	-39
74	0xf0	-16
75	0xeb	-21
76	0x0f	15
77	0xf0	-16
78	0x2e	46
79	0xf2	-14
80	0x04	4
81	0xbd	-67
82	0x1e	30
83	0xd6	-42
84	0x37	55
85	0xa3	-93
86	0x15	21
87	0x46	70
88	0x7f	127
89	0x4c	76
90	0xb3	-77
91	0x27	39
92	0x48	72
93	0xaf	-81
94	0x16	22
95	0xe8	-24
96	0xa8	-88
97	0x11	17
98	0x3a	58
99	0x11	17
100	0x18	24
101	0xbe	-66
102	0xc7	-57
103	0xdb	-37
104	0xa8	-88
105	0x99	-103
106	0x9b	-101
107	0x19	25
108	0x17	23
109	0x17	23
110	0xf1	-15
111	0xd2	-46
112	0xe0	-32
113	0xee	-18
114	0x0e	14
115	0xe6	-26
116	0x07	7
117	0xc4	-60
118	0x1e	30
119	0xf2	-14
120	0x05	5
121	0x22	34
122	0xd7	-41
123	0x03	3
124	0x11	17
125	0xf7	-9
126	0xd2	-46
127	0x55	85
128	0x3e	62
129	0x0d	13
130	0x07	7
131	0x77	119
132	0xf6	-10
133	0x26	38
134	0x1c	28
135	0x1a	26
136	0xce	-50
137	0xe7	-25
138	0xb0	-80
139	0x0f	15
140	0x4a	74
141	0xff	-1
142	0xce	-50
143	0xf7	-9
144	0xf7	-9
145	0xfe	-2
146	0xf0	-16
147	0xd4	-44
148	0xf0	-16
149	0xeb	-21
150	0xf9	-7
151	0x20	32
152	0x27	39
153	0x46	70
154	0xbc	-68
155	0x02	2
156	0x7f	127
157	0x11	17
158	0x11	17
159	0xba	-70
160	0x20	32
161	0xd8	-40
162	0xc3	-61
163	0x9b	-101
164	0xcf	-49
165	0xaf	-81
166	0x32	50
167	0xfb	-5
168	0xf5	-11
169	0xf7	-9
170	0xcc	-52
171	0x3d	61
172	0xe1	-31
173	0x1a	26
174	0x3c	60
175	0x2c	44
176	0xea	-22
177	0x12	18
178	0x16	22
179	0xee	-18
180	0xcc	-52
181	0x26	38
182	0x42	66
183	0x29	41
184	0x1c	28
185	0x0d	13
186	0xb5	-75
187	0x22	34
188	0xfa	-6
189	0x04	4
190	0x27	39
191	0xfd	-3
192	0xdd	-35
193	0x52	82
194	0x0c	12
195	0xfb	-5
196	0xc5	-59
197	0xfe	-2
198	0xd1	-47
199	0x0e	14
200	0xdc	-36
201	0xdd	-35
202	0x04	4
203	0x13	19
204	0x02	2
205	0x1d	29
206	0x33	51
207	0xf3	-13
208	0x26	38
209	0xba	-70
210	0x29	41
211	0xd6	-42
212	0x4c	76
213	0xbe	-66
214	0xd0	-48
215	0x44	68
216	0x5d	93
217	0x5b	91
218	0x81	-127
219	0x1e	30
220	0x3f	63
221	0xb7	-73
222	0xdb	-37
223	0xb3	-77
224	0xca	-54
225	0x1a	26
226	0x1c	28
227	0xc0	-64
228	0xf6	-10
229	0xbc	-68
230	0xc3	-61
231	0x35	53
232	0xa1	-95
233	0xa9	-87
234	0xc8	-56
235	0x25	37
236	0x8e	-114
237	0xe8	-24
238	0xc2	-62
239	0xd3	-45
240	0xaf	-81
241	0x0b	11
242	0x19	25
243	0xd2	-46
244	0xc2	-62
245	0x00	0
246	0x2b	43
247	0xf8	-8
248	0x12	18
249	0x22	34
250	0x02	2
251	0x0b	11
252	0xf3	-13
253	0x0d	13
254	0xe7	-25
255	0x54	84

model_1/stream_18/conv2d_39/Conv2D i1 [24, 5, 1, 24]
0	0xf0	-16
1	0x07	7
2	0x37	55
3	0xc5	-59
4	0xd8	-40
5	0x14	20
6	0x7a	122
7	0x54	84
8	0x1a	26
9	0x01	1
10	0xf8	-8
11	0x5f	95
12	0xd0	-48
13	0x3a	58
14	0x02	2
15	0xfe	-2
16	0xee	-18
17	0x14	20
18	0xf2	-14
19	0x18	24
20	0x4c	76
21	0x7f	127
22	0xf8	-8
23	0xf7	-9
24	0xea	-22
25	0xf8	-8
26	0x15	21
27	0xe7	-25
28	0xd0	-48
29	0x28	40
30	0x62	98
31	0x3b	59
32	0x02	2
33	0x04	4
34	0xfd	-3
35	0x4c	76
36	0xdd	-35
37	0x45	69
38	0xdd	-35
39	0xfb	-5
40	0x04	4
41	0x03	3
42	0xf0	-16
43	0x03	3
44	0x34	52
45	0x51	81
46	0xf8	-8
47	0xee	-18
48	0xec	-20
49	0x03	3
50	0x10	16
51	0x10	16
52	0xdc	-36
53	0x3b	59
54	0x22	34
55	0x21	33
56	0xec	-20
57	0xe9	-23
58	0xf8	-8
59	0x1c	28
60	0xe6	-26
61	0x49	73
62	0xda	-38
63	0xf1	-15
64	0x2f	47
65	0xf3	-13
66	0xed	-19
67	0x08	8
68	0x04	4
69	0x0f	15
70	0xfb	-5
71	0xfd	-3
72	0xea	-22
73	0x06	6
74	0xfa	-6
75	0x02	2
76	0xde	-34
77	0x40	64
78	0xeb	-21
79	0x15	21
80	0xd6	-42
81	0xe4	-28
82	0x10	16
83	0x0b	11
84	0xf7	-9
85	0x10	16
86	0xf0	-16
87	0x03	3
88	0x15	21
89	0xd9	-39
90	0x0a	10
91	0x0b	11
92	0xed	-19
93	0xda	-38
94	0x03	3
95	0xfd	-3
96	0xd6	-42
97	0xe7	-25
98	0xe2	-30
99	0x18	24
100	0xe8	-24
101	0x15	21
102	0xd9	-39
103	0x0c	12
104	0xe8	-24
105	0xe5	-27
106	0xec	-20
107	0x0f	15
108	0x05	5
109	0xe5	-27
110	0xd5	-43
111	0xea	-22
112	0x00	0
113	0xf2	-14
114	0xf0	-16
115	0xf9	-7
116	0xef	-17
117	0xe2	-30
118	0xf4	-12
119	0xe6	-26
120	0x1e	30
121	0x03	3
122	0xfd	-3
123	0x0e	14
124	0x05	5
125	0x2d	45
126	0x01	1
127	0xfe	-2
128	0x05	5
129	0x1d	29
130	0x30	48
131	0xf9	-7
132	0x02	2
133	0xfb	-5
134	0xea	-22
135	0x39	57
136	0x19	25
137	0x0a	10
138	0x25	37
139	0x05	5
140	0xeb	-21
141	0x16	22
142	0x0a	10
143	0x2b	43
144	0x16	22
145	0xff	-1
146	0x09	9
147	0xfa	-6
148	0x00	0
149	0x1f	31
150	0xfa	-6
151	0x03	3
152	0x1a	26
153	0x14	20
154	0x01	1
155	0xf2	-14
156	0xfa	-6
157	0xf8	-8
158	0xf3	-13
159	0x1f	31
160	0x17	23
161	0x0a	10
162	0x02	2
163	0xf5	-11
164	0x02	2
165	0x12	18
166	0x0c	12
167	0x10	16
168	0x06	6
169	0x0b	11
170	0xfe	-2
171	0xff	-1
172	0x05	5
173	0xf6	-10
174	0x06	6
175	0xeb	-21
176	0x0c	12
177	0x15	21
178	0x20	32
179	0xf2	-14
180	0xfb	-5
181	0xee	-18
182	0xf5	-11
183	0x13	19
184	0xff	-1
185	0x14	20
186	0x23	35
187	0x09	9
188	0x01	1
189	0xfa	-6
190	0x07	7
191	0x18	24
192	0xde	-34
193	0x34	52
194	0x19	25
195	0xf8	-8
196	0x17	23
197	0xdf	-33
198	0xf8	-8
199	0xf7	-9
200	0x09	9
201	0x06	6
202	0x25	37
203	0x12	18
204	0xfa	-6
205	0xf6	-10
206	0x02	2
207	0x0a	10
208	0xf3	-13
209	0x05	5
210	0x1a	26
211	0x39	57
212	0x07	7
213	0xfb	-5
214	0xfb	-5
215	0x0b	11
216	0xf3	-13
217	0x7b	123
218	0x05	5
219	0x09	9
220	0x0d	13
221	0xea	-22
222	0x09	9
223	0xec	-20
224	0x0d	13
225	0x0e	14
226	0x64	100
227	0x17	23
228	0xfe	-2
229	0x04	4
230	0x1e	30
231	0x34	52
232	0xd9	-39
233	0x05	5
234	0x26	38
235	0x7f	127
236	0xee	-18
237	0xfe	-2
238	0xfb	-5
239	0x42	66
240	0x20	32
241	0x27	39
242	0x0a	10
243	0x7f	127
244	0xc6	-58
245	0x12	18
246	0xf1	-15
247	0xe9	-23
248	0xb3	-77
249	0xe1	-31
250	0x20	32
251	0x26	38
252	0x2c	44
253	0xe3	-29
254	0xad	-83
255	0x15	21

model_1/conv2d_38/Conv2D i1 [24, 1, 1, 64]
0	0x23	35
1	0xe1	-31
2	0xe7	-25
3	0x26	38
4	0xee	-18
5	0x06	6
6	0xf2	-14
7	0x02	2
8	0x09	9
9	0x07	7
10	0xe4	-28
11	0xa6	-90
12	0xe5	-27
13	0xf6	-10
14	0x0f	15
15	0xca	-54
16	0xdf	-33
17	0x18	24
18	0xba	-70
19	0xd7	-41
20	0xfc	-4
21	0x7f	127
22	0xfc	-4
23	0xf8	-8
24	0x2a	42
25	0xfb	-5
26	0xe0	-32
27	0x0c	12
28	0x2c	44
29	0xed	-19
30	0xfc	-4
31	0xae	-82
32	0x5e	94
33	0x0b	11
34	0xb2	-78
35	0x10	16
36	0xdb	-37
37	0xe2	-30
38	0x35	53
39	0xf2	-14
40	0xe1	-31
41	0xd8	-40
42	0x09	9
43	0x35	53
44	0xda	-38
45	0xf1	-15
46	0x59	89
47	0xd9	-39
48	0xf7	-9
49	0xc8	-56
50	0xda	-38
51	0x20	32
52	0xb0	-80
53	0x26	38
54	0xe1	-31
55	0xdf	-33
56	0x0c	12
57	0xc8	-56
58	0xc0	-64
59	0xee	-18
60	0x09	9
61	0xe6	-26
62	0x12	18
63	0xdd	-35
64	0x20	32
65	0x1a	26
66	0xf6	-10
67	0x06	6
68	0x03	3
69	0x19	25
70	0x11	17
71	0x23	35
72	0xee	-18
73	0x2b	43
74	0x39	57
75	0xec	-20
76	0x15	21
77	0x39	57
78	0xe0	-32
79	0x0f	15
80	0x04	4
81	0xf8	-8
82	0x10	16
83	0x0c	12
84	0x15	21
85	0x3c	60
86	0x12	18
87	0x5d	93
88	0xef	-17
89	0xf3	-13
90	0x16	22
91	0x0e	14
92	0x1f	31
93	0x25	37
94	0x26	38
95	0xff	-1
96	0x17	23
97	0x25	37
98	0xee	-18
99	0x3b	59
100	0x2b	43
101	0x03	3
102	0x2e	46
103	0xf4	-12
104	0xfc	-4
105	0x05	5
106	0xe4	-28
107	0x18	24
108	0x07	7
109	0xf6	-10
110	0x11	17
111	0x16	22
112	0xf7	-9
113	0x09	9
114	0x1b	27
115	0x2b	43
116	0xe9	-23
117	0x57	87
118	0x06	6
119	0x1f	31
120	0x2a	42
121	0x18	24
122	0xdf	-33
123	0x0d	13
124	0x48	72
125	0x3d	61
126	0x7f	127
127	0xfc	-4
128	0x26	38
129	0xce	-50
130	0x03	3
131	0xbe	-66
132	0xca	-54
133	0xae	-82
134	0xfe	-2
135	0xd7	-41
136	0xd2	-46
137	0x06	6
138	0x0d	13
139	0x03	3
140	0x2a	42
141	0xf2	-14
142	0x0f	15
143	0xc4	-60
144	0xbc	-68
145	0x0c	12
146	0x42	66
147	0xf1	-15
148	0xd0	-48
149	0x73	115
150	0xce	-50
151	0xef	-17
152	0x57	87
153	0xb0	-80
154	0xbd	-67
155	0xea	-22
156	0xbc	-68
157	0xc8	-56
158	0x26	38
159	0x28	40
160	0x09	9
161	0xde	-34
162	0xc6	-58
163	0x0b	11
164	0xca	-54
165	0xdb	-37
166	0x29	41
167	0x81	-127
168	0x0b	11
169	0xeb	-21
170	0x05	5
171	0x4e	78
172	0xa8	-88
173	0x33	51
174	0x27	39
175	0xa5	-91
176	0x01	1
177	0xaa	-86
178	0xc0	-64
179	0xfa	-6
180	0xe2	-30
181	0x07	7
182	0xad	-83
183	0x9f	-97
184	0xf7	-9
185	0xb5	-75
186	0x1d	29
187	0xe2	-30
188	0x15	21
189	0xe9	-23
190	0x00	0
191	0xe6	-26
192	0x32	50
193	0x34	52
194	0xab	-85
195	0x0c	12
196	0xd7	-41
197	0xd1	-47
198	0x5e	94
199	0x53	83
200	0x22	34
201	0xd2	-46
202	0xfa	-6
203	0xc8	-56
204	0xcd	-51
205	0xe5	-27
206	0x2b	43
207	0x03	3
208	0x02	2
209	0xe7	-25
210	0x90	-112
211	0xa3	-93
212	0x87	-121
213	0xc4	-60
214	0x7f	127
215	0xe6	-26
216	0xf1	-15
217	0x15	21
218	0xc7	-57
219	0xed	-19
220	0x0d	13
221	0x37	55
222	0x0c	12
223	0xab	-85
224	0x0f	15
225	0xc4	-60
226	0x30	48
227	0x41	65
228	0x14	20
229	0xa6	-90
230	0xdf	-33
231	0x93	-109
232	0x93	-109
233	0xb2	-78
234	0xc3	-61
235	0xee	-18
236	0x60	96
237	0xda	-38
238	0x1e	30
239	0x13	19
240	0xbe	-66
241	0x96	-106
242	0x58	88
243	0x18	24
244	0x24	36
245	0x0b	11
246	0x3a	58
247	0x26	38
248	0x13	19
249	0x5a	90
250	0xf0	-16
251	0xdd	-35
252	0x15	21
253	0xe5	-27
254	0xd3	-45
255	0xc0	-64

model_1/conv2d_37/Conv2D i1 [24, 1, 1, 64]
0	0xf8	-8
1	0xd6	-42
2	0xd7	-41
3	0x1a	26
4	0x3e	62
5	0x29	41
6	0x1b	27
7	0x24	36
8	0xe8	-24
9	0x29	41
10	0x12	18
11	0xbe	-66
12	0xcd	-51
13	0xce	-50
14	0x0a	10
15	0x4b	75
16	0xc4	-60
17	0xe4	-28
18	0xc2	-62
19	0x02	2
20	0x27	39
21	0xe0	-32
22	0xf2	-14
23	0xfb	-5
24	0xde	-34
25	0xeb	-21
26	0xa4	-92
27	0xe3	-29
28	0x05	5
29	0x21	33
30	0xf4	-12
31	0xef	-17
32	0x18	24
33	0xc1	-63
34	0xfb	-5
35	0xf0	-16
36	0x01	1
37	0xb0	-80
38	0x01	1
39	0xea	-22
40	0xc4	-60
41	0x1a	26
42	0xb8	-72
43	0xcc	-52
44	0xdc	-36
45	0xdf	-33
46	0x04	4
47	0x35	53
48	0x7f	127
49	0x26	38
50	0x0e	14
51	0x0a	10
52	0xac	-84
53	0x1b	27
54	0x1c	28
55	0x26	38
56	0xdc	-36
57	0x10	16
58	0xff	-1
59	0xc2	-62
60	0x43	67
61	0xde	-34
62	0x04	4
63	0xf5	-11
64	0xeb	-21
65	0x09	9
66	0xb7	-73
67	0xbc	-68
68	0x42	66
69	0x37	55
70	0x1c	28
71	0x30	48
72	0xf2	-14
73	0xf1	-15
74	0x42	66
75	0xca	-54
76	0xae	-82
77	0xf0	-16
78	0x31	49
79	0x57	87
80	0x01	1
81	0xd8	-40
82	0x19	25
83	0x0a	10
84	0x25	37
85	0xd4	-44
86	0x5e	94
87	0x53	83
88	0x81	-127
89	0xec	-20
90	0x9e	-98
91	0xc5	-59
92	0xe2	-30
93	0x33	51
94	0xd7	-41
95	0xa6	-90
96	0xef	-17
97	0xd1	-47
98	0x1f	31
99	0x60	96
100	0x12	18
101	0xbb	-69
102	0xfe	-2
103	0xff	-1
104	0xcb	-53
105	0xd7	-41
106	0xf5	-11
107	0xcb	-53
108	0x40	64
109	0xbc	-68
110	0xd9	-39
111	0x12	18
112	0x11	17
113	0xf2	-14
114	0x28	40
115	0xfe	-2
116	0x09	9
117	0x38	56
118	0xf7	-9
119	0x26	38
120	0xcd	-51
121	0x0f	15
122	0xe1	-31
123	0xdd	-35
124	0x14	20
125	0xf1	-15
126	0x29	41
127	0x07	7
128	0xe7	-25
129	0xda	-38
130	0xf9	-7
131	0x3a	58
132	0x18	24
133	0x28	40
134	0x05	5
135	0x13	19
136	0x06	6
137	0xff	-1
138	0xd8	-40
139	0xeb	-21
140	0x07	7
141	0xfa	-6
142	0xf4	-12
143	0x10	16
144	0xd7	-41
145	0x1e	30
146	0xb2	-78
147	0xf4	-12
148	0x25	37
149	0xc1	-63
150	0xe4	-28
151	0x16	22
152	0xf5	-11
153	0xcb	-53
154	0x20	32
155	0xfa	-6
156	0x15	21
157	0x12	18
158	0x09	9
159	0x0c	12
160	0xd4	-44
161	0x00	0
162	0xdc	-36
163	0xb4	-76
164	0xe1	-31
165	0x00	0
166	0x28	40
167	0xf3	-13
168	0x1c	28
169	0x2b	43
170	0xf6	-10
171	0xfe	-2
172	0xc7	-57
173	0x0d	13
174	0xf9	-7
175	0x2f	47
176	0x4e	78
177	0x7f	127
178	0x1a	26
179	0xd2	-46
180	0xd7	-41
181	0x1d	29
182	0x11	17
183	0xff	-1
184	0xf3	-13
185	0xdc	-36
186	0xb3	-77
187	0xe6	-26
188	0xf0	-16
189	0xf5	-11
190	0x23	35
191	0xf2	-14
192	0xa6	-90
193	0x56	86
194	0xc0	-64
195	0x0b	11
196	0x85	-123
197	0xe8	-24
198	0x0c	12
199	0x1d	29
200	0x09	9
201	0x28	40
202	0x52	82
203	0xe5	-27
204	0xcd	-51
205	0x22	34
206	0x66	102
207	0x20	32
208	0xb3	-77
209	0xbd	-67
210	0x0e	14
211	0xdc	-36
212	0x66	102
213	0xea	-22
214	0x26	38
215	0x6f	111
216	0x6f	111
217	0xb5	-75
218	0xd0	-48
219	0x58	88
220	0xf9	-7
221	0x81	-127
222	0xea	-22
223	0x03	3
224	0xcb	-53
225	0x1c	28
226	0x32	50
227	0x3e	62
228	0x7a	122
229	0xa6	-90
230	0x4c	76
231	0xd0	-48
232	0x04	4
233	0x36	54
234	0xa1	-95
235	0x51	81
236	0x0f	15
237	0xf7	-9
238	0xb6	-74
239	0x5b	91
240	0xfd	-3
241	0x62	98
242	0x71	113
243	0xb8	-72
244	0x14	20
245	0x12	18
246	0x2c	44
247	0x9e	-98
248	0x04	4
249	0xa4	-92
250	0xee	-18
251	0xcd	-51
252	0xce	-50
253	0x7c	124
254	0x45	69
255	0x77	119

model_1/conv2d_36/Conv2D i1 [64, 1, 1, 72]
0	0x17	23
1	0xd7	-41
2	0xb2	-78
3	0x07	7
4	0xcf	-49
5	0x14	20
6	0xf5	-11
7	0x10	16
8	0x74	116
9	0x2e	46
10	0x27	39
11	0x27	39
12	0xee	-18
13	0x5e	94
14	0x89	-119
15	0x00	0
16	0x15	21
17	0xe4	-28
18	0xc7	-57
19	0xa6	-90
20	0xf5	-11
21	0xf0	-16
22	0x42	66
23	0xbf	-65
24	0xfc	-4
25	0xfd	-3
26	0xa1	-95
27	0x0a	10
28	0x25	37
29	0xf0	-16
30	0xe8	-24
31	0xdf	-33
32	0xf4	-12
33	0x08	8
34	0x05	5
35	0x1b	27
36	0xf9	-7
37	0x81	-127
38	0x27	39
39	0xdd	-35
40	0xd3	-45
41	0xf1	-15
42	0xf4	-12
43	0xf2	-14
44	0x9d	-99
45	0x04	4
46	0x98	-104
47	0xd3	-45
48	0x68	104
49	0xb2	-78
50	0x37	55
51	0x34	52
52	0xed	-19
53	0x00	0
54	0xc4	-60
55	0xc1	-63
56	0xf1	-15
57	0x86	-122
58	0x1f	31
59	0x7b	123
60	0xc3	-61
61	0xf6	-10
62	0x33	51
63	0xd0	-48
64	0x1e	30
65	0x8a	-118
66	0x29	41
67	0xd5	-43
68	0xf0	-16
69	0x31	49
70	0xc7	-57
71	0xaf	-81
72	0x38	56
73	0x0b	11
74	0x31	49
75	0x15	21
76	0x3c	60
77	0x05	5
78	0xf3	-13
79	0x38	56
80	0x09	9
81	0x01	1
82	0x0a	10
83	0x11	17
84	0xc4	-60
85	0xf5	-11
86	0x14	20
87	0xf7	-9
88	0xc0	-64
89	0xe5	-27
90	0xc4	-60
91	0xf3	-13
92	0xdf	-33
93	0xc1	-63
94	0x0e	14
95	0x3f	63
96	0xcc	-52
97	0x03	3
98	0xf2	-14
99	0xea	-22
100	0x97	-105
101	0xbc	-68
102	0x23	35
103	0x2a	42
104	0x12	18
105	0x0a	10
106	0x26	38
107	0xdb	-37
108	0x0c	12
109	0xe5	-27
110	0xf3	-13
111	0x99	-103
112	0xbb	-69
113	0x81	-127
114	0xd8	-40
115	0xd8	-40
116	0x19	25
117	0xeb	-21
118	0x03	3
119	0xb0	-80
120	0xb9	-71
121	0x14	20
122	0xcb	-53
123	0xe1	-31
124	0x2d	45
125	0xf9	-7
126	0x25	37
127	0x3b	59
128	0x31	49
129	0x0e	14
130	0x0e	14
131	0xd0	-48
132	0x3b	59
133	0xe9	-23
134	0xcd	-51
135	0xb9	-71
136	0x21	33
137	0x38	56
138	0xde	-34
139	0x46	70
140	0xd8	-40
141	0x0f	15
142	0x01	1
143	0x92	-110
144	0x1e	30
145	0xb4	-76
146	0x12	18
147	0xe1	-31
148	0xc5	-59
149	0x33	51
150	0xb6	-74
151	0x7c	124
152	0x5c	92
153	0x32	50
154	0x23	35
155	0xf7	-9
156	0x0b	11
157	0xa7	-89
158	0xc3	-61
159	0x3d	61
160	0x0d	13
161	0xa0	-96
162	0xab	-85
163	0xe0	-32
164	0x9a	-102
165	0x05	5
166	0x6d	109
167	0xfa	-6
168	0xbf	-65
169	0xe3	-29
170	0xba	-70
171	0x38	56
172	0xa9	-87
173	0xbb	-69
174	0xfe	-2
175	0xa5	-91
176	0x13	19
177	0xd3	-45
178	0x14	20
179	0x32	50
180	0xf6	-10
181	0x0a	10
182	0x9a	-102
183	0xe5	-27
184	0xcd	-51
185	0x1b	27
186	0xc4	-60
187	0xe1	-31
188	0xf4	-12
189	0xf9	-7
190	0xa6	-90
191	0x10	16
192	0xe2	-30
193	0xc9	-55
194	0xc9	-55
195	0x22	34
196	0xf8	-8
197	0xf1	-15
198	0xec	-20
199	0xad	-83
200	0x87	-121
201	0x0c	12
202	0x4d	77
203	0xf9	-7
204	0x62	98
205	0xd1	-47
206	0x15	21
207	0x0e	14
208	0xc2	-62
209	0xfb	-5
210	0x0d	13
211	0x38	56
212	0x07	7
213	0x81	-127
214	0x13	19
215	0xaa	-86
216	0xf8	-8
217	0x02	2
218	0x88	-120
219	0x03	3
220	0xdf	-33
221	0xf6	-10
222	0x01	1
223	0x01	1
224	0x0c	12
225	0xf8	-8
226	0x43	67
227	0x30	48
228	0xdd	-35
229	0x05	5
230	0xd9	-39
231	0xc8	-56
232	0xdd	-35
233	0xf7	-9
234	0x24	36
235	0xda	-38
236	0xef	-17
237	0xd7	-41
238	0xc9	-55
239	0xf7	-9
240	0x95	-107
241	0xfa	-6
242	0xec	-20
243	0x1c	28
244	0x16	22
245	0x81	-127
246	0x0c	12
247	0xf7	-9
248	0xfb	-5
249	0xec	-20
250	0x22	34
251	0x1e	30
252	0xf7	-9
253	0xfc	-4
254	0xf6	-10
255	0xea	-22

model_1/stream_17/conv2d_35/Conv2D i1 [24, 5, 1, 24]
0	0x4b	75
1	0xc4	-60
2	0xd8	-40
3	0x0e	14
4	0x76	118
5	0x0b	11
6	0xd3	-45
7	0x33	51
8	0x34	52
9	0x22	34
10	0x33	51
11	0x7f	127
12	0xd6	-42
13	0x22	34
14	0x0f	15
15	0x6a	106
16	0x12	18
17	0x66	102
18	0x3c	60
19	0x47	71
20	0x9a	-102
21	0xea	-22
22	0xb6	-74
23	0x70	112
24	0xf8	-8
25	0x06	6
26	0xfd	-3
27	0xf7	-9
28	0x33	51
29	0xd5	-43
30	0xfd	-3
31	0x08	8
32	0x0a	10
33	0xf9	-7
34	0x14	20
35	0x2e	46
36	0xf9	-7
37	0xe8	-24
38	0xf6	-10
39	0x26	38
40	0x13	19
41	0x2b	43
42	0x16	22
43	0xe4	-28
44	0x11	17
45	0xfe	-2
46	0x05	5
47	0x2a	42
48	0xea	-22
49	0x07	7
50	0x21	33
51	0xf2	-14
52	0xf4	-12
53	0xcf	-49
54	0xee	-18
55	0x08	8
56	0x25	37
57	0x0b	11
58	0x00	0
59	0x14	20
60	0xf8	-8
61	0xec	-20
62	0xf7	-9
63	0x01	1
64	0x05	5
65	0x0b	11
66	0xfc	-4
67	0xe5	-27
68	0x14	20
69	0xf8	-8
70	0x20	32
71	0xff	-1
72	0xda	-38
73	0xf5	-11
74	0x24	36
75	0xd8	-40
76	0x09	9
77	0xd4	-44
78	0xe1	-31
79	0xfc	-4
80	0x29	41
81	0x02	2
82	0xd2	-46
83	0x1c	28
84	0x0b	11
85	0x0c	12
86	0x0a	10
87	0x16	22
88	0xf1	-15
89	0xfe	-2
90	0x0c	12
91	0xf5	-11
92	0xed	-19
93	0xef	-17
94	0x11	17
95	0xec	-20
96	0xe7	-25
97	0xd8	-40
98	0x03	3
99	0xd7	-41
100	0xfe	-2
101	0xc8	-56
102	0xcc	-52
103	0xff	-1
104	0xe9	-23
105	0xdf	-33
106	0xc3	-61
107	0xfc	-4
108	0x3e	62
109	0x0a	10
110	0xf4	-12
111	0x05	5
112	0xf5	-11
113	0xbf	-65
114	0x03	3
115	0xed	-19
116	0xf0	-16
117	0x07	7
118	0x01	1
119	0x05	5
120	0x58	88
121	0xd7	-41
122	0x0d	13
123	0xff	-1
124	0xda	-38
125	0x4e	78
126	0x06	6
127	0x44	68
128	0x6f	111
129	0xea	-22
130	0x15	21
131	0xb7	-73
132	0x19	25
133	0x54	84
134	0x1b	27
135	0xc6	-58
136	0xe5	-27
137	0x13	19
138	0xf8	-8
139	0x71	113
140	0xc9	-55
141	0xe2	-30
142	0x5b	91
143	0x5c	92
144	0xf2	-14
145	0xd6	-42
146	0xdf	-33
147	0x10	16
148	0xd3	-45
149	0x35	53
150	0x0b	11
151	0xff	-1
152	0x1e	30
153	0xc6	-58
154	0xf4	-12
155	0xaf	-81
156	0x13	19
157	0x28	40
158	0x19	25
159	0xc1	-63
160	0xe1	-31
161	0xeb	-21
162	0xd7	-41
163	0x33	51
164	0xe8	-24
165	0xf9	-7
166	0x42	66
167	0x06	6
168	0x1b	27
169	0xd1	-47
170	0xe9	-23
171	0xe4	-28
172	0xdd	-35
173	0x5e	94
174	0xf5	-11
175	0x0e	14
176	0x07	7
177	0xe3	-29
178	0x0b	11
179	0xc3	-61
180	0x15	21
181	0x28	40
182	0x0c	12
183	0xe5	-27
184	0xea	-22
185	0xe4	-28
186	0xc9	-55
187	0x7f	127
188	0x0c	12
189	0xed	-19
190	0x0d	13
191	0x01	1
192	0x52	82
193	0xd5	-43
194	0x0c	12
195	0x94	-108
196	0xff	-1
197	0x36	54
198	0xea	-22
199	0x12	18
200	0x01	1
201	0x16	22
202	0x3d	61
203	0xe3	-29
204	0xe4	-28
205	0x12	18
206	0xe5	-27
207	0xf2	-14
208	0x00	0
209	0xf9	-7
210	0xce	-50
211	0x73	115
212	0x0b	11
213	0xf5	-11
214	0xd4	-44
215	0x0b	11
216	0x23	35
217	0xdc	-36
218	0x2b	43
219	0xb4	-76
220	0x33	51
221	0xc1	-63
222	0xdd	-35
223	0x02	2
224	0xf0	-16
225	0x47	71
226	0x64	100
227	0x29	41
228	0xd4	-44
229	0xba	-70
230	0x14	20
231	0x58	88
232	0xed	-19
233	0x54	84
234	0xf3	-13
235	0xfe	-2
236	0xdf	-33
237	0xda	-38
238	0xe5	-27
239	0x2a	42
240	0x23	35
241	0x22	34
242	0x28	40
243	0x01	1
244	0x00	0
245	0x27	39
246	0x7f	127
247	0x0c	12
248	0xf2	-14
249	0x12	18
250	0xfd	-3
251	0xf8	-8
252	0xec	-20
253	0xd9	-39
254	0xdd	-35
255	0xe7	-25

model_1/stream_16/conv2d_34/Conv2D i1 [24, 5, 1, 24]
0	0xf5	-11
1	0xe5	-27
2	0x7f	127
3	0x14	20
4	0x2f	47
5	0xfe	-2
6	0x4b	75
7	0xd3	-45
8	0xf5	-11
9	0x39	57
10	0x1d	29
11	0xd8	-40
12	0x46	70
13	0xc6	-58
14	0x16	22
15	0x46	70
16	0xb4	-76
17	0x42	66
18	0x27	39
19	0x40	64
20	0xf6	-10
21	0xc5	-59
22	0x0c	12
23	0x48	72
24	0xfb	-5
25	0x17	23
26	0x1e	30
27	0x16	22
28	0x0d	13
29	0xd3	-45
30	0x03	3
31	0x0e	14
32	0xf8	-8
33	0x07	7
34	0xf1	-15
35	0x15	21
36	0x08	8
37	0x01	1
38	0xf5	-11
39	0x17	23
40	0xc4	-60
41	0x1b	27
42	0xff	-1
43	0x0a	10
44	0xf5	-11
45	0xe8	-24
46	0x17	23
47	0x3a	58
48	0x01	1
49	0x25	37
50	0xf3	-13
51	0x13	19
52	0x09	9
53	0xda	-38
54	0xe9	-23
55	0x1a	26
56	0xfb	-5
57	0xfa	-6
58	0xdf	-33
59	0x25	37
60	0x08	8
61	0x12	18
62	0xed	-19
63	0x0c	12
64	0xfd	-3
65	0x05	5
66	0xe8	-24
67	0x16	22
68	0x10	16
69	0xf3	-13
70	0x05	5
71	0x1d	29
72	0x16	22
73	0x1e	30
74	0xd4	-44
75	0x0c	12
76	0x09	9
77	0xd2	-46
78	0xfa	-6
79	0x1a	26
80	0xfd	-3
81	0xfe	-2
82	0xea	-22
83	0x25	37
84	0x04	4
85	0x13	19
86	0xf6	-10
87	0xeb	-21
88	0x08	8
89	0xed	-19
90	0xf0	-16
91	0xff	-1
92	0x19	25
93	0xfb	-5
94	0x00	0
95	0x01	1
96	0x22	34
97	0x30	48
98	0xc7	-57
99	0x09	9
100	0x0c	12
101	0xdc	-36
102	0x03	3
103	0x09	9
104	0x0f	15
105	0x01	1
106	0xe9	-23
107	0x18	24
108	0xed	-19
109	0x10	16
110	0xf9	-7
111	0xda	-38
112	0x04	4
113	0xc7	-57
114	0x0b	11
115	0xe4	-28
116	0x19	25
117	0x13	19
118	0xf2	-14
119	0xd3	-45
120	0xb3	-77
121	0x3b	59
122	0x24	36
123	0xdc	-36
124	0xaf	-81
125	0x99	-103
126	0x85	-123
127	0xc1	-63
128	0xe0	-32
129	0xbf	-65
130	0xc4	-60
131	0xd6	-42
132	0xe1	-31
133	0x2d	45
134	0x06	6
135	0x7b	123
136	0x1f	31
137	0x09	9
138	0x81	-127
139	0x63	99
140	0x4c	76
141	0x54	84
142	0xed	-19
143	0x38	56
144	0xe5	-27
145	0x33	51
146	0x0a	10
147	0xef	-17
148	0x04	4
149	0xeb	-21
150	0xd6	-42
151	0x09	9
152	0x11	17
153	0xfc	-4
154	0xd2	-46
155	0x10	16
156	0xfc	-4
157	0x1f	31
158	0xf3	-13
159	0x22	34
160	0x3f	63
161	0x04	4
162	0xec	-20
163	0x09	9
164	0x21	33
165	0x26	38
166	0xdd	-35
167	0x0f	15
168	0xec	-20
169	0x20	32
170	0xf9	-7
171	0xea	-22
172	0x1c	28
173	0xed	-19
174	0xfa	-6
175	0x05	5
176	0x18	24
177	0x10	16
178	0xdb	-37
179	0x06	6
180	0x08	8
181	0x1f	31
182	0xd2	-46
183	0x0e	14
184	0x4d	77
185	0xfe	-2
186	0x08	8
187	0x07	7
188	0x2b	43
189	0x1f	31
190	0xe4	-28
191	0xf2	-14
192	0xf7	-9
193	0xfb	-5
194	0x14	20
195	0xfc	-4
196	0x0b	11
197	0xea	-22
198	0x12	18
199	0xee	-18
200	0x0c	12
201	0xef	-17
202	0xea	-22
203	0xf3	-13
204	0x0a	10
205	0x3a	58
206	0xce	-50
207	0xf7	-9
208	0x63	99
209	0x11	17
210	0x1f	31
211	0xf8	-8
212	0x30	48
213	0x05	5
214	0xf2	-14
215	0xea	-22
216	0xe0	-32
217	0xf7	-9
218	0xf3	-13
219	0xf3	-13
220	0xfb	-5
221	0xd4	-44
222	0xee	-18
223	0xf0	-16
224	0xf4	-12
225	0xce	-50
226	0xe9	-23
227	0xeb	-21
228	0x21	33
229	0x54	84
230	0xed	-19
231	0xdb	-37
232	0x7e	126
233	0x0e	14
234	0x0a	10
235	0xfa	-6
236	0x37	55
237	0xfa	-6
238	0xe8	-24
239	0xd2	-46
240	0x81	-127
241	0xbe	-66
242	0x3a	58
243	0x35	53
244	0xe3	-29
245	0xba	-70
246	0x46	70
247	0xf8	-8
248	0xe9	-23
249	0x5c	92
250	0x2a	42
251	0xce	-50
252	0xd8	-40
253	0xed	-19
254	0x0b	11
255	0x24	36

model_1/conv2d_33/Conv2D i1 [24, 1, 1, 32]
0	0x4e	78
1	0x62	98
2	0xe5	-27
3	0xc0	-64
4	0x2a	42
5	0x36	54
6	0xdc	-36
7	0xef	-17
8	0x4a	74
9	0x0b	11
10	0xf7	-9
11	0x41	65
12	0xd9	-39
13	0x0c	12
14	0xe8	-24
15	0xb6	-74
16	0xc7	-57
17	0x12	18
18	0x00	0
19	0x7f	127
20	0x2e	46
21	0x13	19
22	0x16	22
23	0x0d	13
24	0xd3	-45
25	0xab	-85
26	0x02	2
27	0x2f	47
28	0xec	-20
29	0xab	-85
30	0xbc	-68
31	0x27	39
32	0x38	56
33	0x17	23
34	0xef	-17
35	0x7f	127
36	0x34	52
37	0x0a	10
38	0xc0	-64
39	0xc3	-61
40	0x0b	11
41	0xd2	-46
42	0xce	-50
43	0x0f	15
44	0xe7	-25
45	0xe5	-27
46	0xfe	-2
47	0x57	87
48	0x12	18
49	0x41	65
50	0x27	39
51	0x0c	12
52	0x38	56
53	0xf5	-11
54	0x59	89
55	0xee	-18
56	0xc0	-64
57	0xe4	-28
58	0x34	52
59	0x01	1
60	0xfe	-2
61	0x54	84
62	0xd4	-44
63	0x03	3
64	0x08	8
65	0x09	9
66	0xfb	-5
67	0xd6	-42
68	0xe9	-23
69	0x25	37
70	0xe6	-26
71	0x18	24
72	0xb9	-71
73	0x83	-125
74	0x04	4
75	0xea	-22
76	0x29	41
77	0x18	24
78	0x7f	127
79	0x0f	15
80	0xfe	-2
81	0xc4	-60
82	0x10	16
83	0x11	17
84	0xe2	-30
85	0xdd	-35
86	0xda	-38
87	0xca	-54
88	0x03	3
89	0x25	37
90	0x34	52
91	0xd4	-44
92	0x62	98
93	0xfd	-3
94	0x1a	26
95	0xdc	-36
96	0xc3	-61
97	0x04	4
98	0xfd	-3
99	0x03	3
100	0x81	-127
101	0xeb	-21
102	0x36	54
103	0xdd	-35
104	0xf9	-7
105	0xe4	-28
106	0x06	6
107	0xf7	-9
108	0x4f	79
109	0xe9	-23
110	0xd9	-39
111	0x02	2
112	0x1f	31
113	0xdf	-33
114	0x69	105
115	0xf9	-7
116	0xf8	-8
117	0xde	-34
118	0xdb	-37
119	0x07	7
120	0x3a	58
121	0xbb	-69
122	0xe7	-25
123	0xb7	-73
124	0x0f	15
125	0xe7	-25
126	0x27	39
127	0x15	21
128	0x39	57
129	0x5d	93
130	0xb9	-71
131	0x7f	127
132	0x40	64
133	0x2f	47
134	0x97	-105
135	0x18	24
136	0xe0	-32
137	0x8e	-114
138	0xd9	-39
139	0xe6	-26
140	0x17	23
141	0x31	49
142	0x72	114
143	0x15	21
144	0x86	-122
145	0xea	-22
146	0xee	-18
147	0x2c	44
148	0xed	-19
149	0xf4	-12
150	0x2e	46
151	0x01	1
152	0x17	23
153	0x26	38
154	0x3d	61
155	0x20	32
156	0xc1	-63
157	0xea	-22
158	0xfd	-3
159	0x15	21
160	0x26	38
161	0x21	33
162	0x14	20
163	0xec	-20
164	0xed	-19
165	0xd0	-48
166	0x0a	10
167	0x4a	74
168	0x21	33
169	0x18	24
170	0x1b	27
171	0xe8	-24
172	0x06	6
173	0x7f	127
174	0x2a	42
175	0xdf	-33
176	0x12	18
177	0x16	22
178	0x2b	43
179	0xcf	-49
180	0xc5	-59
181	0x11	17
182	0x30	48
183	0xff	-1
184	0x1b	27
185	0xe6	-26
186	0xee	-18
187	0x12	18
188	0xd5	-43
189	0xb3	-77
190	0xb2	-78
191	0xfe	-2
192	0xdd	-35
193	0x2a	42
194	0xe7	-25
195	0xf1	-15
196	0xd7	-41
197	0x14	20
198	0x0c	12
199	0x39	57
200	0xfb	-5
201	0xd6	-42
202	0xfd	-3
203	0xf7	-9
204	0x23	35
205	0x18	24
206	0x21	33
207	0xef	-17
208	0xcc	-52
209	0xe5	-27
210	0xed	-19
211	0x0f	15
212	0x0d	13
213	0xe9	-23
214	0x0b	11
215	0xe6	-26
216	0x7f	127
217	0x19	25
218	0x10	16
219	0xe6	-26
220	0xe4	-28
221	0xe7	-25
222	0x0b	11
223	0x2c	44
224	0xff	-1
225	0x2c	44
226	0x04	4
227	0x73	115
228	0x24	36
229	0x15	21
230	0x19	25
231	0x25	37
232	0xfc	-4
233	0xfb	-5
234	0x3b	59
235	0x02	2
236	0x20	32
237	0xeb	-21
238	0xcb	-53
239	0xeb	-21
240	0x23	35
241	0xfd	-3
242	0x07	7
243	0xee	-18
244	0xce	-50
245	0xdd	-35
246	0x42	66
247	0x7f	127
248	0x01	1
249	0xd1	-47
250	0xd8	-40
251	0x1b	27
252	0xd9	-39
253	0x13	19
254	0x29	41
255	0x2b	43

model_1/stream_15/conv2d_32/Conv2D i1 [24, 5, 1, 24]
0	0x17	23
1	0x81	-127
2	0xe7	-25
3	0x3d	61
4	0xa0	-96
5	0x4c	76
6	0xae	-82
7	0xea	-22
8	0x43	67
9	0x05	5
10	0x98	-104
11	0xe2	-30
12	0xb2	-78
13	0x0b	11
14	0xc2	-62
15	0xb3	-77
16	0x3d	61
17	0xd8	-40
18	0x10	16
19	0xc6	-58
20	0xd0	-48
21	0xbe	-66
22	0x48	72
23	0x37	55
24	0x2f	47
25	0xd7	-41
26	0x40	64
27	0x63	99
28	0xcd	-51
29	0x1f	31
30	0xe6	-26
31	0x10	16
32	0xfd	-3
33	0xee	-18
34	0x0b	11
35	0x1b	27
36	0xab	-85
37	0xca	-54
38	0xa1	-95
39	0xbe	-66
40	0x48	72
41	0xe7	-25
42	0xfa	-6
43	0xe0	-32
44	0x00	0
45	0xbd	-67
46	0x2a	42
47	0x20	32
48	0x1b	27
49	0xf8	-8
50	0x5e	94
51	0x39	57
52	0xf0	-16
53	0xd9	-39
54	0x25	37
55	0x23	35
56	0xdd	-35
57	0x0d	13
58	0x01	1
59	0x25	37
60	0xdf	-33
61	0x94	-108
62	0xb8	-72
63	0xfe	-2
64	0x12	18
65	0xff	-1
66	0xea	-22
67	0x01	1
68	0x17	23
69	0xd3	-45
70	0xff	-1
71	0xeb	-21
72	0x15	21
73	0xe1	-31
74	0x68	104
75	0xf5	-11
76	0x0e	14
77	0xbe	-66
78	0x41	65
79	0x2e	46
80	0xd1	-47
81	0x28	40
82	0xf2	-14
83	0x2a	42
84	0x04	4
85	0xd6	-42
86	0xd5	-43
87	0x0d	13
88	0x18	24
89	0x10	16
90	0xf6	-10
91	0x3c	60
92	0x09	9
93	0xe8	-24
94	0xea	-22
95	0xe4	-28
96	0x0f	15
97	0xe8	-24
98	0x4f	79
99	0xd5	-43
100	0x27	39
101	0xc9	-55
102	0x33	51
103	0x26	38
104	0xe1	-31
105	0x1f	31
106	0xc9	-55
107	0x46	70
108	0xe1	-31
109	0xe0	-32
110	0xe4	-28
111	0x07	7
112	0x04	4
113	0xde	-34
114	0x0c	12
115	0x35	53
116	0x01	1
117	0xf7	-9
118	0xda	-38
119	0xfd	-3
120	0xf7	-9
121	0xda	-38
122	0xf9	-7
123	0x12	18
124	0x0b	11
125	0x71	113
126	0x14	20
127	0xdf	-33
128	0x23	35
129	0xf0	-16
130	0x20	32
131	0xc2	-62
132	0x05	5
133	0x81	-127
134	0x31	49
135	0xeb	-21
136	0xdc	-36
137	0x24	36
138	0xc0	-64
139	0x85	-123
140	0xfc	-4
141	0x64	100
142	0xc9	-55
143	0x68	104
144	0xe4	-28
145	0xe6	-26
146	0x09	9
147	0x01	1
148	0x0f	15
149	0x33	51
150	0x1b	27
151	0x1d	29
152	0x12	18
153	0xfe	-2
154	0xd3	-45
155	0xee	-18
156	0xfc	-4
157	0xbb	-69
158	0x1e	30
159	0x03	3
160	0xf2	-14
161	0x11	17
162	0xff	-1
163	0xd3	-45
164	0xf6	-10
165	0x3f	63
166	0xc9	-55
167	0x51	81
168	0xce	-50
169	0xf9	-7
170	0xef	-17
171	0xd4	-44
172	0xec	-20
173	0x0c	12
174	0x26	38
175	0x29	41
176	0x25	37
177	0xf7	-9
178	0xda	-38
179	0xfe	-2
180	0x08	8
181	0xfb	-5
182	0x17	23
183	0xff	-1
184	0xfb	-5
185	0x01	1
186	0x3a	58
187	0xfa	-6
188	0xe9	-23
189	0x1b	27
190	0xdf	-33
191	0x42	66
192	0xb9	-71
193	0x25	37
194	0xc8	-56
195	0xe4	-28
196	0xe5	-27
197	0x24	36
198	0x1b	27
199	0xef	-17
200	0x29	41
201	0x17	23
202	0xdf	-33
203	0x00	0
204	0x25	37
205	0x1f	31
206	0x21	33
207	0x0f	15
208	0xf0	-16
209	0x0e	14
210	0x21	33
211	0xf0	-16
212	0xe6	-26
213	0x1b	27
214	0xf4	-12
215	0x41	65
216	0xae	-82
217	0x18	24
218	0xbb	-69
219	0xcb	-53
220	0xdc	-36
221	0x2a	42
222	0x00	0
223	0xe4	-28
224	0x25	37
225	0x0d	13
226	0xc5	-59
227	0xed	-19
228	0x20	32
229	0xfa	-6
230	0x25	37
231	0x0c	12
232	0xf8	-8
233	0x0b	11
234	0x1a	26
235	0x01	1
236	0xf4	-12
237	0x38	56
238	0xfc	-4
239	0x59	89
240	0xed	-19
241	0x4c	76
242	0x2e	46
243	0x08	8
244	0x21	33
245	0xd7	-41
246	0x0c	12
247	0x3a	58
248	0x09	9
249	0x04	4
250	0x3d	61
251	0x37	55
252	0x0a	10
253	0x11	17
254	0xb7	-73
255	0xff	-1

model_1/conv2d_31/Conv2D i1 [24, 1, 1, 32]
0	0xba	-70
1	0x02	2
2	0xd1	-47
3	0x45	69
4	0x33	51
5	0x25	37
6	0xf0	-16
7	0xf5	-11
8	0xd7	-41
9	0x21	33
10	0xbc	-68
11	0x7f	127
12	0xc9	-55
13	0xaa	-86
14	0xae	-82
15	0x52	82
16	0x00	0
17	0x1e	30
18	0xd9	-39
19	0xdf	-33
20	0x42	66
21	0x12	18
22	0x04	4
23	0xc2	-62
24	0xee	-18
25	0x72	114
26	0x35	53
27	0xfa	-6
28	0x10	16
29	0x78	120
30	0xce	-50
31	0xbe	-66
32	0x1c	28
33	0x29	41
34	0xbc	-68
35	0x00	0
36	0x0f	15
37	0x28	40
38	0xf3	-13
39	0xc9	-55
40	0x0b	11
41	0x4c	76
42	0x36	54
43	0x7f	127
44	0x02	2
45	0x2f	47
46	0xd3	-45
47	0x05	5
48	0x39	57
49	0xe0	-32
50	0xea	-22
51	0x0f	15
52	0x06	6
53	0x1b	27
54	0x16	22
55	0x1c	28
56	0xe5	-27
57	0x02	2
58	0xb4	-76
59	0xcd	-51
60	0xc1	-63
61	0xcb	-53
62	0x78	120
63	0xf7	-9
64	0x29	41
65	0xf4	-12
66	0x27	39
67	0x07	7
68	0x7f	127
69	0x08	8
70	0xd0	-48
71	0xec	-20
72	0xc1	-63
73	0x20	32
74	0x34	52
75	0x0b	11
76	0x29	41
77	0x82	-126
78	0x15	21
79	0x0b	11
80	0x02	2
81	0xf1	-15
82	0xfb	-5
83	0xf8	-8
84	0x1c	28
85	0xf7	-9
86	0x44	68
87	0xf3	-13
88	0x00	0
89	0xf5	-11
90	0x19	25
91	0x11	17
92	0xf3	-13
93	0x28	40
94	0xe6	-26
95	0xb1	-79
96	0xff	-1
97	0x32	50
98	0x06	6
99	0x03	3
100	0x47	71
101	0xe3	-29
102	0xb0	-80
103	0xdc	-36
104	0xe5	-27
105	0x22	34
106	0xf4	-12
107	0x08	8
108	0x0e	14
109	0x99	-103
110	0xd1	-47
111	0x18	24
112	0x06	6
113	0xf1	-15
114	0xe0	-32
115	0x3b	59
116	0x7f	127
117	0x0e	14
118	0xcf	-49
119	0xf1	-15
120	0x8c	-116
121	0x2e	46
122	0x30	48
123	0x3a	58
124	0xf2	-14
125	0x3f	63
126	0xef	-17
127	0xf9	-7
128	0xe7	-25
129	0xa6	-90
130	0xf0	-16
131	0x94	-108
132	0xf5	-11
133	0x25	37
134	0xe7	-25
135	0xe4	-28
136	0xa5	-91
137	0x43	67
138	0x5b	91
139	0x21	33
140	0x25	37
141	0x12	18
142	0x24	36
143	0xf3	-13
144	0x7f	127
145	0xf0	-16
146	0xaf	-81
147	0xae	-82
148	0xd4	-44
149	0x54	84
150	0xc6	-58
151	0x05	5
152	0x00	0
153	0xcd	-51
154	0xce	-50
155	0xcf	-49
156	0x31	49
157	0x40	64
158	0x4a	74
159	0x97	-105
160	0xda	-38
161	0x10	16
162	0x09	9
163	0xef	-17
164	0x06	6
165	0xcc	-52
166	0x0a	10
167	0xf6	-10
168	0xbf	-65
169	0xd3	-45
170	0xe4	-28
171	0xb0	-80
172	0x53	83
173	0xe6	-26
174	0xbd	-67
175	0xb3	-77
176	0x09	9
177	0xdc	-36
178	0x27	39
179	0x35	53
180	0x34	52
181	0x9c	-100
182	0x81	-127
183	0x2b	43
184	0xbe	-66
185	0xf8	-8
186	0x52	82
187	0x4a	74
188	0x0c	12
189	0xd2	-46
190	0x00	0
191	0x18	24
192	0xf2	-14
193	0xf2	-14
194	0x55	85
195	0x1f	31
196	0xf9	-7
197	0x3e	62
198	0x56	86
199	0xd3	-45
200	0x55	85
201	0xde	-34
202	0x62	98
203	0x32	50
204	0x32	50
205	0xbc	-68
206	0x38	56
207	0xde	-34
208	0x81	-127
209	0x18	24
210	0xf6	-10
211	0xd9	-39
212	0x9e	-98
213	0xbf	-65
214	0x75	117
215	0xd1	-47
216	0x60	96
217	0x29	41
218	0x38	56
219	0xce	-50
220	0x5d	93
221	0xd6	-42
222	0x59	89
223	0x34	52
224	0x2e	46
225	0x2a	42
226	0xb0	-80
227	0xc6	-58
228	0x1a	26
229	0xbe	-66
230	0xe8	-24
231	0xd2	-46
232	0x4e	78
233	0x3f	63
234	0x56	86
235	0xc4	-60
236	0x19	25
237	0x81	-127
238	0xfa	-6
239	0xa5	-91
240	0xbe	-66
241	0x25	37
242	0xec	-20
243	0xf4	-12
244	0xe2	-30
245	0xdf	-33
246	0x3a	58
247	0xcc	-52
248	0x26	38
249	0xbc	-68
250	0xa1	-95
251	0xe7	-25
252	0x3c	60
253	0xf6	-10
254	0x14	20
255	0x15	21

model_1/conv2d_30/Conv2D i1 [24, 1, 1, 32]
0	0xdc	-36
1	0x56	86
2	0xd6	-42
3	0x24	36
4	0xfd	-3
5	0xc5	-59
6	0x69	105
7	0xa9	-87
8	0xfd	-3
9	0x51	81
10	0x12	18
11	0xc7	-57
12	0x24	36
13	0x0e	14
14	0x8a	-118
15	0xaa	-86
16	0xa2	-94
17	0xa3	-93
18	0x7f	127
19	0x54	84
20	0x2c	44
21	0x83	-125
22	0xf9	-7
23	0xd9	-39
24	0x8c	-116
25	0x96	-106
26	0x11	17
27	0xde	-34
28	0x1d	29
29	0xfa	-6
30	0x4c	76
31	0x7d	125
32	0x06	6
33	0xd4	-44
34	0x5d	93
35	0xec	-20
36	0x9e	-98
37	0xac	-84
38	0x1c	28
39	0x39	57
40	0x1e	30
41	0xe8	-24
42	0xf7	-9
43	0xb9	-71
44	0x45	69
45	0x44	68
46	0x54	84
47	0x08	8
48	0xe2	-30
49	0x32	50
50	0x1f	31
51	0xbf	-65
52	0x03	3
53	0xf4	-12
54	0xc5	-59
55	0xcc	-52
56	0x23	35
57	0x40	64
58	0x35	53
59	0xfc	-4
60	0xdf	-33
61	0x81	-127
62	0xc5	-59
63	0xcd	-51
64	0xc1	-63
65	0x02	2
66	0xda	-38
67	0x0d	13
68	0x31	49
69	0x2d	45
70	0xe8	-24
71	0x3a	58
72	0xff	-1
73	0x22	34
74	0xfa	-6
75	0x20	32
76	0x0a	10
77	0x7f	127
78	0x17	23
79	0xfa	-6
80	0xf6	-10
81	0xa1	-95
82	0x00	0
83	0xe8	-24
84	0xe7	-25
85	0x25	37
86	0x03	3
87	0x02	2
88	0xea	-22
89	0x26	38
90	0xb9	-71
91	0x31	49
92	0xf7	-9
93	0xe1	-31
94	0xc2	-62
95	0x94	-108
96	0xfc	-4
97	0x08	8
98	0xce	-50
99	0xc3	-61
100	0xe7	-25
101	0x14	20
102	0x35	53
103	0x46	70
104	0x4a	74
105	0xe1	-31
106	0xcb	-53
107	0x44	68
108	0xf3	-13
109	0xe2	-30
110	0xf5	-11
111	0x08	8
112	0x05	5
113	0xe2	-30
114	0x0e	14
115	0xea	-22
116	0xfd	-3
117	0x7f	127
118	0xd0	-48
119	0x41	65
120	0x0d	13
121	0xef	-17
122	0xc0	-64
123	0x0b	11
124	0xfc	-4
125	0xec	-20
126	0xf6	-10
127	0xe7	-25
128	0x2a	42
129	0x7f	127
130	0xd5	-43
131	0xf2	-14
132	0x05	5
133	0xfa	-6
134	0xd8	-40
135	0x18	24
136	0x53	83
137	0xe4	-28
138	0xfd	-3
139	0x2f	47
140	0xe7	-25
141	0xf9	-7
142	0x0e	14
143	0x17	23
144	0xe1	-31
145	0x0b	11
146	0xd9	-39
147	0x0a	10
148	0xd2	-46
149	0x01	1
150	0xf3	-13
151	0x1f	31
152	0x06	6
153	0xea	-22
154	0xea	-22
155	0x0d	13
156	0xe9	-23
157	0x12	18
158	0x00	0
159	0x23	35
160	0x18	24
161	0xba	-70
162	0x25	37
163	0xe0	-32
164	0xda	-38
165	0xb1	-79
166	0x5e	94
167	0xab	-85
168	0xcb	-53
169	0x3c	60
170	0x1a	26
171	0xcb	-53
172	0x19	25
173	0xf9	-7
174	0xbe	-66
175	0x16	22
176	0xd7	-41
177	0xf1	-15
178	0x66	102
179	0xf1	-15
180	0x1f	31
181	0x81	-127
182	0x2f	47
183	0xd5	-43
184	0xff	-1
185	0xfe	-2
186	0xed	-19
187	0xe3	-29
188	0xdd	-35
189	0xed	-19
190	0xd2	-46
191	0x23	35
192	0xb4	-76
193	0x13	19
194	0xcd	-51
195	0x33	51
196	0xf7	-9
197	0x29	41
198	0xdf	-33
199	0x0e	14
200	0xfc	-4
201	0xc2	-62
202	0x30	48
203	0xed	-19
204	0x06	6
205	0x50	80
206	0x7f	127
207	0x04	4
208	0xaa	-86
209	0x18	24
210	0xfa	-6
211	0x0a	10
212	0xc2	-62
213	0xec	-20
214	0xf9	-7
215	0xfd	-3
216	0x1d	29
217	0x23	35
218	0xf6	-10
219	0xf2	-14
220	0xf8	-8
221	0xda	-38
222	0x2d	45
223	0xfc	-4
224	0xdc	-36
225	0x0f	15
226	0xd9	-39
227	0x3e	62
228	0xef	-17
229	0x28	40
230	0xfd	-3
231	0xe2	-30
232	0xbf	-65
233	0x0c	12
234	0x03	3
235	0x14	20
236	0xf0	-16
237	0x06	6
238	0x03	3
239	0x35	53
240	0xd2	-46
241	0x81	-127
242	0x4e	78
243	0x60	96
244	0x1f	31
245	0xc4	-60
246	0x13	19
247	0x32	50
248	0xcb	-53
249	0x4e	78
250	0x2a	42
251	0x31	49
252	0xda	-38
253	0xd2	-46
254	0x10	16
255	0x22	34
