models/hey_jarvis.tflite (tflite, 76960 bytes, 34 tensors)

model/dense/MatMul i1 [1, 70] scale=0.0049815266 zero_point=0
0.57287556 -0.5479679 -0.49317113 0.5878202 -0.45331892 -0.43837434 0.57287556 -0.463282
0.5629125 0.5828386 -0.52804184 -0.44335586 0.5629125 0.6326539 -0.5828386 0.5928017
-0.4284113 -0.57287556 -0.5130972 0.5928017 -0.4682635 -0.4832081 -0.5529494 -0.4832081
0.60774624 -0.5230603 -0.5031342 0.5828386 0.5977832 -0.6027647 0.6177093 -0.463282
0.62269086 0.56789404 -0.5878202 -0.5529494 -0.49317113 -0.5629125 0.52804184 0.5529494
0.5629125 0.5778571 0.53302336 -0.52804184 -0.51807874 -0.6027647 -0.5429864 -0.47324502
0.51807874 0.5828386 -0.52804184 -0.5828386 0.5828386 0.5828386 -0.5928017 -0.52804184
-0.6326539 -0.5479679 -0.57287556 -0.39852214 -0.5230603 -0.5031342 -0.53302336 -0.5529494
0.5429864 -0.56789404 -0.53302336 -0.5479679 0.5529494 0.5081157
00000000: 7392 9d76 a5a8 73a3 7175 96a7 717f 8b77
00000010: aa8d 9977 a29f 919f 7a97 9b75 7887 7ca3
00000020: 7d72 8a91 9d8f 6a6f 7174 6b96 9887 93a1
00000030: 6875 968b 7575 8996 8192 8db0 979b 9591
00000040: 6d8e 9592 6f66

model/conv2d_21/Conv2D i1 [70, 1, 1, 48]
-7 -3 48 34 -18 -31 19 0
-29 -9 -2 31 14 40 -42 -16
15 -13 25 17 10 32 -6 23
42 3 -23 24 26 -43 36 -34
-85 2 65 -13 32 7 72 47
38 56 -15 127 16 -17 49 -23
-3 13 -23 -32 -64 49 22 -69
8 -82 -37 -92 -39 13 89 115
54 20 -126 -3 76 22 -16 55
-20 35 74 -70 -20 18 -60 37
77 56 -13 83 22 72 -28 27
-58 -12 127 4 85 54 -127 44
1 73 -62 7 -49 35 35 -27
37 -100 -27 -7 -36 12 54 71
45 -13 -108 4 30 11 -21 51
-6 75 45 -84 43 12 -51 28
108 66 8 59 21 76 -6 12
-109 -21 127 -56 29 80 -124 8
-12 -34 21 -56 23 -53 0 38
-49 12 12 -18 36 40 -41 -2
-14 -13 11 49 11 25 40 4
9 -23 -58 16 67 -35 8 -47
-94 -5 87 5 64 -36 58 72
4 66 10 127 -2 -13 103 -19
19 60 -1 29 -99 6 79 -15
1 -50 -40 -55 -2 -18 -32 47
49 4 -100 -13 43 -21 3 87
3 55 -10 30 73 37 -18 15
42 97 21 74 -29 58 -16 -16
-21 -38 70 -56 67 61 -127 99
-7 66 -35 21 -101 12 59 25
18 -31 -37 -94 -49 18 56 48
00000000: f9fd 3022 eee1 1300 e3f7 fe1f 0e28 d6f0
00000010: 0ff3 1911 0a20 fa17 2a03 e918 1ad5 24de
00000020: ab02 41f3 2007 482f 2638 f17f 10ef 31e9
00000030: fd0d e9e0 c031 16bb 08ae dba4 d90d 5973
00000040: 3614 82fd 4c16 f037 ec23 4aba ec12 c425
00000050: 4d38 f353 1648 e41b c6f4 7f04 5536 812c
00000060: 0149 c207 cf23 23e5 259c e5f9 dc0c 3647
00000070: 2df3 9404 1e0b eb33 fa4b 2dac 2b0c cd1c
00000080: 6c42 083b 154c fa0c 93eb 7fc8 1d50 8408
00000090: f4de 15c8 17cb 0026 cf0c 0cee 2428 d7fe
000000a0: f2f3 0b31 0b19 2804 09e9 c610 43dd 08d1
000000b0: a2fb 5705 40dc 3a48 0442 0a7f fef3 67ed
000000c0: 133c ff1d 9d06 4ff1 01ce d8c9 feee e02f
000000d0: 3104 9cf3 2beb 0357 0337 f61e 4925 ee0f
000000e0: 2a61 154a e33a f0f0 ebda 46c8 433d 8163
000000f0: f942 dd15 9b0c 3b19 12e1 dba2 cf12 3830

model/stream_9/conv2d_20/Conv2D i1 [16, 5, 1, 16]
89 47 31 59 -76 -70 57 -17
13 -127 49 50 11 53 23 -90
53 -28 -36 2 -70 -24 44 16
-35 2 29 -5 -46 -26 52 -78
0 -20 22 -8 -56 17 -25 -1
-67 27 30 2 26 -2 62 -30
23 -30 -2 36 27 -1 7 -11
8 -17 -69 -41 20 -53 51 -40
94 -45 25 18 46 -7 61 2
37 15 -102 -61 -73 -82 97 -50
0 75 43 30 6 6 -55 -14
-23 -63 -86 -49 -117 68 -127 -4
-17 -39 45 -3 -13 5 -36 8
3 -19 -41 31 -27 10 -66 -28
14 -14 21 -16 -23 22 -46 -21
-53 -57 -4 -11 -34 -17 -61 23
-30 -18 -2 8 -20 25 -5 -55
-71 -33 16 0 -21 -44 -53 -8
-20 20 13 -18 -49 -13 18 -30
-84 -46 62 -2 33 -39 -99 11
-35 -69 -84 -44 63 15 -36 -9
75 98 -127 -42 19 -8 11 92
14 -79 -11 37 2 -41 0 -1
65 39 -75 -53 -6 -36 -16 -9
-15 -63 -13 41 -3 -41 -41 0
6 -9 -19 -50 30 -28 22 7
46 13 -48 32 56 36 -37 -24
23 1 -34 18 -8 -16 13 6
47 10 -28 60 33 47 -31 33
34 11 -24 72 22 12 100 -80
48 55 34 55 24 44 -59 -33
-55 -25 -46 -32 -127 53 -42 -10
00000000: 592f 1f3b b4ba 39ef 0d81 3132 0b35 17a6
00000010: 35e4 dc02 bae8 2c10 dd02 1dfb d2e6 34b2
00000020: 00ec 16f8 c811 e7ff bd1b 1e02 1afe 3ee2
00000030: 17e2 fe24 1bff 07f5 08ef bbd7 14cb 33d8
00000040: 5ed3 1912 2ef9 3d02 250f 9ac3 b7ae 61ce
00000050: 004b 2b1e 0606 c9f2 e9c1 aacf 8b44 81fc
00000060: efd9 2dfd f305 dc08 03ed d71f e50a bee4
00000070: 0ef2 15f0 e916 d2eb cbc7 fcf5 deef c317
00000080: e2ee fe08 ec19 fbc9 b9df 1000 ebd4 cbf8
00000090: ec14 0dee cff3 12e2 acd2 3efe 21d9 9d0b
000000a0: ddbb acd4 3f0f dcf7 4b62 81d6 13f8 0b5c
000000b0: 0eb1 f525 02d7 00ff 4127 b5cb fadc f0f7
000000c0: f1c1 f329 fdd7 d700 06f7 edce 1ee4 1607
000000d0: 2e0d d020 3824 dbe8 1701 de12 f8f0 0d06
000000e0: 2f0a e43c 212f e121 220b e848 160c 64b0
000000f0: 3037 2237 182c c5df c9e7 d2e0 8135 d6f6

model/stream_8/conv2d_19/Conv2D i1 [16, 5, 1, 16]
69 -21 55 -93 -87 -15 -6 22
34 -85 -16 -6 55 0 47 -19
4 7 -18 -18 -40 16 -35 -28
8 -22 17 -27 -12 26 -18 13
2 -2 7 3 -8 25 -54 -32
11 43 -18 7 1 -2 -6 -1
27 -2 -14 -12 53 25 -34 24
-2 6 -89 25 -22 40 23 -43
25 -38 36 5 5 53 -17 39
-46 1 -127 19 -18 81 -28 -52
123 24 67 -40 53 13 -56 41
-20 -33 -15 -4 37 15 127 -86
30 -38 -5 9 44 14 -2 -2
-19 35 -2 -26 12 -7 32 1
24 1 33 -46 10 20 39 -49
-23 13 0 12 19 -32 -48 -8
-18 2 -42 1 14 11 -13 -42
12 -8 -20 -3 6 -8 -28 -5
-39 34 -36 31 -9 -23 -29 -42
51 -16 51 1 10 7 -22 -17
75 -36 34 -45 -47 26 18 71
-33 -101 43 1 86 -8 127 -23
25 18 -21 -41 -39 3 -2 -22
7 -36 14 12 39 -11 39 15
-3 5 22 -34 35 22 41 26
9 -32 -25 26 26 -9 -8 -18
3 36 0 -5 50 27 -4 6
-10 -8 6 -8 26 3 10 -12
-39 13 -48 -3 8 46 -73 0
-30 -13 -35 54 -51 57 -47 19
89 -16 -10 -63 28 -60 -117 22
30 17 -7 -105 66 -77 83 15
00000000: 45eb 37a3 a9f1 fa16 22ab f0fa 3700 2fed
00000010: 0407 eeee d810 dde4 08ea 11e5 f41a ee0d
00000020: 02fe 0703 f819 cae0 0b2b ee07 01fe faff
00000030: 1bfe f2f4 3519 de18 fe06 a719 ea28 17d5
00000040: 19da 2405 0535 ef27 d201 8113 ee51 e4cc
00000050: 7b18 43d8 350d c829 ecdf f1fc 250f 7faa
00000060: 1eda fb09 2c0e fefe ed23 fee6 0cf9 2001
00000070: 1801 21d2 0a14 27cf e90d 000c 13e0 d0f8
00000080: ee02 d601 0e0b f3d6 0cf8 ecfd 06f8 e4fb
00000090: d922 dc1f f7e9 e3d6 33f0 3301 0a07 eaef
000000a0: 4bdc 22d3 d11a 1247 df9b 2b01 56f8 7fe9
000000b0: 1912 ebd7 d903 feea 07dc 0e0c 27f5 270f
000000c0: fd05 16de 2316 291a 09e0 e71a 1af7 f8ee
000000d0: 0324 00fb 321b fc06 f6f8 06f8 1a03 0af4
000000e0: d90d d0fd 082e b700 e2f3 dd36 cd39 d113
000000f0: 59f0 f6c1 1cc4 8b16 1e11 f997 42b3 530f

model/conv2d_18/Conv2D i1 [16, 1, 1, 64]
-26 -14 68 60 116 66 27 0
-89 30 41 14 -16 69 -42 50
29 -82 95 -1 29 -55 -24 -68
-17 -10 -68 26 -57 -64 -3 84
-106 -38 -43 -10 -45 -115 14 29
2 -13 -9 -30 -21 58 16 24
-50 -127 75 12 63 20 -8 10
31 -83 -6 11 64 52 -105 -37
42 -1 -57 -74 -82 -102 -66 -43
-107 -75 16 17 -42 26 -10 39
108 11 11 65 87 58 18 -50
16 106 -110 82 -127 -78 -25 -45
33 78 16 20 -21 -10 -49 -27
-74 -74 -12 3 -12 -76 0 27
-89 -90 33 -110 -87 -106 21 -38
6 -64 -89 20 -15 -12 79 50
31 -61 -24 -22 6 71 19 85
0 60 -9 -8 -39 80 21 -67
-35 -72 44 67 20 -28 -62 -1
48 19 2 33 -89 -35 -69 49
78 -29 -61 -33 13 -10 46 -52
-30 31 -4 33 -37 51 24 25
-37 -51 54 -127 88 87 1 -108
127 56 82 28 -36 39 3 -13
61 39 23 -63 -45 -49 -21 -19
-30 -10 48 29 -63 60 -45 37
30 82 -36 70 -18 -16 23 -46
64 15 51 8 -23 -64 83 15
69 -19 -7 43 -12 29 -8 -55
-50 18 9 -5 3 83 -55 38
-10 -34 -10 77 49 15 -52 58
-23 54 40 127 -4 -55 39 79
00000000: e6f2 443c 7442 1b00 a71e 290e f045 d632
00000010: 1dae 5fff 1dc9 e8bc eff6 bc1a c7c0 fd54
00000020: 96da d5f6 d38d 0e1d 02f3 f7e2 eb3a 1018
00000030: ce81 4b0c 3f14 f80a 1fad fa0b 4034 97db
00000040: 2aff c7b6 ae9a bed5 95b5 1011 d61a f627
00000050: 6c0b 0b41 573a 12ce 106a 9252 81b2 e7d3
00000060: 214e 1014 ebf6 cfe5 b6b6 f403 f4b4 001b
00000070: a7a6 2192 a996 15da 06c0 a714 f1f4 4f32
00000080: 1fc3 e8ea 0647 1355 003c f7f8 d950 15bd
00000090: ddb8 2c43 14e4 c2ff 3013 0221 a7dd bb31
000000a0: 4ee3 c3df 0df6 2ecc e21f fc21 db33 1819
000000b0: dbcd 3681 5857 0194 7f38 521c dc27 03f3
000000c0: 3d27 17c1 d3cf ebed e2f6 301d c13c d325
000000d0: 1e52 dc46 eef0 17d2 400f 3308 e9c0 530f
000000e0: 45ed f92b f41d f8c9 ce12 09fb 0353 c926
000000f0: f6de f64d 310f cc3a e936 287f fcc9 274f

model/stream_7/conv2d_17/Conv2D i1 [16, 5, 1, 16]
-59 97 117 -31 79 -59 -47 53
75 -22 -49 -19 -8 -38 -17 -15
11 43 111 25 38 -43 -80 6
33 54 -39 10 54 37 -17 -10
37 36 60 11 35 -37 -20 -46
32 -27 36 2 4 78 78 -2
-21 56 59 57 26 -44 -70 -89
45 1 -8 54 -44 -10 -19 -7
-59 -19 64 -6 61 -9 -81 -54
-33 -46 58 76 -97 -82 -127 72
31 -12 -13 11 19 -33 -29 -12
-26 -25 14 16 -14 13 -9 8
2 -11 11 -8 9 -22 -99 -11
-18 -43 -5 -16 -71 30 -33 14
-21 -6 -5 -8 21 -6 -85 -32
-4 -25 -19 0 -53 21 -15 3
-23 -23 16 -38 9 4 -122 -2
-20 -10 -24 8 -54 15 -21 8
-17 5 8 -15 3 -19 -127 -23
-40 6 28 -25 -44 15 -30 -1
-100 13 -43 17 -61 67 -50 25
-21 3 -23 -12 -57 10 -21 19
-63 34 -33 13 -37 88 -12 73
22 25 -62 -48 -51 -12 -36 -14
-64 32 2 7 18 73 45 72
-57 -15 -64 -7 -56 -64 -46 50
0 -19 29 -3 17 34 9 54
-127 -25 -43 -21 -62 -74 26 50
-67 -41 0 5 26 -5 -57 -7
-94 -11 -15 -52 -82 -42 39 120
95 53 -88 -8 106 22 105 64
16 77 30 116 -32 16 46 -83
00000000: c561 75e1 4fc5 d135 4bea cfed f8da eff1
00000010: 0b2b 6f19 26d5 b006 2136 d90a 3625 eff6
00000020: 2524 3c0b 23db ecd2 20e5 2402 044e 4efe
00000030: eb38 3b39 1ad4 baa7 2d01 f836 d4f6 edf9
00000040: c5ed 40fa 3df7 afca dfd2 3a4c 9fae 8148
00000050: 1ff4 f30b 13df e3f4 e6e7 0e10 f20d f708
00000060: 02f5 0bf8 09ea 9df5 eed5 fbf0 b91e df0e
00000070: ebfa fbf8 15fa abe0 fce7 ed00 cb15 f103
00000080: e9e9 10da 0904 86fe ecf6 e808 ca0f eb08
00000090: ef05 08f1 03ed 81e9 d806 1ce7 d40f e2ff
000000a0: 9c0d d511 c343 ce19 eb03 e9f4 c70a eb13
000000b0: c122 df0d db58 f449 1619 c2d0 cdf4 dcf2
000000c0: c020 0207 1249 2d48 c7f1 c0f9 c8c0 d232
000000d0: 00ed 1dfd 1122 0936 81e7 d5eb c2b6 1a32
000000e0: bdd7 0005 1afb c7f9 a2f5 f1cc aed6 2778
000000f0: 5f35 a8f8 6a16 6940 104d 1e74 e010 2ead

model/conv2d_16/Conv2D i1 [16, 1, 1, 64]
-127 66 -42 -77 8 51 2 -63
71 -64 1 -116 -53 -15 35 29
-68 17 -53 64 46 55 -36 13
60 -110 37 -68 -12 -26 18 7
34 30 -66 -36 14 54 42 -59
-77 25 84 7 -18 46 46 -14
-2 52 3 8 59 31 47 -63
52 -18 -50 29 -44 -51 50 -40
45 -6 30 29 -39 -43 -20 64
12 -29 32 -9 -33 14 -88 -8
-14 -84 20 -60 127 55 23 -90
67 -91 -9 94 39 -15 -4 41
34 61 -13 -13 -82 -17 44 34
98 10 47 90 67 64 13 -55
-44 37 -72 -36 32 -14 10 13
-34 -71 -59 25 55 17 19 -54
-22 -45 3 93 55 56 -6 23
45 30 -60 9 -32 -70 -6 71
78 -74 36 -31 47 30 -23 16
24 -40 -14 75 -44 -15 -80 11
-10 17 -35 5 -73 37 51 93
127 -18 9 -8 -22 -29 -31 -3
-60 -8 -21 -29 -38 -26 -62 0
-4 -38 -99 -30 93 92 46 70
8 20 -61 42 -5 69 25 -20
-60 -10 -40 -74 55 -53 -63 -107
-35 -47 65 82 -5 52 17 -39
-56 23 -39 54 -13 -43 -24 -58
-12 -46 24 -22 -60 72 20 16
-15 -14 -36 19 3 13 5 -53
-32 -9 19 -21 12 15 -35 -127
-18 -17 -67 -83 -2 5 16 18
00000000: 8142 d6b3 0833 02c1 47c0 018c cbf1 231d
00000010: bc11 cb40 2e37 dc0d 3c92 25bc f4e6 1207
00000020: 221e bedc 0e36 2ac5 b319 5407 ee2e 2ef2
00000030: fe34 0308 3b1f 2fc1 34ee ce1d d4cd 32d8
00000040: 2dfa 1e1d d9d5 ec40 0ce3 20f7 df0e a8f8
00000050: f2ac 14c4 7f37 17a6 43a5 f75e 27f1 fc29
00000060: 223d f3f3 aeef 2c22 620a 2f5a 4340 0dc9
00000070: d425 b8dc 20f2 0a0d deb9 c519 3711 13ca
00000080: ead3 035d 3738 fa17 2d1e c409 e0ba fa47
00000090: 4eb6 24e1 2f1e e910 18d8 f24b d4f1 b00b
000000a0: f611 dd05 b725 335d 7fee 09f8 eae3 e1fd
000000b0: c4f8 ebe3 dae6 c200 fcda 9de2 5d5c 2e46
000000c0: 0814 c32a fb45 19ec c4f6 d8b6 37cb c195
000000d0: ddd1 4152 fb34 11d9 c817 d936 f3d5 e8c6
000000e0: f4d2 18ea c448 1410 f1f2 dc13 030d 05cb
000000f0: e0f7 13eb 0c0f dd81 eeef bdad fe05 1012

model/conv2d_15/Conv2D i1 [16, 1, 1, 64]
-11 70 -43 -46 16 12 74 45
1 13 97 42 -84 31 35 -55
20 55 8 86 63 -12 -37 56
50 1 16 -36 83 -3 -76 38
127 28 22 -30 47 -16 1 -29
-114 24 30 72 -53 5 40 -49
52 77 -32 26 64 -4 44 64
39 53 114 36 28 -37 15 2
-53 3 71 58 -53 -37 -76 3
44 -42 16 57 -30 -48 -40 -69
-4 4 -2 2 127 29 -22 36
-5 -20 -68 2 -45 50 -53 -35
-36 19 20 -30 -44 36 69 38
49 -39 -78 30 -49 -20 -37 72
-51 -46 -49 26 -12 6 -8 2
0 -6 -29 -3 104 -16 0 29
34 62 -76 -10 11 19 -14 -30
54 -49 45 -26 -127 -36 -61 -24
5 -49 3 5 -6 5 4 67
21 -50 -28 -62 -40 65 -31 46
29 17 -11 44 62 0 -24 -19
-24 6 59 -30 -43 46 16 -88
-100 -7 43 27 -5 5 -14 42
41 17 62 37 -21 -3 43 -76
-8 25 -15 -80 13 -38 -3 -20
-39 23 31 -45 19 -56 -119 54
34 40 7 46 -43 28 32 75
46 -2 30 34 -15 32 -40 26
13 7 -35 18 26 -102 -52 -109
-127 46 60 78 -92 -53 -5 -14
-24 22 -17 -7 47 -42 1 79
12 -35 -36 62 -9 -49 -32 30
00000000: f546 d5d2 100c 4a2d 010d 612a ac1f 23c9
00000010: 1437 0856 3ff4 db38 3201 10dc 53fd b426
00000020: 7f1c 16e2 2ff0 01e3 8e18 1e48 cb05 28cf
00000030: 344d e01a 40fc 2c40 2735 7224 1cdb 0f02
00000040: cb03 473a cbdb b403 2cd6 1039 e2d0 d8bb
00000050: fc04 fe02 7f1d ea24 fbec bc02 d332 cbdd
00000060: dc13 14e2 d424 4526 31d9 b21e cfec db48
00000070: cdd2 cf1a f406 f802 00fa e3fd 68f0 001d
00000080: 223e b4f6 0b13 f2e2 36cf 2de6 81dc c3e8
00000090: 05cf 0305 fa05 0443 15ce e4c2 d841 e12e
000000a0: 1d11 f52c 3e00 e8ed e806 3be2 d52e 10a8
000000b0: 9cf9 2b1b fb05 f22a 2911 3e25 ebfd 2bb4
000000c0: f819 f1b0 0dda fdec d917 1fd3 13c8 8936
000000d0: 2228 072e d51c 204b 2efe 1e22 f120 d81a
000000e0: 0d07 dd12 1a9a cc93 812e 3c4e a4cb fbf2
000000f0: e816 eff9 2fd6 014f 0cdd dc3e f7cf e01e

model/conv2d_14/Conv2D i1 [64, 1, 1, 48]
-15 42 -55 -3 -45 -72 22 -30
26 14 15 -33 3 7 -14 -23
18 -47 -49 1 -57 47 -38 -51
-95 13 3 -27 -13 38 4 -37
56 22 15 -34 127 14 -62 -42
-78 42 21 -6 -35 -43 42 63
109 -38 -17 48 40 99 -12 71
69 -2 65 -9 -24 -82 -20 36
59 127 20 34 51 93 -2 21
18 -15 50 -40 47 5 7 47
-67 60 49 -80 -61 -11 -86 40
-2 33 -76 -55 -22 66 -57 -3
-15 -90 73 -6 -6 -17 4 -73
85 38 50 -25 42 -44 -88 23
-40 -11 5 79 3 15 -17 7
21 99 -9 -9 -65 -34 -41 -45
91 -127 14 30 30 49 -14 -41
0 88 -72 -56 31 -61 -23 30
40 29 29 76 4 -4 92 -19
20 4 -105 39 -25 -40 -80 30
-29 -48 -116 -35 -22 29 -85 90
-13 -73 18 21 30 18 -86 18
61 58 42 -13 -127 -115 -1 -6
-65 63 29 -37 -66 -112 103 65
16 -15 7 63 -5 -33 -20 25
-55 -26 1 -23 -32 2 -35 -36
-85 20 37 -61 14 -27 14 -25
27 -19 -69 24 -15 -93 -64 -109
127 83 44 56 15 -81 -18 15
-7 1 -16 -58 -57 7 -36 43
14 -43 40 45 -12 -77 -38 0
37 25 84 -60 1 -31 56 -96
00000000: f12a c9fd d3b8 16e2 1a0e 0fdf 0307 f2e9
00000010: 12d1 cf01 c72f dacd a10d 03e5 f326 04db
00000020: 3816 0fde 7f0e c2d6 b22a 15fa ddd5 2a3f
00000030: 6dda ef30 2863 f447 45fe 41f7 e8ae ec24
00000040: 3b7f 1422 335d fe15 12f1 32d8 2f05 072f
00000050: bd3c 31b0 c3f5 aa28 fe21 b4c9 ea42 c7fd
00000060: f1a6 49fa faef 04b7 5526 32e7 2ad4 a817
00000070: d8f5 054f 030f ef07 1563 f7f7 bfde d7d3
00000080: 5b81 0e1e 1e31 f2d7 0058 b8c8 1fc3 e91e
00000090: 281d 1d4c 04fc 5ced 1404 9727 e7d8 b01e
000000a0: e3d0 8cdd ea1d ab5a f3b7 1215 1e12 aa12
000000b0: 3d3a 2af3 818d fffa bf3f 1ddb be90 6741
000000c0: 10f1 073f fbdf ec19 c9e6 01e9 e002 dddc
000000d0: ab14 25c3 0ee5 0ee7 1bed bb18 f1a3 c093
000000e0: 7f53 2c38 0faf ee0f f901 f0c6 c707 dc2b
000000f0: 0ed5 282d f4b3 da00 2519 54c4 01e1 38a0

model/stream_4/conv2d_10/Conv2D i1 [16, 5, 1, 16]
39 -21 -123 -91 -67 -49 -79 -75
-25 15 -59 25 -46 -64 43 -120
7 25 -106 -9 -71 -37 -6 -56
4 46 -16 4 -57 -17 -20 -28
40 1 -108 -50 -62 -30 -65 12
35 77 -70 -76 -16 -127 32 -116
5 -12 -126 -2 11 -106 -4 33
-2 28 -32 -56 -21 -17 -55 -16
-52 11 -82 -82 57 -111 -16 -43
-7 16 -67 -33 -9 -114 8 43
12 -101 64 -88 -3 0 -44 -14
-14 6 72 -59 -15 -41 -28 -21
37 -127 -27 -59 -26 31 -44 -18
-52 6 4 -52 -65 12 -51 -10
45 -57 -38 -11 -1 -7 -6 -18
-43 26 -37 -88 9 42 -5 45
-41 36 9 -23 -32 28 -10 18
0 26 -41 -30 37 1 -52 -9
-10 69 -2 11 -29 11 -20 -10
30 -47 -1 -96 -2 60 -43 35
-28 -26 -31 -36 -65 -28 69 -65
70 -120 -57 -21 -77 81 1 -5
-105 -71 -22 -17 28 2 -4 -29
59 -21 -40 -48 18 16 -45 -76
-53 -84 -4 -12 3 69 39 -55
2 15 3 -127 -59 77 -13 -60
-21 -46 -51 12 69 16 25 23
-40 50 4 -105 -40 -17 -43 -76
4 17 -108 22 -5 47 -62 11
-24 45 -21 -14 -65 -50 -26 9
-13 -44 -92 -7 49 -83 16 -109
78 -17 29 -26 -30 26 -33 7
00000000: 27eb 85a5 bdcf b1b5 e70f c519 d2c0 2b88
00000010: 0719 96f7 b9db fac8 042e f004 c7ef ece4
00000020: 2801 94ce c2e2 bf0c 234d bab4 f081 208c
00000030: 05f4 82fe 0b96 fc21 fe1c e0c8 ebef c9f0
00000040: cc0b aeae 3991 f0d5 f910 bddf f78e 082b
00000050: 0c9b 40a8 fd00 d4f2 f206 48c5 f1d7 e4eb
00000060: 2581 e5c5 e61f d4ee cc06 04cc bf0c cdf6
00000070: 2dc7 daf5 fff9 faee d51a dba8 092a fb2d
00000080: d724 09e9 e01c f612 001a d7e2 2501 ccf7
00000090: f645 fe0b e30b ecf6 1ed1 ffa0 fe3c d523
000000a0: e4e6 e1dc bfe4 45bf 4688 c7eb b351 01fb
000000b0: 97b9 eaef 1c02 fce3 3beb d8d0 1210 d3b4
000000c0: cbac fcf4 0345 27c9 020f 0381 c54d f3c4
000000d0: ebd2 cd0c 4510 1917 d832 0497 d8ef d5b4
000000e0: 0411 9416 fb2f c20b e82d ebf2 bfce e609
000000f0: f3d4 a4f9 31ad 1093 4eef 1de6 e21a df07

model/conv2d_9/Conv2D i1 [16, 1, 1, 32]
-10 -9 34 -78 12 85 -38 -4
127 -85 51 -64 -103 -126 -52 -59
28 -47 63 -24 67 39 83 25
-43 -36 46 -17 -13 25 11 4
-50 39 12 -106 24 -115 -27 -24
-15 39 -62 -50 -78 -11 94 -13
-40 31 -103 20 -127 8 69 32
84 63 107 71 9 -20 96 39
-117 25 -27 -9 40 85 -19 1
47 127 92 99 -35 -38 29 -17
-44 -15 -4 -1 -93 -38 -47 29
-26 59 -69 -21 -3 -75 -48 24
53 27 56 -9 -19 -43 -86 -3
65 -44 -7 -31 -34 26 -72 -40
-29 -33 -81 68 -57 -69 -58 113
-66 16 21 102 100 -46 127 -30
-7 -94 -127 74 -4 39 90 83
-75 16 13 -4 31 13 28 -62
-114 65 22 -14 -53 -117 39 -25
-12 -5 2 -79 39 -6 -15 -52
9 66 -8 106 -31 -45 -72 -127
-41 23 39 -50 33 13 11 -79
-20 -7 -36 -12 -60 51 -65 -39
-29 -62 24 31 -25 52 -9 -40
-17 45 72 15 48 53 4 -30
-78 55 -39 45 -28 -65 -71 -91
-22 25 88 -19 -93 -68 54 -1
3 4 -33 -41 -11 0 32 127
-64 -37 58 -32 -37 68 -10 -25
12 -23 -18 43 127 38 83 64
-79 39 64 81 4 -2 -22 6
-41 -4 -41 28 116 35 105 -73
00000000: f6f7 22b2 0c55 dafc 7fab 33c0 9982 ccc5
00000010: 1cd1 3fe8 4327 5319 d5dc 2eef f319 0b04
00000020: ce27 0c96 188d e5e8 f127 c2ce b2f5 5ef3
00000030: d81f 9914 8108 4520 543f 6b47 09ec 6027
00000040: 8b19 e5f7 2855 ed01 2f7f 5c63 ddda 1def
00000050: d4f1 fcff a3da d11d e63b bbeb fdb5 d018
00000060: 351b 38f7 edd5 aafd 41d4 f9e1 de1a b8d8
00000070: e3df af44 c7bb c671 be10 1566 64d2 7fe2
00000080: f9a2 814a fc27 5a53 b510 0dfc 1f0d 1cc2
00000090: 8e41 16f2 cb8b 27e7 f4fb 02b1 27fa f1cc
000000a0: 0942 f86a e1d3 b881 d717 27ce 210d 0bb1
000000b0: ecf9 dcf4 c433 bfd9 e3c2 181f e734 f7d8
000000c0: ef2d 480f 3035 04e2 b237 d92d e4bf b9a5
000000d0: ea19 58ed a3bc 36ff 0304 dfd7 f500 207f
000000e0: c0db 3ae0 db44 f6e7 0ce9 ee2b 7f26 5340
000000f0: b127 4051 04fe ea06 d7fc d71c 7423 69b7

model/conv2d_8/Conv2D i1 [16, 1, 1, 32]
-25 17 -83 23 36 -23 4 -16
-5 27 37 123 -57 29 48 -91
12 -22 -32 68 -49 40 4 16
-4 -62 11 39 -69 -127 7 -77
11 -6 -30 -6 -96 -48 -114 -28
108 -81 54 38 -109 66 -50 -78
-36 125 112 -78 88 127 0 -110
118 50 -9 -22 17 65 37 81
-39 -15 -48 -3 42 -35 71 45
-126 32 34 -45 22 -93 -72 48
45 56 54 64 -81 -127 -114 -82
92 77 50 -42 1 59 40 14
-23 109 69 47 91 113 -16 67
127 12 64 -57 -28 -69 42 -9
-60 -119 -36 33 -51 24 34 93
-90 31 -59 -81 76 3 67 30
94 28 17 36 -30 -36 -127 25
5 -6 5 -30 -59 -79 34 -51
-36 -50 -17 3 -21 11 26 -23
-36 66 53 -3 91 23 55 -48
24 -78 -56 -20 -51 78 5 -50
-3 -30 -55 46 -56 42 -45 -127
68 61 -37 -49 -34 -24 4 93
53 67 78 -72 49 -22 -21 45
10 38 12 -60 23 -68 69 5
74 61 61 -55 -38 -127 80 -10
-82 -14 -58 -74 -6 22 4 1
42 -11 -20 -2 -40 -64 -67 -26
20 -22 -62 -48 -26 95 -50 101
45 22 20 -17 41 -45 -26 -17
-118 87 -53 28 39 -18 -28 11
-79 -62 -127 -10 70 25 -17 24
00000000: e711 ad17 24e9 04f0 fb1b 257b c71d 30a5
00000010: 0cea e044 cf28 0410 fcc2 0b27 bb81 07b3
00000020: 0bfa e2fa a0d0 8ee4 6caf 3626 9342 ceb2
00000030: dc7d 70b2 587f 0092 7632 f7ea 1141 2551
00000040: d9f1 d0fd 2add 472d 8220 22d3 16a3 b830
00000050: 2d38 3640 af81 8eae 5c4d 32d6 013b 280e
00000060: e96d 452f 5b71 f043 7f0c 40c7 e4bb 2af7
00000070: c489 dc21 cd18 225d a61f c5af 4c03 431e
00000080: 5e1c 1124 e2dc 8119 05fa 05e2 c5b1 22cd
00000090: dcce ef03 eb0b 1ae9 dc42 35fd 5b17 37d0
000000a0: 18b2 c8ec cd4e 05ce fde2 c92e c82a d381
000000b0: 443d dbcf dee8 045d 3543 4eb8 31ea eb2d
000000c0: 0a26 0cc4 17bc 4505 4a3d 3dc9 da81 50f6
000000d0: aef2 c6b6 fa16 0401 2af5 ecfe d8c0 bde6
000000e0: 14ea c2d0 e65f ce65 2d16 14ef 29d3 e6ef
000000f0: 8a57 cb1c 27ee e40b b1c2 81f6 4619 ef18

model/stream_6/conv2d_13/Conv2D i1 [16, 5, 1, 16]
88 34 -34 6 -55 -59 127 107
17 -56 -6 11 10 9 29 26
0 -7 -5 0 -17 9 40 43
-43 -25 8 35 -1 -2 -17 -15
-44 -30 -27 -8 -29 24 -39 16
-10 7 -10 16 -1 -5 -1 5
-9 -47 22 -16 -23 -4 -11 -15
-22 -26 27 -5 9 35 37 -33
22 9 -2 -19 31 -7 -3 -46
-39 19 -12 -13 -1 1 14 -33
59 -70 -67 89 19 -127 13 1
53 9 61 -5 41 83 8 113
56 -75 45 24 -10 -5 46 28
79 -14 75 -8 63 39 0 32
40 -27 20 41 -23 -66 -17 -17
46 58 -7 4 -10 -2 30 41
-17 -76 81 -5 -52 -18 -28 4
64 45 58 -19 -29 24 37 25
26 5 62 -44 -24 -40 -43 56
-18 28 46 68 -23 -25 0 44
127 -42 13 -2 54 -6 79 103
52 -32 -76 -17 52 61 -28 -5
-9 -41 -29 -31 -23 22 35 10
9 -2 -34 14 0 -22 44 -48
-69 33 31 -8 -53 -11 56 9
-6 0 -2 -52 -68 -44 43 25
-3 -1 36 -38 12 -12 37 49
11 -26 -19 -21 7 8 43 -62
55 -9 2 -41 38 -64 42 99
-1 -53 -52 -92 14 -35 -6 -50
-77 23 -9 -80 107 35 -65 21
-93 10 -127 41 9 -56 29 -42
00000000: 5822 de06 c9c5 7f6b 11c8 fa0b 0a09 1d1a
00000010: 00f9 fb00 ef09 282b d5e7 0823 fffe eff1
00000020: d4e2 e5f8 e318 d910 f607 f610 fffb ff05
00000030: f7d1 16f0 e9fc f5f1 eae6 1bfb 0923 25df
00000040: 1609 feed 1ff9 fdd2 d913 f4f3 ff01 0edf
00000050: 3bba bd59 1381 0d01 3509 3dfb 2953 0871
00000060: 38b5 2d18 f6fb 2e1c 4ff2 4bf8 3f27 0020
00000070: 28e5 1429 e9be efef 2e3a f904 f6fe 1e29
00000080: efb4 51fb ccee e404 402d 3aed e318 2519
00000090: 1a05 3ed4 e8d8 d538 ee1c 2e44 e9e7 002c
000000a0: 7fd6 0dfe 36fa 4f67 34e0 b4ef 343d e4fb
000000b0: f7d7 e3e1 e916 230a 09fe de0e 00ea 2cd0
000000c0: bb21 1ff8 cbf5 3809 fa00 fecc bcd4 2b19
000000d0: fdff 24da 0cf4 2531 0be6 edeb 0708 2bc2
000000e0: 37f7 02d7 26c0 2a63 ffcb cca4 0edd face
000000f0: b317 f7b0 6b23 bf15 a30a 8129 09c8 1dd6

model/stream_5/conv2d_12/Conv2D i1 [16, 5, 1, 16]
-41 -71 63 4 37 -8 65 -51
-5 127 -55 85 51 26 -59 -66
-46 -36 -28 36 -11 -19 -29 -19
-40 68 -29 8 -5 -6 13 -20
-7 21 -36 3 -1 -11 -28 52
27 -8 -42 27 2 1 -26 -71
-38 14 10 -8 48 15 14 50
-3 -122 43 23 3 33 0 -85
34 59 -14 13 -7 0 33 -28
15 -2 17 -12 -2 -74 -26 -7
40 -22 -39 -51 -21 -1 -14 7
49 52 3 -42 -127 -72 -23 17
-39 -4 53 -4 -1 2 -8 -9
35 -31 2 12 -36 -6 -13 -14
-11 16 27 -11 -37 10 -13 -1
-4 -8 5 9 -27 -28 38 20
-14 8 -36 16 -13 -26 28 11
-23 40 32 -19 -21 -32 20 -1
10 -6 12 -15 7 -14 27 -2
2 42 1 14 -29 -42 65 15
28 -73 3 127 26 37 5 -39
-91 -50 -37 12 72 48 -16 -28
51 -28 5 49 16 1 -31 -1
-47 11 13 -19 44 22 7 6
-7 26 11 26 -42 -1 -16 -20
16 44 -5 -18 -4 12 -42 3
-1 -6 -13 16 -26 52 -20 -14
12 23 -37 -28 -53 -31 28 27
-14 57 -13 26 -13 -36 11 -13
-24 35 -21 58 -47 18 36 13
-68 23 33 -127 6 -38 -21 58
-9 -2 -20 9 30 78 40 5
00000000: d7b9 3f04 25f8 41cd fb7f c955 331a c5be
00000010: d2dc e424 f5ed e3ed d844 e308 fbfa 0dec
00000020: f915 dc03 fff5 e434 1bf8 d61b 0201 e6b9
00000030: da0e 0af8 300f 0e32 fd86 2b17 0321 00ab
00000040: 223b f20d f900 21e4 0ffe 11f4 feb6 e6f9
00000050: 28ea d9cd ebff f207 3134 03d6 81b8 e911
00000060: d9fc 35fc ff02 f8f7 23e1 020c dcfa f3f2
00000070: f510 1bf5 db0a f3ff fcf8 0509 e5e4 2614
00000080: f208 dc10 f3e6 1c0b e928 20ed ebe0 14ff
00000090: 0afa 0cf1 07f2 1bfe 022a 010e e3d6 410f
000000a0: 1cb7 037f 1a25 05d9 a5ce db0c 4830 f0e4
000000b0: 33e4 0531 1001 e1ff d10b 0ded 2c16 0706
000000c0: f91a 0b1a d6ff f0ec 102c fbee fc0c d603
000000d0: fffa f310 e634 ecf2 0c17 dbe4 cbe1 1c1b
000000e0: f239 f31a f3dc 0bf3 e823 eb3a d112 240d
000000f0: bc17 2181 06da eb3a f7fe ec09 1e4e 2805

model/conv2d_11/Conv2D i1 [16, 1, 1, 32]
-20 19 -60 22 23 -30 29 -20
-9 -22 4 -29 -53 14 -49 101
31 -80 58 19 -12 -45 -72 9
-99 10 -35 -30 -127 -24 21 53
9 57 -14 -9 23 -7 44 80
26 -52 -15 33 32 -66 -16 -18
65 -42 -13 -118 75 54 72 -52
114 73 -127 -122 -18 -14 -116 -59
15 -38 30 -48 78 -55 93 39
56 14 3 24 -20 -26 58 1
96 35 25 50 -31 -53 -32 -75
84 -68 -10 -66 42 -9 127 7
-83 24 -65 66 26 -29 -60 -81
39 -52 -44 59 114 -58 -10 -1
-54 52 70 23 58 80 -3 52
-127 102 -12 59 -84 30 41 33
81 -9 -15 -36 37 -12 23 5
-75 -13 -58 19 -30 -93 -127 -26
-87 -11 57 -88 59 -62 -56 -91
63 65 12 12 -18 -86 16 13
39 20 -28 -8 23 22 -85 -35
-59 58 -17 54 -35 29 63 12
0 -45 54 -66 40 84 -72 -127
-61 72 -82 -32 -46 26 65 -67
-97 24 4 17 -100 41 -83 33
-54 -44 81 53 29 -77 16 38
-4 50 17 83 -127 24 18 17
0 37 26 125 38 19 31 -91
28 -38 80 33 -19 -109 -22 18
13 -74 65 -115 -12 68 7 -35
13 32 -115 -62 25 127 -63 -19
20 4 67 -98 -80 -10 2 -29
00000000: ec13 c416 17e2 1dec f7ea 04e3 cb0e cf65
00000010: 1fb0 3a13 f4d3 b809 9d0a dde2 81e8 1535
00000020: 0939 f2f7 17f9 2c50 1acc f121 20be f0ee
00000030: 41d6 f38a 4b36 48cc 7249 8186 eef2 8cc5
00000040: 0fda 1ed0 4ec9 5d27 380e 0318 ece6 3a01
00000050: 6023 1932 e1cb e0b5 54bc f6be 2af7 7f07
00000060: ad18 bf42 1ae3 c4af 27cc d43b 72c6 f6ff
00000070: ca34 4617 3a50 fd34 8166 f43b ac1e 2921
00000080: 51f7 f1dc 25f4 1705 b5f3 c613 e2a3 81e6
00000090: a9f5 39a8 3bc2 c8a5 3f41 0c0c eeaa 100d
000000a0: 2714 e4f8 1716 abdd c53a ef36 dd1d 3f0c
000000b0: 00d3 36be 2854 b881 c348 aee0 d21a 41bd
000000c0: 9f18 0411 9c29 ad21 cad4 5135 1db3 1026
000000d0: fc32 1153 8118 1211 0025 1a7d 2613 1fa5
000000e0: 1cda 5021 ed93 ea12 0db6 418d f444 07dd
000000f0: 0d20 8dc2 197f c1ed 1404 439e b0f6 02e3

model/conv2d_7/Conv2D i1 [32, 1, 1, 48]
93 -37 37 -30 -62 -30 -88 -8
-30 38 43 -1 16 127 16 10
-27 7 55 -1 -88 -119 1 -34
-69 -81 114 -20 34 39 -11 -12
-81 38 -41 -48 -35 -19 43 -65
-103 10 -107 45 -40 -25 88 48
-36 8 35 66 -127 -6 -42 71
16 53 60 11 -98 29 -28 -40
15 51 26 -11 36 75 -17 67
-39 -22 46 -12 -17 41 83 -56
3 51 -65 79 -80 13 -20 29
-38 120 -46 -11 32 -35 -23 -34
-3 23 -45 -22 -67 -42 -13 -5
-77 57 -121 42 -69 -40 -101 -54
52 70 6 61 52 18 41 62
43 -46 -36 101 32 -37 127 75
-51 -22 -13 115 53 35 -40 -46
-30 43 2 -31 19 -5 14 0
-12 33 -44 32 91 39 -45 8
42 -123 -51 32 -86 -116 2 20
-67 -51 70 77 -66 -31 52 -115
27 -44 -23 -35 81 99 -44 127
-38 -34 57 -51 -64 20 -57 -21
102 -3 -28 -26 29 66 -43 42
-35 0 -13 -18 -21 36 4 -33
76 -4 81 -26 -80 -44 -56 127
-51 -25 -48 36 -99 26 28 -16
12 28 31 46 -12 -13 -6 -55
6 -34 -63 48 37 -59 -29 10
-78 119 -71 -5 -40 -4 3 8
55 102 91 -14 -24 -23 66 47
65 88 -22 31 -78 76 -27 26
00000000: 5ddb 25e2 c2e2 a8f8 e226 2bff 107f 100a
00000010: e507 37ff a889 01de bbaf 72ec 2227 f5f4
00000020: af26 d7d0 dded 2bbf 990a 952d d8e7 5830
00000030: dc08 2342 81fa d647 1035 3c0b 9e1d e4d8
00000040: 0f33 1af5 244b ef43 d9ea 2ef4 ef29 53c8
00000050: 0333 bf4f b00d ec1d da78 d2f5 20dd e9de
00000060: fd17 d3ea bdd6 f3fb b339 872a bbd8 9bca
00000070: 3446 063d 3412 293e 2bd2 dc65 20db 7f4b
00000080: cdea f373 3523 d8d2 e22b 02e1 13fb 0e00
00000090: f421 d420 5b27 d308 2a85 cd20 aa8c 0214
000000a0: bdcd 464d bee1 348d 1bd4 e9dd 5163 d47f
000000b0: dade 39cd c014 c7eb 66fd e4e6 1d42 d52a
000000c0: dd00 f3ee eb24 04df 4cfc 51e6 b0d4 c87f
000000d0: cde7 d024 9d1a 1cf0 0c1c 1f2e f4f3 fac9
000000e0: 06de c130 25c5 e30a b277 b9fb d8fc 0308
000000f0: 3766 5bf2 e8e9 422f 4158 ea1f b24c e51a

model/stream_3/conv2d_6/Conv2D i1 [16, 3, 1, 16]
-27 108 41 35 32 -45 56 -33
1 -44 73 -34 72 106 13 124
-83 108 51 70 39 -113 -44 18
21 -35 39 53 2 44 27 127
-102 41 95 -2 -107 -24 21 -4
65 -69 -19 56 -25 -83 -18 92
-92 -12 -91 91 -111 -28 -123 -87
-71 104 -12 -20 -50 102 -18 -9
2 46 -31 -49 -26 -26 3 96
101 -68 43 -61 -55 -34 43 21
-76 127 -50 73 -37 45 120 24
-29 -8 50 -122 -43 -24 -7 -2
52 14 3 -30 -68 -63 -29 13
24 100 -71 -59 -56 -8 23 -43
-34 -4 0 -11 -55 -81 64 -4
-27 120 -16 -19 -25 -42 -93 12
122 44 -88 127 59 19 4 29
34 32 -71 -31 -4 -103 9 48
42 -33 94 -1 9 69 -126 45
53 -29 48 -50 51 -15 25 40
6 28 -50 -70 -75 -69 -34 -51
90 -7 -21 89 -20 -57 -63 19
10 56 -17 -73 -56 -1 101 -102
-38 -94 26 26 -8 -127 -117 -18
-54 113 70 45 55 -27 -19 -85
-42 105 -23 113 30 127 -54 20
39 17 21 60 77 62 -99 45
-4 39 77 9 66 105 65 107
-53 -18 -8 -2 35 -56 -29 54
36 81 49 60 -1 -68 20 91
23 29 -13 -90 -54 4 -45 -20
-127 -44 76 -10 -18 -40 -18 -54
00000000: e56c 2923 20d3 38df 01d4 49de 486a 0d7c
00000010: ad6c 3346 278f d412 15dd 2735 022c 1b7f
00000020: 9a29 5ffe 95e8 15fc 41bb ed38 e7ad ee5c
00000030: a4f4 a55b 91e4 85a9 b968 f4ec ce66 eef7
00000040: 022e e1cf e6e6 0360 65bc 2bc3 c9de 2b15
00000050: b47f ce49 db2d 7818 e3f8 3286 d5e8 f9fe
00000060: 340e 03e2 bcc1 e30d 1864 b9c5 c8f8 17d5
00000070: defc 00f5 c9af 40fc e578 f0ed e7d6 a30c
00000080: 7a2c a87f 3b13 041d 2220 b9e1 fc99 0930
00000090: 2adf 5eff 0945 822d 35e3 30ce 33f1 1928
000000a0: 061c ceba b5bb decd 5af9 eb59 ecc7 c113
000000b0: 0a38 efb7 c8ff 659a daa2 1a1a f881 8bee
000000c0: ca71 462d 37e5 edab d669 e971 1e7f ca14
000000d0: 2711 153c 4d3e 9d2d fc27 4d09 4269 416b
000000e0: cbee f8fe 23c8 e336 2451 313c ffbc 145b
000000f0: 171d f3a6 ca04 d3ec 81d4 4cf6 eed8 eeca

model/stream_2/conv2d_5/Conv2D i1 [16, 3, 1, 16]
32 41 -8 -55 68 -30 -8 27
61 40 20 91 62 -127 -116 90
-78 -74 -38 -79 2 -10 9 52
-77 21 -20 -41 12 15 36 -16
45 22 -16 29 9 -48 -15 -20
15 -89 27 22 -58 10 -29 -52
-15 -80 82 29 12 3 43 -66
40 -59 -127 32 -23 -16 -99 38
35 -125 52 -1 -65 33 48 11
27 -27 -52 48 -37 -6 -71 -36
55 16 6 66 -58 -11 54 15
58 20 68 54 38 -41 -13 -64
-73 -6 -30 78 -8 40 -6 -59
-24 127 -72 66 79 15 -32 -5
-67 30 3 37 -37 -34 -7 -28
26 -65 -57 -21 46 41 -18 9
-43 60 -10 14 31 -56 -33 -8
-64 -15 30 -48 -30 48 -63 11
-21 -5 -108 0 -31 68 97 96
-80 -75 -35 7 -57 -5 -72 74
-3 -8 -62 -30 -19 42 78 -44
-75 54 -65 -71 -71 24 7 51
-2 115 55 -14 88 61 46 -34
-56 -54 -7 -64 -127 -21 73 -16
-78 40 10 -3 50 127 -4 26
86 -18 22 17 9 12 -20 119
-41 126 42 -2 -76 88 15 -42
-69 54 -25 -21 40 -81 -26 -37
37 101 3 -10 33 18 -11 -36
-104 -21 -15 39 67 16 41 29
-56 70 127 -31 21 34 5 -22
-19 26 -120 0 -50 -59 -4 9
00000000: 2029 f8c9 44e2 f81b 3d28 145b 3e81 8c5a
00000010: b2b6 dab1 02f6 0934 b315 ecd7 0c0f 24f0
00000020: 2d16 f01d 09d0 f1ec 0fa7 1b16 c60a e3cc
00000030: f1b0 521d 0c03 2bbe 28c5 8120 e9f0 9d26
00000040: 2383 34ff bf21 300b 1be5 cc30 dbfa b9dc
00000050: 3710 0642 c6f5 360f 3a14 4436 26d7 f3c0
00000060: b7fa e24e f828 fac5 e87f b842 4f0f e0fb
00000070: bd1e 0325 dbde f9e4 1abf c7eb 2e29 ee09
00000080: d53c f60e 1fc8 dff8 c0f1 1ed0 e230 c10b
00000090: ebfb 9400 e144 6160 b0b5 dd07 c7fb b84a
000000a0: fdf8 c2e2 ed2a 4ed4 b536 bfb9 b918 0733
000000b0: fe73 37f2 583d 2ede c8ca f9c0 81eb 49f0
000000c0: b228 0afd 327f fc1a 56ee 1611 090c ec77
000000d0: d77e 2afe b458 0fd6 bb36 e7eb 28af e6db
000000e0: 2565 03f6 2112 f5dc 98eb f127 4310 291d
000000f0: c846 7fe1 1522 05ea ed1a 8800 cec5 fc09

model/conv2d_4/Conv2D i1 [16, 1, 1, 32]
83 5 55 54 2 -102 37 25
89 -116 -43 -71 127 -12 -74 75
94 16 94 -14 58 58 -10 26
58 41 44 61 51 16 79 -49
-125 52 41 -127 -3 70 5 46
26 8 -60 50 44 106 -59 -91
43 -60 45 -33 -4 -18 -65 5
105 -2 -100 2 1 -63 14 -60
-48 -64 60 -10 -86 -14 47 5
-21 28 -43 54 -30 -103 38 3
80 38 -13 -104 -82 -53 60 -108
127 -9 85 -19 55 -23 58 -33
-13 -26 96 106 42 51 51 -42
-24 29 -52 42 17 104 31 19
-45 30 -38 24 41 127 7 -42
-43 -17 90 -27 -26 -20 -28 33
-33 -30 6 7 -27 -127 86 -7
-18 -67 10 117 -35 -45 -44 60
-67 92 -22 37 -65 24 95 57
-80 66 -10 3 51 -93 -72 -89
-100 25 -8 -15 125 -40 -3 -28
-31 114 -41 -118 -45 68 87 -113
2 -50 -28 54 57 42 -22 12
100 32 55 -36 65 127 25 54
-52 -51 -29 10 -48 -5 9 -10
70 -21 -30 -19 81 57 -61 -6
7 2 -127 3 3 24 2 77
-28 93 56 -56 11 98 -27 -19
-37 35 14 -81 -72 -18 56 17
-36 -16 43 46 38 -1 -56 3
29 89 -6 -71 77 -10 21 127
-7 112 -25 -49 -38 83 -64 -36
00000000: 5305 3736 029a 2519 598c d5b9 7ff4 b64b
00000010: 5e10 5ef2 3a3a f61a 3a29 2c3d 3310 4fcf
00000020: 8334 2981 fd46 052e 1a08 c432 2c6a c5a5
00000030: 2bc4 2ddf fcee bf05 69fe 9c02 01c1 0ec4
00000040: d0c0 3cf6 aaf2 2f05 eb1c d536 e299 2603
00000050: 5026 f398 aecb 3c94 7ff7 55ed 37e9 3adf
00000060: f3e6 606a 2a33 33d6 e81d cc2a 1168 1f13
00000070: d31e da18 297f 07d6 d5ef 5ae5 e6ec e421
00000080: dfe2 0607 e581 56f9 eebd 0a75 ddd3 d43c
00000090: bd5c ea25 bf18 5f39 b042 f603 33a3 b8a7
000000a0: 9c19 f8f1 7dd8 fde4 e172 d78a d344 578f
000000b0: 02ce e436 392a ea0c 6420 37dc 417f 1936
000000c0: cccd e30a d0fb 09f6 46eb e2ed 5139 c3fa
000000d0: 0702 8103 0318 024d e45d 38c8 0b62 e5ed
000000e0: db23 0eaf b8ee 3811 dcf0 2b2e 26ff c803
000000f0: 1d59 fab9 4df6 157f f970 e7cf da53 c0dc

model/stream_1/conv2d_3/Conv2D i1 [16, 3, 1, 16]
34 -16 -6 -66 28 71 49 -26
-13 -6 4 -40 10 21 30 33
27 -43 -6 -7 -32 11 27 -2
44 31 -43 -21 3 -73 6 -41
-23 -51 -66 47 83 -31 -74 -18
-3 30 -25 -44 -48 -127 -15 32
14 21 28 -53 -22 -60 -23 127
-32 -34 62 29 -9 -17 22 -12
44 -22 -17 15 -25 7 7 -5
17 -1 -22 40 3 -23 -25 8
46 -46 -30 57 63 66 8 -64
-22 11 -68 -85 -51 -34 -97 -4
10 18 -58 9 -7 59 -9 89
74 -41 65 58 40 -75 28 -44
-22 21 25 21 7 -47 -28 34
105 -93 12 72 34 -47 -114 -64
25 11 70 -21 -24 0 103 121
34 59 -7 50 -8 -127 -71 -69
61 -12 -9 -37 28 -55 35 -11
-124 123 33 8 -51 39 38 127
-35 -51 35 -60 10 19 -85 1
29 4 25 27 -24 -78 55 59
-39 6 20 95 -22 71 -86 -9
118 -69 -73 9 -42 -95 5 -10
-43 17 66 57 -3 0 -13 -55
73 -54 49 -42 -114 -98 -92 60
-61 94 4 -27 -14 -43 62 -69
100 40 -82 25 -41 -15 -86 -23
73 -2 64 127 4 -96 11 105
-50 32 -114 -44 62 -10 -30 42
-127 -16 -17 -80 -77 -19 37 -71
-60 12 -26 5 -77 -102 1 15
00000000: 22f0 fabe 1c47 31e6 f3fa 04d8 0a15 1e21
00000010: 1bd5 faf9 e00b 1bfe 2c1f d5eb 03b7 06d7
00000020: e9cd be2f 53e1 b6ee fd1e e7d4 d081 f120
00000030: 0e15 1ccb eac4 e97f e0de 3e1d f7ef 16f4
00000040: 2cea ef0f e707 07fb 11ff ea28 03e9 e708
00000050: 2ed2 e239 3f42 08c0 ea0b bcab cdde 9ffc
00000060: 0a12 c609 f93b f759 4ad7 413a 28b5 1cd4
00000070: ea15 1915 07d1 e422 69a3 0c48 22d1 8ec0
00000080: 190b 46eb e800 6779 223b f932 f881 b9bb
00000090: 3df4 f7db 1cc9 23f5 847b 2108 cd27 267f
000000a0: ddcd 23c4 0a13 ab01 1d04 191b e8b2 373b
000000b0: d906 145f ea47 aaf7 76bb b709 d6a1 05f6
000000c0: d511 4239 fd00 f3c9 49ca 31d6 8e9e a43c
000000d0: c35e 04e5 f2d5 3ebb 6428 ae19 d7f1 aae9
000000e0: 49fe 407f 04a0 0b69 ce20 8ed4 3ef6 e22a
000000f0: 81f0 efb0 b3ed 25b9 c40c e605 b39a 010f

model/conv2d_2/Conv2D i1 [16, 1, 1, 32]
-101 -63 -31 125 13 110 -30 -51
-29 -42 39 19 -62 41 5 41
-13 98 127 -120 -61 -11 11 32
-111 -49 102 -20 -39 30 -7 68
-63 -29 16 46 12 26 67 127
-6 23 82 -52 -51 75 -82 -90
-14 -19 50 -20 31 12 68 21
2 28 -21 -2 -9 -59 49 -44
-52 3 102 -40 -38 21 33 101
127 11 20 65 49 59 -45 106
38 10 -24 -31 120 -60 34 14
73 -64 5 88 105 19 46 78
-65 -9 20 -54 -47 -53 -12 -87
-49 -23 -13 -15 110 2 11 -16
28 41 34 -23 -70 18 -55 -19
-127 21 -17 -14 -52 -14 30 54
-53 -26 -25 -28 -70 -105 -3 -57
63 58 11 88 -1 87 -1 -19
30 24 -127 -60 -59 111 21 -61
-98 -16 -10 125 -44 -33 -57 105
51 -31 -50 73 80 -6 -6 22
-32 -41 -77 10 17 84 64 20
68 69 -30 127 -35 -34 -25 43
52 -18 -41 7 -34 51 2 17
-2 -102 -29 -62 -85 -65 37 -47
-7 -19 -87 127 -114 -17 11 -46
31 -38 -55 50 37 -24 -83 57
108 75 -29 -11 -49 -47 -17 -17
-18 113 127 -16 66 -65 39 31
-45 -27 -69 -120 -15 -49 83 -62
-55 50 -31 68 0 -19 -10 72
41 86 15 50 69 61 66 -6
00000000: 9bc1 e17d 0d6e e2cd e3d6 2713 c229 0529
00000010: f362 7f88 c3f5 0b20 91cf 66ec d91e f944
00000020: c1e3 102e 0c1a 437f fa17 52cc cd4b aea6
00000030: f2ed 32ec 1f0c 4415 021c ebfe f7c5 31d4
00000040: cc03 66d8 da15 2165 7f0b 1441 313b d36a
00000050: 260a e8e1 78c4 220e 49c0 0558 6913 2e4e
00000060: bff7 14ca d1cb f4a9 cfe9 f3f1 6e02 0bf0
00000070: 1c29 22e9 ba12 c9ed 8115 eff2 ccf2 1e36
00000080: cbe6 e7e4 ba97 fdc7 3f3a 0b58 ff57 ffed
00000090: 1e18 81c4 c56f 15c3 9ef0 f67d d4df c769
000000a0: 33e1 ce49 50fa fa16 e0d7 b30a 1154 4014
000000b0: 4445 e27f ddde e72b 34ee d707 de33 0211
000000c0: fe9a e3c2 abbf 25d1 f9ed a97f 8eef 0bd2
000000d0: 1fda c932 25e8 ad39 6c4b e3f5 cfd1 efef
000000e0: ee71 7ff0 42bf 271f d3e5 bb88 f1cf 53c2
000000f0: c932 e144 00ed f648 2956 0f32 453d 42fa

model/conv2d_1/Conv2D i1 [16, 1, 1, 32]
-4 28 -5 127 35 89 115 28
-16 63 0 33 8 -9 -75 4
-31 -12 0 79 -38 61 110 -10
3 37 81 47 -4 93 -41 71
7 91 -83 0 65 -88 40 -21
-35 -41 -42 -17 -27 -23 24 11
-54 41 -14 -28 -39 -13 -5 -10
73 -12 -127 -95 -90 109 -20 -31
-14 -26 62 -21 5 106 -32 106
-74 -36 32 -30 -52 -35 99 31
59 -48 127 -51 -58 97 25 -29
-8 -8 6 -64 27 -34 76 4
-61 10 58 4 126 36 -18 -111
113 37 -127 39 -6 -78 -70 -101
-49 -36 -14 -47 -66 -121 -73 35
-2 55 -126 -45 -26 -63 54 60
23 10 -41 15 -9 76 -101 17
28 -75 -93 -28 -85 127 -49 115
31 -40 -39 29 0 -34 -10 35
16 -48 8 84 -74 5 61 -78
49 25 58 -90 22 -33 37 -23
104 -35 23 40 43 68 -8 -35
45 91 -59 13 -72 26 -84 -76
-41 -10 -127 -22 29 26 64 26
22 -92 -50 -107 47 -127 62 54
-28 -16 5 -49 -17 -10 -59 54
-94 -52 31 36 66 -11 -23 -82
-41 67 -92 -45 6 54 11 58
89 15 15 90 31 70 -42 -84
-35 124 -78 13 -127 36 124 1
69 56 59 -16 61 -56 -59 -33
61 -43 -32 0 -14 -35 -15 110
00000000: fc1c fb7f 2359 731c f03f 0021 08f7 b504
00000010: e1f4 004f da3d 6ef6 0325 512f fc5d d747
00000020: 075b ad00 41a8 28eb ddd7 d6ef e5e9 180b
00000030: ca29 f2e4 d9f3 fbf6 49f4 81a1 a66d ece1
00000040: f2e6 3eeb 056a e06a b6dc 20e2 ccdd 631f
00000050: 3bd0 7fcd c661 19e3 f8f8 06c0 1bde 4c04
00000060: c30a 3a04 7e24 ee91 7125 8127 fab2 ba9b
00000070: cfdc f2d1 be87 b723 fe37 82d3 e6c1 363c
00000080: 170a d70f f74c 9b11 1cb5 a3e4 ab7f cf73
00000090: 1fd8 d91d 00de f623 10d0 0854 b605 3db2
000000a0: 3119 3aa6 16df 25e9 68dd 1728 2b44 f8dd
000000b0: 2d5b c50d b81a acb4 d7f6 81ea 1d1a 401a
000000c0: 16a4 ce95 2f81 3e36 e4f0 05cf eff6 c536
000000d0: a2cc 1f24 42f5 e9ae d743 a4d3 0636 0b3a
000000e0: 590f 0f5a 1f46 d6ac dd7c b20d 8124 7c01
000000f0: 4538 3bf0 3dc8 c5df 3dd5 e000 f2dd f16e

model/stream/conv2d/Conv2D i1 [32, 5, 1, 40]
33 -26 -15 -7 -60 -39 35 127
123 80 62 49 -2 2 3 21
-31 23 30 83 6 54 -11 -40
-22 -1 -44 -17 -25 -24 27 -25
-14 -51 2 12 -10 40 60 6
70 -8 21 10 -31 -33 64 64
104 20 27 30 -36 34 -24 26
19 109 64 71 26 32 -6 -17
-60 -20 -57 -37 -21 3 -14 -20
-9 -14 14 -29 -4 -6 38 -21
40 -18 18 -13 20 20 49 88
14 -24 -20 1 -25 18 31 52
47 66 8 27 -28 -13 -44 -17
-53 -24 -49 -10 -2 -3 -7 0
-13 2 31 8 0 -28 6 -68
25 -38 18 -32 2 -20 45 26
-23 23 -32 10 24 38 33 74
41 4 4 -28 -56 -53 -1 9
-28 -2 -10 9 27 16 19 -32
23 -26 -6 -15 -17 -1 35 -65
-28 -43 -30 -56 -39 -14 -26 -32
-43 -4 -39 36 -13 21 39 30
29 -46 -65 -45 -63 -5 1 -48
-37 -6 24 7 0 -4 -7 -25
0 32 29 -41 0 -82 10 -37
38 41 27 86 26 119 127 38
29 -11 -5 -69 -5 -77 3 -60
-35 -55 -14 3 -25 -12 -17 52
54 25 36 18 -7 -33 -16 -26
-31 -37 21 23 -13 11 27 30
-1 1 -20 109 63 62 74 20
-24 -32 -27 -30 -6 -19 6 -4
00000000: 21e6 f1f9 c4d9 237f 7b50 3e31 fe02 0315
00000010: e117 1e53 0636 f5d8 eaff d4ef e7e8 1be7
00000020: f2cd 020c f628 3c06 46f8 150a e1df 4040
00000030: 6814 1b1e dc22 e81a 136d 4047 1a20 faef
00000040: c4ec c7db eb03 f2ec f7f2 0ee3 fcfa 26eb
00000050: 28ee 12f3 1414 3158 0ee8 ec01 e712 1f34
00000060: 2f42 081b e4f3 d4ef cbe8 cff6 fefd f900
00000070: f302 1f08 00e4 06bc 19da 12e0 02ec 2d1a
00000080: e917 e00a 1826 214a 2904 04e4 c8cb ff09
00000090: e4fe f609 1b10 13e0 17e6 faf1 efff 23bf
000000a0: e4d5 e2c8 d9f2 e6e0 d5fc d924 f315 271e
000000b0: 1dd2 bfd3 c1fb 01d0 dbfa 1807 00fc f9e7
000000c0: 0020 1dd7 00ae 0adb 2629 1b56 1a77 7f26
000000d0: 1df5 fbbb fbb3 03c4 ddc9 f203 e7f4 ef34
000000e0: 3619 2412 f9df f0e6 e1db 1517 f30b 1b1e
000000f0: ff01 ec6d 3f3e 4a14 e8e0 e5e2 faed 06fc

tfl.pseudo_qconst i1 [1, 4, 1, 16] scale=0.02131858 zero_point=-128
0.0 0.0 0.0 0.0 0.0 0.0 0.0 0.0
0.0 0.0 0.0 0.0 0.0 0.0 0.0 0.0
0.0 0.0 0.0 0.0 0.0 0.0 0.0 0.0
0.0 0.0 0.0 0.0 0.0 0.0 0.0 0.0
0.0 0.0 0.0 0.0 0.0 0.0 0.0 0.0
0.0 0.0 0.0 0.0 0.0 0.0 0.0 0.0
0.0 0.0 0.0 0.0 0.0 0.0 0.0 0.0
0.0 0.0 0.0 0.0 0.0 0.0 0.0 0.0
00000000: 8080 8080 8080 8080 8080 8080 8080 8080
00000010: 8080 8080 8080 8080 8080 8080 8080 8080
00000020: 8080 8080 8080 8080 8080 8080 8080 8080
00000030: 8080 8080 8080 8080 8080 8080 8080 8080

tfl.pseudo_qconst1 i1 [1, 4, 1, 16] scale=0.02674779 zero_point=-128
0.0 0.0 0.0 0.0 0.0 0.0 0.0 0.0
0.0 0.0 0.0 0.0 0.0 0.0 0.0 0.0
0.0 0.0 0.0 0.0 0.0 0.0 0.0 0.0
0.0 0.0 0.0 0.0 0.0 0.0 0.0 0.0
0.0 0.0 0.0 0.0 0.0 0.0 0.0 0.0
0.0 0.0 0.0 0.0 0.0 0.0 0.0 0.0
0.0 0.0 0.0 0.0 0.0 0.0 0.0 0.0
0.0 0.0 0.0 0.0 0.0 0.0 0.0 0.0
00000000: 8080 8080 8080 8080 8080 8080 8080 8080
00000010: 8080 8080 8080 8080 8080 8080 8080 8080
00000020: 8080 8080 8080 8080 8080 8080 8080 8080
00000030: 8080 8080 8080 8080 8080 8080 8080 8080

tfl.pseudo_qconst2 i1 [1, 4, 1, 16] scale=0.02207659 zero_point=-128
0.0 0.0 0.0 0.0 0.0 0.0 0.0 0.0
0.0 0.0 0.0 0.0 0.0 0.0 0.0 0.0
0.0 0.0 0.0 0.0 0.0 0.0 0.0 0.0
0.0 0.0 0.0 0.0 0.0 0.0 0.0 0.0
0.0 0.0 0.0 0.0 0.0 0.0 0.0 0.0
0.0 0.0 0.0 0.0 0.0 0.0 0.0 0.0
0.0 0.0 0.0 0.0 0.0 0.0 0.0 0.0
0.0 0.0 0.0 0.0 0.0 0.0 0.0 0.0
00000000: 8080 8080 8080 8080 8080 8080 8080 8080
00000010: 8080 8080 8080 8080 8080 8080 8080 8080
00000020: 8080 8080 8080 8080 8080 8080 8080 8080
00000030: 8080 8080 8080 8080 8080 8080 8080 8080

tfl.pseudo_qconst3 i1 [1, 4, 1, 16] scale=0.02840256 zero_point=-128
0.0 0.0 0.0 0.0 0.0 0.0 0.0 0.0
0.0 0.0 0.0 0.0 0.0 0.0 0.0 0.0
0.0 0.0 0.0 0.0 0.0 0.0 0.0 0.0
0.0 0.0 0.0 0.0 0.0 0.0 0.0 0.0
0.0 0.0 0.0 0.0 0.0 0.0 0.0 0.0
0.0 0.0 0.0 0.0 0.0 0.0 0.0 0.0
0.0 0.0 0.0 0.0 0.0 0.0 0.0 0.0
0.0 0.0 0.0 0.0 0.0 0.0 0.0 0.0
00000000: 8080 8080 8080 8080 8080 8080 8080 8080
00000010: 8080 8080 8080 8080 8080 8080 8080 8080
00000020: 8080 8080 8080 8080 8080 8080 8080 8080
00000030: 8080 8080 8080 8080 8080 8080 8080 8080

tfl.pseudo_qconst4 i1 [1, 4, 1, 16] scale=0.039232343 zero_point=-128
0.0 0.0 0.0 0.0 0.0 0.0 0.0 0.0
0.0 0.0 0.0 0.0 0.0 0.0 0.0 0.0
0.0 0.0 0.0 0.0 0.0 0.0 0.0 0.0
0.0 0.0 0.0 0.0 0.0 0.0 0.0 0.0
0.0 0.0 0.0 0.0 0.0 0.0 0.0 0.0
0.0 0.0 0.0 0.0 0.0 0.0 0.0 0.0
0.0 0.0 0.0 0.0 0.0 0.0 0.0 0.0
0.0 0.0 0.0 0.0 0.0 0.0 0.0 0.0
00000000: 8080 8080 8080 8080 8080 8080 8080 8080
00000010: 8080 8080 8080 8080 8080 8080 8080 8080
00000020: 8080 8080 8080 8080 8080 8080 8080 8080
00000030: 8080 8080 8080 8080 8080 8080 8080 8080

tfl.pseudo_qconst5 i1 [1, 4, 1, 16] scale=0.023024611 zero_point=-128
0.0 0.0 0.0 0.0 0.0 0.0 0.0 0.0
0.0 0.0 0.0 0.0 0.0 0.0 0.0 0.0
0.0 0.0 0.0 0.0 0.0 0.0 0.0 0.0
0.0 0.0 0.0 0.0 0.0 0.0 0.0 0.0
0.0 0.0 0.0 0.0 0.0 0.0 0.0 0.0
0.0 0.0 0.0 0.0 0.0 0.0 0.0 0.0
0.0 0.0 0.0 0.0 0.0 0.0 0.0 0.0
0.0 0.0 0.0 0.0 0.0 0.0 0.0 0.0
00000000: 8080 8080 8080 8080 8080 8080 8080 8080
00000010: 8080 8080 8080 8080 8080 8080 8080 8080
00000020: 8080 8080 8080 8080 8080 8080 8080 8080
00000030: 8080 8080 8080 8080 8080 8080 8080 8080

tfl.pseudo_qconst6 i1 [1, 2, 1, 16] scale=0.018740928 zero_point=-128
0.0 0.0 0.0 0.0 0.0 0.0 0.0 0.0
0.0 0.0 0.0 0.0 0.0 0.0 0.0 0.0
0.0 0.0 0.0 0.0 0.0 0.0 0.0 0.0
0.0 0.0 0.0 0.0 0.0 0.0 0.0 0.0
00000000: 8080 8080 8080 8080 8080 8080 8080 8080
00000010: 8080 8080 8080 8080 8080 8080 8080 8080

tfl.pseudo_qconst7 i1 [1, 2, 1, 16] scale=0.017999042 zero_point=-128
0.0 0.0 0.0 0.0 0.0 0.0 0.0 0.0
0.0 0.0 0.0 0.0 0.0 0.0 0.0 0.0
0.0 0.0 0.0 0.0 0.0 0.0 0.0 0.0
0.0 0.0 0.0 0.0 0.0 0.0 0.0 0.0
00000000: 8080 8080 8080 8080 8080 8080 8080 8080
00000010: 8080 8080 8080 8080 8080 8080 8080 8080

tfl.pseudo_qconst8 i1 [1, 70, 1, 70] scale=0.028603133 zero_point=-128
0.0 0.0 0.0 0.0 0.0 0.0 0.0 0.0
0.0 0.0 0.0 0.0 0.0 0.0 0.0 0.0
0.0 0.0 0.0 0.0 0.0 0.0 0.0 0.0
0.0 0.0 0.0 0.0 0.0 0.0 0.0 0.0
0.0 0.0 0.0 0.0 0.0 0.0 0.0 0.0
0.0 0.0 0.0 0.0 0.0 0.0 0.0 0.0
0.0 0.0 0.0 0.0 0.0 0.0 0.0 0.0
0.0 0.0 0.0 0.0 0.0 0.0 0.0 0.0
0.0 0.0 0.0 0.0 0.0 0.0 0.0 0.0
0.0 0.0 0.0 0.0 0.0 0.0 0.0 0.0
0.0 0.0 0.0 0.0 0.0 0.0 0.0 0.0
0.0 0.0 0.0 0.0 0.0 0.0 0.0 0.0
0.0 0.0 0.0 0.0 0.0 0.0 0.0 0.0
0.0 0.0 0.0 0.0 0.0 0.0 0.0 0.0
0.0 0.0 0.0 0.0 0.0 0.0 0.0 0.0
0.0 0.0 0.0 0.0 0.0 0.0 0.0 0.0
0.0 0.0 0.0 0.0 0.0 0.0 0.0 0.0
0.0 0.0 0.0 0.0 0.0 0.0 0.0 0.0
0.0 0.0 0.0 0.0 0.0 0.0 0.0 0.0
0.0 0.0 0.0 0.0 0.0 0.0 0.0 0.0
0.0 0.0 0.0 0.0 0.0 0.0 0.0 0.0
0.0 0.0 0.0 0.0 0.0 0.0 0.0 0.0
0.0 0.0 0.0 0.0 0.0 0.0 0.0 0.0
0.0 0.0 0.0 0.0 0.0 0.0 0.0 0.0
0.0 0.0 0.0 0.0 0.0 0.0 0.0 0.0
0.0 0.0 0.0 0.0 0.0 0.0 0.0 0.0
0.0 0.0 0.0 0.0 0.0 0.0 0.0 0.0
0.0 0.0 0.0 0.0 0.0 0.0 0.0 0.0
0.0 0.0 0.0 0.0 0.0 0.0 0.0 0.0
0.0 0.0 0.0 0.0 0.0 0.0 0.0 0.0
0.0 0.0 0.0 0.0 0.0 0.0 0.0 0.0
0.0 0.0 0.0 0.0 0.0 0.0 0.0 0.0
00000000: 8080 8080 8080 8080 8080 8080 8080 8080
00000010: 8080 8080 8080 8080 8080 8080 8080 8080
00000020: 8080 8080 8080 8080 8080 8080 8080 8080
00000030: 8080 8080 8080 8080 8080 8080 8080 8080
00000040: 8080 8080 8080 8080 8080 8080 8080 8080
00000050: 8080 8080 8080 8080 8080 8080 8080 8080
00000060: 8080 8080 8080 8080 8080 8080 8080 8080
00000070: 8080 8080 8080 8080 8080 8080 8080 8080
00000080: 8080 8080 8080 8080 8080 8080 8080 8080
00000090: 8080 8080 8080 8080 8080 8080 8080 8080
000000a0: 8080 8080 8080 8080 8080 8080 8080 8080
000000b0: 8080 8080 8080 8080 8080 8080 8080 8080
000000c0: 8080 8080 8080 8080 8080 8080 8080 8080
000000d0: 8080 8080 8080 8080 8080 8080 8080 8080
000000e0: 8080 8080 8080 8080 8080 8080 8080 8080
000000f0: 8080 8080 8080 8080 8080 8080 8080 8080

tfl.pseudo_qconst9 i1 [1, 2, 1, 16] scale=0.022261033 zero_point=-128
0.0 0.0 0.0 0.0 0.0 0.0 0.0 0.0
0.0 0.0 0.0 0.0 0.0 0.0 0.0 0.0
0.0 0.0 0.0 0.0 0.0 0.0 0.0 0.0
0.0 0.0 0.0 0.0 0.0 0.0 0.0 0.0
00000000: 8080 8080 8080 8080 8080 8080 8080 8080
00000010: 8080 8080 8080 8080 8080 8080 8080 8080

tfl.pseudo_qconst10 i1 [1, 4, 1, 40] scale=0.101960786 zero_point=-128
0.0 0.0 0.0 0.0 0.0 0.0 0.0 0.0
0.0 0.0 0.0 0.0 0.0 0.0 0.0 0.0
0.0 0.0 0.0 0.0 0.0 0.0 0.0 0.0
0.0 0.0 0.0 0.0 0.0 0.0 0.0 0.0
0.0 0.0 0.0 0.0 0.0 0.0 0.0 0.0
0.0 0.0 0.0 0.0 0.0 0.0 0.0 0.0
0.0 0.0 0.0 0.0 0.0 0.0 0.0 0.0
0.0 0.0 0.0 0.0 0.0 0.0 0.0 0.0
0.0 0.0 0.0 0.0 0.0 0.0 0.0 0.0
0.0 0.0 0.0 0.0 0.0 0.0 0.0 0.0
0.0 0.0 0.0 0.0 0.0 0.0 0.0 0.0
0.0 0.0 0.0 0.0 0.0 0.0 0.0 0.0
0.0 0.0 0.0 0.0 0.0 0.0 0.0 0.0
0.0 0.0 0.0 0.0 0.0 0.0 0.0 0.0
0.0 0.0 0.0 0.0 0.0 0.0 0.0 0.0
0.0 0.0 0.0 0.0 0.0 0.0 0.0 0.0
0.0 0.0 0.0 0.0 0.0 0.0 0.0 0.0
0.0 0.0 0.0 0.0 0.0 0.0 0.0 0.0
0.0 0.0 0.0 0.0 0.0 0.0 0.0 0.0
0.0 0.0 0.0 0.0 0.0 0.0 0.0 0.0
00000000: 8080 8080 8080 8080 8080 8080 8080 8080
00000010: 8080 8080 8080 8080 8080 8080 8080 8080
00000020: 8080 8080 8080 8080 8080 8080 8080 8080
00000030: 8080 8080 8080 8080 8080 8080 8080 8080
00000040: 8080 8080 8080 8080 8080 8080 8080 8080
00000050: 8080 8080 8080 8080 8080 8080 8080 8080
00000060: 8080 8080 8080 8080 8080 8080 8080 8080
00000070: 8080 8080 8080 8080 8080 8080 8080 8080
00000080: 8080 8080 8080 8080 8080 8080 8080 8080
00000090: 8080 8080 8080 8080 8080 8080 8080 8080
