models/okay_nabu.tflite (tflite, 115400 bytes, 34 tensors)

model_2/dense_2/MatMul i1 [1, 7104] scale=0.00714601 zero_point=0
0	0x09	0.06431409
1	0xff	-0.00714601
2	0x3f	0.45019865
3	0x02	0.01429202
4	0xe2	-0.21438031
5	0x05	0.03573005
6	0xf2	-0.100044146
7	0x1d	0.2072343
8	0x39	0.4073226
9	0xea	-0.15721223
10	0xda	-0.2715484
11	0x09	0.06431409
12	0x30	0.3430085
13	0x17	0.16435823
14	0x28	0.2858404
15	0x1e	0.21438031
16	0x23	0.25011036
17	0x01	0.00714601
18	0xf7	-0.06431409
19	0x17	0.16435823
20	0x13	0.1357742
21	0x0b	0.078606114
22	0x04	0.02858404
23	0x0f	0.107190154
24	0xd2	-0.32871646
25	0x25	0.2644024
26	0xcc	-0.37159252
27	0x20	0.22867233
28	0xea	-0.15721223
29	0x0e	0.100044146
30	0xfe	-0.01429202
31	0xec	-0.1429202
32	0xe6	-0.18579626
33	0x2e	0.32871646
34	0xe6	-0.18579626
35	0xf6	-0.0714601
36	0xfc	-0.02858404
37	0xe4	-0.20008829
38	0xf1	-0.107190154
39	0x1a	0.18579626
40	0x12	0.12862818
41	0x1f	0.22152631
42	0xf8	-0.05716808
43	0x1b	0.19294228
44	0x1f	0.22152631
45	0xf2	-0.100044146
46	0x18	0.17150424
47	0xf0	-0.11433616
48	0x04	0.02858404
49	0x38	0.40017658
50	0x12	0.12862818
51	0xfd	-0.02143803
52	0x40	0.45734465
53	0x1a	0.18579626
54	0xee	-0.12862818
55	0x0f	0.107190154
56	0xf8	-0.05716808
57	0x21	0.23581834
58	0xfb	-0.03573005
59	0xf6	-0.0714601
60	0x31	0.3501545
61	0xdf	-0.23581834
62	0x07	0.050022073
63	0xde	-0.24296434
64	0x0f	0.107190154
65	0xfd	-0.02143803
66	0x08	0.05716808
67	0x08	0.05716808
68	0x16	0.15721223
69	0xfa	-0.04287606
70	0xc1	-0.45019865
71	0x0b	0.078606114
72	0x49	0.5216587
73	0xf7	-0.06431409
74	0x15	0.15006621
75	0x2e	0.32871646
76	0xfb	-0.03573005
77	0x15	0.15006621
78	0x0c	0.08575212
79	0xc6	-0.4144686
80	0x16	0.15721223
81	0x49	0.5216587
82	0x1b	0.19294228
83	0xec	-0.1429202
84	0xeb	-0.15006621
85	0xf3	-0.09289813
86	0xf0	-0.11433616
87	0x07	0.050022073
88	0xe3	-0.2072343
89	0x31	0.3501545
90	0x16	0.15721223
91	0xdd	-0.25011036
92	0x17	0.16435823
93	0xf9	-0.050022073
94	0xdf	-0.23581834
95	0xfe	-0.01429202
96	0x28	0.2858404
97	0x1b	0.19294228
98	0x15	0.15006621
99	0x01	0.00714601
100	0xd7	-0.29298642
101	0x17	0.16435823
102	0xfe	-0.01429202
103	0xf8	-0.05716808
104	0x20	0.22867233
105	0xf6	-0.0714601
106	0xeb	-0.15006621
107	0x12	0.12862818
108	0x34	0.37159252
109	0x1e	0.21438031
110	0x62	0.700309
111	0x0a	0.0714601
112	0xeb	-0.15006621
113	0x00	0.0
114	0xf8	-0.05716808
115	0x2d	0.32157046
116	0x0a	0.0714601
117	0xf1	-0.107190154
118	0x4f	0.5645348
119	0xfe	-0.01429202
120	0xe9	-0.16435823
121	0xf5	-0.078606114
122	0xdc	-0.25725636
123	0x05	0.03573005
124	0xe1	-0.22152631
125	0x0d	0.09289813
126	0xf4	-0.08575212
127	0xea	-0.15721223
128	0xfc	-0.02858404
129	0x1f	0.22152631
130	0xe0	-0.22867233
131	0x14	0.1429202
132	0xf6	-0.0714601
133	0xf9	-0.050022073
134	0xed	-0.1357742
135	0x10	0.11433616
136	0x0f	0.107190154
137	0x09	0.06431409
138	0x07	0.050022073
139	0x31	0.3501545
140	0x13	0.1357742
141	0xfc	-0.02858404
142	0x06	0.04287606
143	0xfe	-0.01429202
144	0x14	0.1429202
145	0x35	0.37873855
146	0x25	0.2644024
147	0xe0	-0.22867233
148	0xfb	-0.03573005
149	0x01	0.00714601
150	0x03	0.02143803
151	0x03	0.02143803
152	0xf1	-0.107190154
153	0x29	0.29298642
154	0xf9	-0.050022073
155	0xfa	-0.04287606
156	0x53	0.59311885
157	0xff	-0.00714601
158	0x1d	0.2072343
159	0xea	-0.15721223
160	0x2b	0.30727842
161	0xf8	-0.05716808
162	0xfd	-0.02143803
163	0xf7	-0.06431409
164	0x15	0.15006621
165	0xfb	-0.03573005
166	0xcf	-0.3501545
167	0x16	0.15721223
168	0x36	0.38588455
169	0xf5	-0.078606114
170	0xf5	-0.078606114
171	0x26	0.2715484
172	0xf8	-0.05716808
173	0xfd	-0.02143803
174	0xf2	-0.100044146
175	0xca	-0.38588455
176	0x20	0.22867233
177	0x27	0.2786944
178	0xf1	-0.107190154
179	0xeb	-0.15006621
180	0xd2	-0.32871646
181	0x0b	0.078606114
182	0xea	-0.15721223
183	0xfc	-0.02858404
184	0xe5	-0.19294228
185	0x1d	0.2072343
186	0xf7	-0.06431409
187	0xcd	-0.36444652
188	0xe2	-0.21438031
189	0x04	0.02858404
190	0xdb	-0.2644024
191	0xdd	-0.25011036
192	0x1b	0.19294228
193	0xd5	-0.30727842
194	0x08	0.05716808
195	0xf7	-0.06431409
196	0xd1	-0.3358625
197	0xfd	-0.02143803
198	0xf2	-0.100044146
199	0x14	0.1429202
200	0x25	0.2644024
201	0x0a	0.0714601
202	0xec	-0.1429202
203	0x21	0.23581834
204	0x02	0.01429202
205	0x13	0.1357742
206	0x5c	0.6574329
207	0xf3	-0.09289813
208	0x05	0.03573005
209	0x08	0.05716808
210	0xff	-0.00714601
211	0x19	0.17865026
212	0x04	0.02858404
213	0x06	0.04287606
214	0x41	0.46449065
215	0x12	0.12862818
216	0xf0	-0.11433616
217	0x27	0.2786944
218	0xe7	-0.17865026
219	0x0d	0.09289813
220	0xec	-0.1429202
221	0x15	0.15006621
222	0x0f	0.107190154
223	0xed	-0.1357742
224	0xf4	-0.08575212
225	0x08	0.05716808
226	0xef	-0.12148217
227	0xea	-0.15721223
228	0xeb	-0.15006621
229	0xe1	-0.22152631
230	0xfa	-0.04287606
231	0xec	-0.1429202
232	0x0d	0.09289813
233	0x1a	0.18579626
234	0xe4	-0.20008829
235	0x13	0.1357742
236	0xec	-0.1429202
237	0x00	0.0
238	0x22	0.24296434
239	0xee	-0.12862818
240	0x12	0.12862818
241	0x3b	0.4216146
242	0x23	0.25011036
243	0xe5	-0.19294228
244	0xe6	-0.18579626
245	0x07	0.050022073
246	0xfb	-0.03573005
247	0x0f	0.107190154
248	0xd8	-0.2858404
249	0x2b	0.30727842
250	0x0a	0.0714601
251	0xf9	-0.050022073
252	0x2b	0.30727842
253	0xee	-0.12862818
254	0x31	0.3501545
255	0xf6	-0.0714601

model_2/conv2d_65/Conv2D i1 [96, 1, 1, 72]
0	0xf4	-12
1	0xf9	-7
2	0xe5	-27
3	0xd9	-39
4	0x19	25
5	0xc6	-58
6	0xd7	-41
7	0x20	32
8	0x40	64
9	0xbb	-69
10	0x27	39
11	0x15	21
12	0xec	-20
13	0xe0	-32
14	0x0b	11
15	0x10	16
16	0xdd	-35
17	0xef	-17
18	0x0e	14
19	0xeb	-21
20	0x93	-109
21	0xfe	-2
22	0xa9	-87
23	0xd4	-44
24	0x07	7
25	0x3a	58
26	0x16	22
27	0xe5	-27
28	0xfd	-3
29	0xe3	-29
30	0xc2	-62
31	0xff	-1
32	0xaf	-81
33	0xc7	-57
34	0xbb	-69
35	0xe9	-23
36	0xd4	-44
37	0x11	17
38	0x81	-127
39	0x06	6
40	0x2d	45
41	0xd5	-43
42	0xe8	-24
43	0x2e	46
44	0xb5	-75
45	0xec	-20
46	0xf9	-7
47	0x04	4
48	0x9c	-100
49	0x08	8
50	0x8b	-117
51	0xfd	-3
52	0x9d	-99
53	0x01	1
54	0xc7	-57
55	0x3e	62
56	0xe2	-30
57	0xe3	-29
58	0x90	-112
59	0x20	32
60	0x97	-105
61	0xf1	-15
62	0x86	-122
63	0xc8	-56
64	0x9e	-98
65	0x94	-108
66	0x04	4
67	0xe1	-31
68	0x06	6
69	0xc2	-62
70	0x25	37
71	0xa8	-88
72	0x1f	31
73	0x10	16
74	0xb4	-76
75	0x4b	75
76	0x3e	62
77	0x03	3
78	0xa9	-87
79	0x0c	12
80	0x0f	15
81	0x2d	45
82	0xcf	-49
83	0xd0	-48
84	0xb9	-71
85	0x02	2
86	0xc6	-58
87	0xf8	-8
88	0x0f	15
89	0xf6	-10
90	0xbe	-66
91	0x3e	62
92	0xf2	-14
93	0x0e	14
94	0x04	4
95	0xd4	-44
96	0x34	52
97	0x20	32
98	0xab	-85
99	0xfd	-3
100	0xe2	-30
101	0x99	-103
102	0xd5	-43
103	0x16	22
104	0xd4	-44
105	0xe4	-28
106	0xb6	-74
107	0xed	-19
108	0xf0	-16
109	0x13	19
110	0x0e	14
111	0xba	-70
112	0x4c	76
113	0xd4	-44
114	0xd7	-41
115	0x4c	76
116	0xad	-83
117	0x09	9
118	0x27	39
119	0x3c	60
120	0x05	5
121	0x21	33
122	0x9f	-97
123	0x3b	59
124	0x96	-106
125	0x06	6
126	0x07	7
127	0x03	3
128	0xbd	-67
129	0xe6	-26
130	0xd8	-40
131	0x29	41
132	0xcd	-51
133	0xde	-34
134	0xa4	-92
135	0xfd	-3
136	0x81	-127
137	0x9e	-98
138	0xed	-19
139	0xb3	-77
140	0xfa	-6
141	0x91	-111
142	0x28	40
143	0xd6	-42
144	0x24	36
145	0x08	8
146	0xf3	-13
147	0x42	66
148	0xfb	-5
149	0xd1	-47
150	0x26	38
151	0xff	-1
152	0xe7	-25
153	0x16	22
154	0xf3	-13
155	0xde	-34
156	0x29	41
157	0x0f	15
158	0x0e	14
159	0xd7	-41
160	0x3d	61
161	0xeb	-21
162	0x35	53
163	0xed	-19
164	0x05	5
165	0x32	50
166	0x3d	61
167	0x27	39
168	0x07	7
169	0xff	-1
170	0x1d	29
171	0xed	-19
172	0xf3	-13
173	0x2a	42
174	0x0b	11
175	0x0f	15
176	0xa9	-87
177	0x2f	47
178	0xc6	-58
179	0x01	1
180	0x17	23
181	0xcb	-53
182	0xdf	-33
183	0xf8	-8
184	0xd2	-46
185	0xfb	-5
186	0xd6	-42
187	0xe3	-29
188	0xde	-34
189	0xde	-34
190	0x32	50
191	0x1c	28
192	0x91	-111
193	0x05	5
194	0x9c	-100
195	0xe0	-32
196	0xd2	-46
197	0xaf	-81
198	0x8f	-113
199	0x2e	46
200	0x43	67
201	0xcf	-49
202	0xc6	-58
203	0x1e	30
204	0x9d	-99
205	0x2b	43
206	0xa9	-87
207	0xfa	-6
208	0xb9	-71
209	0xb2	-78
210	0xe5	-27
211	0xf7	-9
212	0xbd	-67
213	0x81	-127
214	0xf8	-8
215	0x96	-106
216	0x48	72
217	0x09	9
218	0xb7	-73
219	0x11	17
220	0xf6	-10
221	0x01	1
222	0x03	3
223	0xf0	-16
224	0x1a	26
225	0x01	1
226	0xf5	-11
227	0x2a	42
228	0x24	36
229	0x3c	60
230	0x37	55
231	0xd2	-46
232	0x0e	14
233	0x02	2
234	0x10	16
235	0xe5	-27
236	0x24	36
237	0x30	48
238	0x1c	28
239	0x30	48
240	0x2b	43
241	0xdf	-33
242	0xf2	-14
243	0xe2	-30
244	0xf8	-8
245	0xe6	-26
246	0x49	73
247	0x04	4
248	0xc4	-60
249	0x34	52
250	0x05	5
251	0x0f	15
252	0xd8	-40
253	0xc6	-58
254	0x27	39
255	0xf6	-10

model_2/stream_31/conv2d_64/Conv2D i1 [24, 5, 1, 24]
0	0x1a	26
1	0xee	-18
2	0xd5	-43
3	0x34	52
4	0xfb	-5
5	0x18	24
6	0x18	24
7	0xf5	-11
8	0xfe	-2
9	0x11	17
10	0x28	40
11	0x04	4
12	0xde	-34
13	0xf3	-13
14	0xe9	-23
15	0x4e	78
16	0x16	22
17	0x2a	42
18	0x14	20
19	0x09	9
20	0x05	5
21	0xe4	-28
22	0xd3	-45
23	0xd0	-48
24	0x5c	92
25	0xfe	-2
26	0x21	33
27	0x24	36
28	0x2f	47
29	0xf1	-15
30	0xfd	-3
31	0xed	-19
32	0x09	9
33	0x0d	13
34	0x20	32
35	0x21	33
36	0xe9	-23
37	0xd7	-41
38	0x24	36
39	0x13	19
40	0x12	18
41	0x40	64
42	0x0f	15
43	0x1f	31
44	0x60	96
45	0x02	2
46	0xe8	-24
47	0xdd	-35
48	0x75	117
49	0xf6	-10
50	0x18	24
51	0x7f	127
52	0x5e	94
53	0xdf	-33
54	0x0c	12
55	0xd6	-42
56	0x04	4
57	0xfc	-4
58	0x3c	60
59	0x2a	42
60	0x11	17
61	0xf7	-9
62	0x17	23
63	0x18	24
64	0xfc	-4
65	0x24	36
66	0xed	-19
67	0xf8	-8
68	0x7a	122
69	0xeb	-21
70	0xd0	-48
71	0xf0	-16
72	0x7f	127
73	0xe5	-27
74	0x14	20
75	0x57	87
76	0x38	56
77	0xeb	-21
78	0x2a	42
79	0xc8	-56
80	0xfd	-3
81	0xef	-17
82	0x1c	28
83	0x21	33
84	0x1b	27
85	0xed	-19
86	0x1f	31
87	0x13	19
88	0x20	32
89	0x1b	27
90	0xf8	-8
91	0xff	-1
92	0x69	105
93	0xed	-19
94	0xe4	-28
95	0xff	-1
96	0x6e	110
97	0xef	-17
98	0x39	57
99	0x54	84
100	0x22	34
101	0xef	-17
102	0x10	16
103	0xb9	-71
104	0xf6	-10
105	0xe6	-26
106	0x16	22
107	0x1b	27
108	0xf7	-9
109	0xe8	-24
110	0x11	17
111	0x1e	30
112	0x18	24
113	0x3b	59
114	0xca	-54
115	0xdc	-36
116	0x5b	91
117	0x19	25
118	0xfa	-6
119	0xed	-19
120	0xea	-22
121	0x39	57
122	0x25	37
123	0xe1	-31
124	0xd8	-40
125	0x09	9
126	0x0f	15
127	0x02	2
128	0xfb	-5
129	0x02	2
130	0xe6	-26
131	0xb2	-78
132	0xfa	-6
133	0x19	25
134	0x81	-127
135	0xce	-50
136	0x13	19
137	0xf9	-7
138	0x51	81
139	0xd5	-43
140	0xd2	-46
141	0xd7	-41
142	0xe1	-31
143	0xe0	-32
144	0x0d	13
145	0x2f	47
146	0x01	1
147	0xea	-22
148	0xf9	-7
149	0x0e	14
150	0xfa	-6
151	0x10	16
152	0xee	-18
153	0x09	9
154	0x01	1
155	0xd5	-43
156	0xf5	-11
157	0xf2	-14
158	0xa3	-93
159	0xf2	-14
160	0x0b	11
161	0xe5	-27
162	0x29	41
163	0xe4	-28
164	0xe3	-29
165	0x06	6
166	0x10	16
167	0xd4	-44
168	0x0a	10
169	0x14	20
170	0x0f	15
171	0xe0	-32
172	0xeb	-21
173	0xf5	-11
174	0x0f	15
175	0x09	9
176	0xf1	-15
177	0x0e	14
178	0x0e	14
179	0xe7	-25
180	0x0c	12
181	0xf5	-11
182	0xc8	-56
183	0x1a	26
184	0xfa	-6
185	0xfd	-3
186	0x06	6
187	0xf5	-11
188	0xf2	-14
189	0xf5	-11
190	0xfe	-2
191	0xf1	-15
192	0xff	-1
193	0x1a	26
194	0xfc	-4
195	0x01	1
196	0x09	9
197	0xf4	-12
198	0xd0	-48
199	0x1d	29
200	0xfd	-3
201	0xdf	-33
202	0x1b	27
203	0xfb	-5
204	0x08	8
205	0xd8	-40
206	0xcb	-53
207	0xec	-20
208	0xf8	-8
209	0x12	18
210	0x12	18
211	0xe5	-27
212	0xd8	-40
213	0xf5	-11
214	0x05	5
215	0x00	0
216	0x02	2
217	0x01	1
218	0xec	-20
219	0x05	5
220	0x0d	13
221	0xe4	-28
222	0xb2	-78
223	0x36	54
224	0x13	19
225	0xeb	-21
226	0x18	24
227	0x2b	43
228	0xf7	-9
229	0xb9	-71
230	0xc5	-59
231	0xe4	-28
232	0xf8	-8
233	0x04	4
234	0xf9	-7
235	0xf4	-12
236	0xdf	-33
237	0xfb	-5
238	0x1d	29
239	0xf5	-11
240	0x71	113
241	0x06	6
242	0x37	55
243	0x4d	77
244	0x5c	92
245	0x28	40
246	0x0a	10
247	0x32	50
248	0x38	56
249	0xd7	-41
250	0x2f	47
251	0x2e	46
252	0x66	102
253	0xf9	-7
254	0xdb	-37
255	0xf0	-16

model_2/stream_30/conv2d_63/Conv2D i1 [24, 5, 1, 24]
0	0xf4	-12
1	0x0b	11
2	0x00	0
3	0x2a	42
4	0xf7	-9
5	0x0c	12
6	0x1f	31
7	0xfd	-3
8	0x0e	14
9	0xf0	-16
10	0x03	3
11	0x17	23
12	0x28	40
13	0x1a	26
14	0x22	34
15	0x24	36
16	0x2e	46
17	0x10	16
18	0x10	16
19	0x17	23
20	0x04	4
21	0x11	17
22	0x09	9
23	0xf2	-14
24	0x03	3
25	0x0b	11
26	0xe5	-27
27	0x27	39
28	0x0c	12
29	0x1a	26
30	0x12	18
31	0x1d	29
32	0x1e	30
33	0xfb	-5
34	0x22	34
35	0x07	7
36	0x1a	26
37	0xf6	-10
38	0xfd	-3
39	0x1d	29
40	0x28	40
41	0xff	-1
42	0x19	25
43	0x1b	27
44	0x0b	11
45	0x0c	12
46	0x10	16
47	0xe7	-25
48	0x1f	31
49	0x1c	28
50	0xfc	-4
51	0x40	64
52	0x3d	61
53	0x04	4
54	0xe8	-24
55	0x24	36
56	0x16	22
57	0x02	2
58	0x33	51
59	0x02	2
60	0x2a	42
61	0x03	3
62	0x23	35
63	0x2e	46
64	0x1d	29
65	0xdb	-37
66	0x03	3
67	0x13	19
68	0x00	0
69	0x11	17
70	0x1e	30
71	0xf4	-12
72	0x25	37
73	0x19	25
74	0xf7	-9
75	0x49	73
76	0x43	67
77	0x1e	30
78	0xf7	-9
79	0x24	36
80	0x00	0
81	0x00	0
82	0x5f	95
83	0xf1	-15
84	0x11	17
85	0x10	16
86	0x17	23
87	0x34	52
88	0x28	40
89	0xe6	-26
90	0x08	8
91	0x24	36
92	0x10	16
93	0xf9	-7
94	0x11	17
95	0xf1	-15
96	0x06	6
97	0x26	38
98	0x01	1
99	0x52	82
100	0x5e	94
101	0x1e	30
102	0xfe	-2
103	0x1c	28
104	0xfd	-3
105	0xf6	-10
106	0x7f	127
107	0x0e	14
108	0x12	18
109	0x18	24
110	0x1b	27
111	0x4a	74
112	0x22	34
113	0x0f	15
114	0x0e	14
115	0x1b	27
116	0xec	-20
117	0x08	8
118	0x1e	30
119	0xf9	-7
120	0xa6	-90
121	0x67	103
122	0x4c	76
123	0x3b	59
124	0xc2	-62
125	0xe9	-23
126	0xc2	-62
127	0x2b	43
128	0x2b	43
129	0x17	23
130	0xf7	-9
131	0x7f	127
132	0x0e	14
133	0x32	50
134	0x3a	58
135	0xf7	-9
136	0x99	-103
137	0xb7	-73
138	0x4b	75
139	0xe4	-28
140	0x08	8
141	0xdb	-37
142	0x88	-120
143	0x46	70
144	0xec	-20
145	0x29	41
146	0x57	87
147	0x35	53
148	0xfb	-5
149	0xd4	-44
150	0xec	-20
151	0x03	3
152	0x27	39
153	0xf1	-15
154	0xfe	-2
155	0x2f	47
156	0x1a	26
157	0x0a	10
158	0x36	54
159	0x0d	13
160	0xaa	-86
161	0x9a	-102
162	0x1f	31
163	0xe9	-23
164	0x27	39
165	0xe3	-29
166	0xe2	-30
167	0x35	53
168	0xfd	-3
169	0x03	3
170	0x5a	90
171	0x0e	14
172	0xe7	-25
173	0x01	1
174	0xfe	-2
175	0xde	-34
176	0x1d	29
177	0xf1	-15
178	0x32	50
179	0x02	2
180	0xf6	-10
181	0x00	0
182	0x42	66
183	0xea	-22
184	0xbb	-69
185	0xc9	-55
186	0x18	24
187	0x02	2
188	0x06	6
189	0x10	16
190	0x0e	14
191	0x15	21
192	0x1e	30
193	0x13	19
194	0x52	82
195	0x2d	45
196	0x05	5
197	0x0e	14
198	0xb8	-72
199	0xfb	-5
200	0x30	48
201	0xd9	-39
202	0xee	-18
203	0x06	6
204	0xef	-17
205	0x0c	12
206	0x51	81
207	0x17	23
208	0xf9	-7
209	0xc2	-62
210	0xcc	-52
211	0xde	-34
212	0xca	-54
213	0x1e	30
214	0xf2	-14
215	0x10	16
216	0x39	57
217	0x12	18
218	0x1c	28
219	0x25	37
220	0x12	18
221	0x0c	12
222	0xd2	-46
223	0xe8	-24
224	0x4d	77
225	0xd7	-41
226	0xd4	-44
227	0xdf	-33
228	0xf8	-8
229	0x14	20
230	0x78	120
231	0x30	48
232	0xf6	-10
233	0xdd	-35
234	0xd8	-40
235	0xee	-18
236	0x94	-108
237	0x28	40
238	0xf9	-7
239	0x1f	31
240	0xc7	-57
241	0x3f	63
242	0x34	52
243	0x24	36
244	0xda	-38
245	0xc6	-58
246	0xa4	-92
247	0x33	51
248	0x11	17
249	0xee	-18
250	0xf2	-14
251	0xe7	-25
252	0x0f	15
253	0x4c	76
254	0xf5	-11
255	0x12	18

model_2/conv2d_62/Conv2D i1 [24, 1, 1, 64]
0	0xef	-17
1	0x9a	-102
2	0xfb	-5
3	0xf3	-13
4	0x6d	109
5	0xf2	-14
6	0xd6	-42
7	0x5d	93
8	0xdd	-35
9	0x11	17
10	0xa4	-92
11	0x27	39
12	0x93	-109
13	0xeb	-21
14	0x20	32
15	0x47	71
16	0x1c	28
17	0xce	-50
18	0x15	21
19	0xc9	-55
20	0xf3	-13
21	0xe7	-25
22	0xd9	-39
23	0x1e	30
24	0xf8	-8
25	0x0f	15
26	0x81	-127
27	0x10	16
28	0x02	2
29	0x61	97
30	0xf5	-11
31	0xed	-19
32	0x23	35
33	0xd9	-39
34	0xd7	-41
35	0x02	2
36	0x6f	111
37	0xa4	-92
38	0xcc	-52
39	0x40	64
40	0x37	55
41	0x93	-109
42	0x11	17
43	0xd5	-43
44	0xe3	-29
45	0xf2	-14
46	0x0e	14
47	0x11	17
48	0xb5	-75
49	0x0e	14
50	0x22	34
51	0x06	6
52	0xfa	-6
53	0xe8	-24
54	0xf7	-9
55	0x11	17
56	0xe8	-24
57	0x2a	42
58	0x59	89
59	0xe1	-31
60	0x52	82
61	0x22	34
62	0xf4	-12
63	0x5a	90
64	0x0b	11
65	0x02	2
66	0x81	-127
67	0x1b	27
68	0xce	-50
69	0xed	-19
70	0x2b	43
71	0xb3	-77
72	0x23	35
73	0x27	39
74	0x06	6
75	0xbe	-66
76	0x24	36
77	0xa3	-93
78	0x00	0
79	0x04	4
80	0xf6	-10
81	0xd0	-48
82	0xb7	-73
83	0xc1	-63
84	0xdb	-37
85	0x38	56
86	0x21	33
87	0x1f	31
88	0xc9	-55
89	0xbf	-65
90	0x35	53
91	0x11	17
92	0xf1	-15
93	0x0d	13
94	0x24	36
95	0xfb	-5
96	0x02	2
97	0x2b	43
98	0xd8	-40
99	0x30	48
100	0xab	-85
101	0xd4	-44
102	0xbf	-65
103	0xde	-34
104	0xcf	-49
105	0x5c	92
106	0x18	24
107	0x5a	90
108	0x38	56
109	0xcd	-51
110	0x0d	13
111	0x4a	74
112	0xc5	-59
113	0xac	-84
114	0xc6	-58
115	0xce	-50
116	0x4f	79
117	0xe8	-24
118	0xde	-34
119	0xca	-54
120	0x00	0
121	0x3a	58
122	0xb5	-75
123	0xe7	-25
124	0x2d	45
125	0xd2	-46
126	0xda	-38
127	0x1f	31
128	0x1a	26
129	0x33	51
130	0xf4	-12
131	0xf9	-7
132	0xd9	-39
133	0x09	9
134	0x08	8
135	0xcf	-49
136	0x21	33
137	0x1c	28
138	0xf1	-15
139	0x03	3
140	0xde	-34
141	0xd7	-41
142	0x2b	43
143	0xb9	-71
144	0xfa	-6
145	0x54	84
146	0xa7	-89
147	0xee	-18
148	0x26	38
149	0x49	73
150	0x9e	-98
151	0x19	25
152	0x90	-112
153	0x6c	108
154	0xea	-22
155	0xc8	-56
156	0xe0	-32
157	0x04	4
158	0x35	53
159	0xf2	-14
160	0x41	65
161	0x38	56
162	0xef	-17
163	0xff	-1
164	0xc5	-59
165	0xcc	-52
166	0xf9	-7
167	0xe5	-27
168	0xb3	-77
169	0x2b	43
170	0x0a	10
171	0x01	1
172	0x31	49
173	0x02	2
174	0x0f	15
175	0x17	23
176	0xce	-50
177	0x23	35
178	0x19	25
179	0x81	-127
180	0x6f	111
181	0x00	0
182	0x08	8
183	0xef	-17
184	0xf6	-10
185	0xf3	-13
186	0xfe	-2
187	0xd9	-39
188	0xc7	-57
189	0x1c	28
190	0x18	24
191	0x19	25
192	0x22	34
193	0xea	-22
194	0x7f	127
195	0x3b	59
196	0xe0	-32
197	0xc5	-59
198	0xe2	-30
199	0x09	9
200	0x01	1
201	0xda	-38
202	0xbf	-65
203	0x26	38
204	0x02	2
205	0x2c	44
206	0x0a	10
207	0x4d	77
208	0x3a	58
209	0x2a	42
210	0xda	-38
211	0x08	8
212	0x27	39
213	0x09	9
214	0xd2	-46
215	0xd7	-41
216	0x34	52
217	0x26	38
218	0x2f	47
219	0x5a	90
220	0x0a	10
221	0x27	39
222	0x28	40
223	0x52	82
224	0xb4	-76
225	0x28	40
226	0x71	113
227	0x30	48
228	0x19	25
229	0xfb	-5
230	0xf9	-7
231	0x0d	13
232	0x27	39
233	0x0b	11
234	0x3e	62
235	0x2e	46
236	0xe5	-27
237	0x45	69
238	0x38	56
239	0xf8	-8
240	0xf4	-12
241	0x1b	27
242	0x03	3
243	0x33	51
244	0x05	5
245	0x33	51
246	0xdc	-36
247	0x2d	45
248	0xf1	-15
249	0xec	-20
250	0xea	-22
251	0x47	71
252	0xdb	-37
253	0x17	23
254	0xdc	-36
255	0xca	-54

model_2/stream_29/conv2d_61/Conv2D i1 [24, 5, 1, 24]
0	0x0a	10
1	0x10	16
2	0xc4	-60
3	0xf5	-11
4	0x0a	10
5	0x1d	29
6	0x1e	30
7	0x14	20
8	0x48	72
9	0xd9	-39
10	0xf2	-14
11	0xe9	-23
12	0x4d	77
13	0xe8	-24
14	0xfb	-5
15	0x9c	-100
16	0x19	25
17	0x02	2
18	0x06	6
19	0xc9	-55
20	0x24	36
21	0xfd	-3
22	0x0e	14
23	0x29	41
24	0x1b	27
25	0xdf	-33
26	0xc4	-60
27	0xdf	-33
28	0x1d	29
29	0xf8	-8
30	0x23	35
31	0xe5	-27
32	0x35	53
33	0xd7	-41
34	0x1a	26
35	0x09	9
36	0x34	52
37	0xe9	-23
38	0x2d	45
39	0xfa	-6
40	0x1c	28
41	0x00	0
42	0xee	-18
43	0xdf	-33
44	0xed	-19
45	0xf9	-7
46	0x0b	11
47	0x38	56
48	0x0a	10
49	0xb1	-79
50	0xf7	-9
51	0xd5	-43
52	0xec	-20
53	0x08	8
54	0x07	7
55	0xe8	-24
56	0x34	52
57	0x29	41
58	0x1d	29
59	0x2c	44
60	0x52	82
61	0xf6	-10
62	0x4e	78
63	0x12	18
64	0x3a	58
65	0x06	6
66	0x1c	28
67	0x0a	10
68	0xfd	-3
69	0x2e	46
70	0xf5	-11
71	0xff	-1
72	0xfa	-6
73	0xbe	-66
74	0x07	7
75	0xbc	-68
76	0xf7	-9
77	0xda	-38
78	0xff	-1
79	0xd3	-45
80	0xfc	-4
81	0x05	5
82	0x16	22
83	0x03	3
84	0x27	39
85	0xd6	-42
86	0x7f	127
87	0xfa	-6
88	0x1e	30
89	0xf3	-13
90	0x3a	58
91	0x15	21
92	0xd7	-41
93	0x09	9
94	0xdd	-35
95	0xe6	-26
96	0xfc	-4
97	0xe3	-29
98	0xfd	-3
99	0xe3	-29
100	0x0c	12
101	0xd2	-46
102	0xf0	-16
103	0xd6	-42
104	0xc9	-55
105	0x04	4
106	0xec	-20
107	0x29	41
108	0xff	-1
109	0xd3	-45
110	0x63	99
111	0xfc	-4
112	0x1c	28
113	0x06	6
114	0x1a	26
115	0x13	19
116	0x01	1
117	0x46	70
118	0xd7	-41
119	0xc1	-63
120	0x06	6
121	0xdb	-37
122	0x2e	46
123	0xed	-19
124	0xc5	-59
125	0x04	4
126	0x05	5
127	0x1e	30
128	0xf1	-15
129	0x06	6
130	0xe1	-31
131	0xd1	-47
132	0x08	8
133	0x33	51
134	0x37	55
135	0x0b	11
136	0x0a	10
137	0x02	2
138	0x27	39
139	0x40	64
140	0xba	-70
141	0x51	81
142	0xf7	-9
143	0xdc	-36
144	0xff	-1
145	0x01	1
146	0x22	34
147	0xfe	-2
148	0xde	-34
149	0xf4	-12
150	0xeb	-21
151	0x3e	62
152	0xed	-19
153	0x08	8
154	0xc1	-63
155	0xac	-84
156	0x02	2
157	0x3a	58
158	0x1e	30
159	0x06	6
160	0x0a	10
161	0xf9	-7
162	0x38	56
163	0x4e	78
164	0xed	-19
165	0x1a	26
166	0xd9	-39
167	0xf1	-15
168	0x00	0
169	0xec	-20
170	0x50	80
171	0xe3	-29
172	0xf4	-12
173	0xf8	-8
174	0xbd	-67
175	0x3f	63
176	0x2d	45
177	0x32	50
178	0xbe	-66
179	0xc8	-56
180	0x4b	75
181	0xf6	-10
182	0x3b	59
183	0xfd	-3
184	0xfe	-2
185	0xda	-38
186	0x21	33
187	0x41	65
188	0xd6	-42
189	0x3c	60
190	0xfd	-3
191	0xd6	-42
192	0xcf	-49
193	0xde	-34
194	0x2c	44
195	0x08	8
196	0x08	8
197	0xf1	-15
198	0xc4	-60
199	0x19	25
200	0x29	41
201	0x1b	27
202	0xea	-22
203	0xce	-50
204	0x4b	75
205	0xe6	-26
206	0x4c	76
207	0xf7	-9
208	0xff	-1
209	0xe2	-30
210	0x3d	61
211	0x27	39
212	0xb1	-79
213	0x59	89
214	0xff	-1
215	0xd7	-41
216	0xd4	-44
217	0xea	-22
218	0x39	57
219	0x10	16
220	0x0a	10
221	0xf5	-11
222	0xc3	-61
223	0x38	56
224	0x22	34
225	0x28	40
226	0xdd	-35
227	0xc7	-57
228	0x5c	92
229	0xda	-38
230	0x7f	127
231	0xe7	-25
232	0xf5	-11
233	0xfc	-4
234	0x70	112
235	0x2a	42
236	0xb6	-74
237	0x2d	45
238	0xf5	-11
239	0xd8	-40
240	0xe6	-26
241	0xb7	-73
242	0xdd	-35
243	0x03	3
244	0x22	34
245	0xee	-18
246	0xca	-54
247	0xf6	-10
248	0x09	9
249	0xed	-19
250	0x3b	59
251	0x23	35
252	0xed	-19
253	0x2c	44
254	0x24	36
255	0xd0	-48

model_2/conv2d_60/Conv2D i1 [24, 1, 1, 64]
0	0x12	18
1	0x01	1
2	0x4d	77
3	0x1a	26
4	0xf7	-9
5	0xcc	-52
6	0xf0	-16
7	0xb7	-73
8	0xdc	-36
9	0xd6	-42
10	0x3e	62
11	0xfe	-2
12	0xa7	-89
13	0xee	-18
14	0xef	-17
15	0xd5	-43
16	0x35	53
17	0x29	41
18	0x18	24
19	0x7f	127
20	0x06	6
21	0xc3	-61
22	0x3f	63
23	0xc2	-62
24	0x17	23
25	0x44	68
26	0xcd	-51
27	0xee	-18
28	0x22	34
29	0x09	9
30	0x38	56
31	0xcf	-49
32	0x03	3
33	0xe9	-23
34	0x46	70
35	0x3b	59
36	0xf0	-16
37	0x01	1
38	0xe7	-25
39	0x01	1
40	0x31	49
41	0x68	104
42	0xdd	-35
43	0x35	53
44	0x18	24
45	0xee	-18
46	0xb0	-80
47	0xe2	-30
48	0xe8	-24
49	0xe0	-32
50	0xe2	-30
51	0xdd	-35
52	0x07	7
53	0xdf	-33
54	0x5c	92
55	0x01	1
56	0xd8	-40
57	0x3f	63
58	0xbb	-69
59	0xf4	-12
60	0xd8	-40
61	0x2b	43
62	0x3a	58
63	0xfb	-5
64	0x00	0
65	0xac	-84
66	0x09	9
67	0xcc	-52
68	0x19	25
69	0x26	38
70	0xcb	-53
71	0x58	88
72	0xe0	-32
73	0x1b	27
74	0x04	4
75	0xed	-19
76	0x7f	127
77	0xd1	-47
78	0xe9	-23
79	0x3c	60
80	0x6c	108
81	0xc9	-55
82	0x40	64
83	0x4b	75
84	0xf6	-10
85	0xd5	-43
86	0xf4	-12
87	0x40	64
88	0x20	32
89	0x46	70
90	0x53	83
91	0x95	-107
92	0x14	20
93	0xf7	-9
94	0xcd	-51
95	0x5b	91
96	0x4f	79
97	0xb7	-73
98	0xf7	-9
99	0xfe	-2
100	0x2b	43
101	0xfb	-5
102	0xfa	-6
103	0x04	4
104	0x24	36
105	0xd1	-47
106	0x10	16
107	0xe2	-30
108	0x0f	15
109	0x47	71
110	0x09	9
111	0x0f	15
112	0xa9	-87
113	0x06	6
114	0xf2	-14
115	0x4c	76
116	0x35	53
117	0xe3	-29
118	0x48	72
119	0xf2	-14
120	0xe7	-25
121	0xae	-82
122	0xe7	-25
123	0x2a	42
124	0x50	80
125	0xbf	-65
126	0x09	9
127	0xff	-1
128	0xbf	-65
129	0xd6	-42
130	0xde	-34
131	0x1f	31
132	0x09	9
133	0x01	1
134	0x09	9
135	0xce	-50
136	0x34	52
137	0x4e	78
138	0xdf	-33
139	0xf7	-9
140	0x35	53
141	0xec	-20
142	0xd2	-46
143	0xe4	-28
144	0xb0	-80
145	0x42	66
146	0x2f	47
147	0x04	4
148	0xfe	-2
149	0x3b	59
150	0xfd	-3
151	0xdb	-37
152	0x1a	26
153	0xc6	-58
154	0x9a	-102
155	0xba	-70
156	0xeb	-21
157	0x20	32
158	0xeb	-21
159	0x0a	10
160	0xf7	-9
161	0x03	3
162	0xe0	-32
163	0x4c	76
164	0x1f	31
165	0xd9	-39
166	0xf3	-13
167	0x35	53
168	0x0e	14
169	0x46	70
170	0x15	21
171	0xe8	-24
172	0x7f	127
173	0xc0	-64
174	0x0f	15
175	0x27	39
176	0x4e	78
177	0x04	4
178	0x45	69
179	0xde	-34
180	0x00	0
181	0xda	-38
182	0xe5	-27
183	0x46	70
184	0xff	-1
185	0x64	100
186	0x05	5
187	0xf7	-9
188	0x33	51
189	0xcb	-53
190	0x31	49
191	0x43	67
192	0xca	-54
193	0x11	17
194	0x12	18
195	0xfb	-5
196	0x53	83
197	0xe6	-26
198	0x30	48
199	0x16	22
200	0x03	3
201	0x02	2
202	0x44	68
203	0xe6	-26
204	0x06	6
205	0x26	38
206	0x68	104
207	0x19	25
208	0x08	8
209	0x0d	13
210	0xf2	-14
211	0x13	19
212	0x54	84
213	0x10	16
214	0x3f	63
215	0x1c	28
216	0xee	-18
217	0xec	-20
218	0xbd	-67
219	0xd3	-45
220	0xfe	-2
221	0x1b	27
222	0x35	53
223	0xd3	-45
224	0xea	-22
225	0xbe	-66
226	0x0c	12
227	0x4b	75
228	0x47	71
229	0x05	5
230	0xc6	-58
231	0x94	-108
232	0xe9	-23
233	0x35	53
234	0xda	-38
235	0x0b	11
236	0x1b	27
237	0x81	-127
238	0xba	-70
239	0xe7	-25
240	0x4a	74
241	0xad	-83
242	0xa2	-94
243	0xae	-82
244	0xb9	-71
245	0xfb	-5
246	0xdb	-37
247	0x31	49
248	0x0d	13
249	0xd0	-48
250	0xff	-1
251	0xe7	-25
252	0x26	38
253	0x17	23
254	0xe2	-30
255	0x04	4

model_2/conv2d_59/Conv2D i1 [24, 1, 1, 64]
0	0x9b	-101
1	0xce	-50
2	0x18	24
3	0x21	33
4	0xc3	-61
5	0x2e	46
6	0xac	-84
7	0x04	4
8	0x37	55
9	0x11	17
10	0xce	-50
11	0xb9	-71
12	0x16	22
13	0xdc	-36
14	0x0d	13
15	0x17	23
16	0xa8	-88
17	0xb6	-74
18	0x17	23
19	0x13	19
20	0xb6	-74
21	0x30	48
22	0xef	-17
23	0x0f	15
24	0xf1	-15
25	0x0f	15
26	0xf3	-13
27	0x81	-127
28	0x23	35
29	0x0e	14
30	0x8a	-118
31	0x0b	11
32	0x20	32
33	0xc2	-62
34	0xe9	-23
35	0xef	-17
36	0x15	21
37	0xff	-1
38	0x39	57
39	0xe2	-30
40	0x60	96
41	0xf2	-14
42	0xce	-50
43	0xcc	-52
44	0x04	4
45	0xe6	-26
46	0x25	37
47	0x28	40
48	0x13	19
49	0xe8	-24
50	0x1e	30
51	0xf5	-11
52	0xef	-17
53	0x0a	10
54	0xdd	-35
55	0xdb	-37
56	0xbb	-69
57	0xee	-18
58	0xd2	-46
59	0xd8	-40
60	0x04	4
61	0xbb	-69
62	0xf2	-14
63	0x27	39
64	0x00	0
65	0x2f	47
66	0xa9	-87
67	0x4c	76
68	0x27	39
69	0x20	32
70	0x54	84
71	0xc5	-59
72	0x64	100
73	0x1f	31
74	0xcb	-53
75	0xa9	-87
76	0x19	25
77	0xec	-20
78	0xf9	-7
79	0xa2	-94
80	0xb9	-71
81	0x33	51
82	0x13	19
83	0xec	-20
84	0x01	1
85	0x39	57
86	0xb1	-79
87	0x33	51
88	0x90	-112
89	0xdd	-35
90	0xfb	-5
91	0x1e	30
92	0x22	34
93	0x37	55
94	0x08	8
95	0xc6	-58
96	0xfa	-6
97	0x28	40
98	0xa1	-95
99	0x10	16
100	0x25	37
101	0xeb	-21
102	0x05	5
103	0x57	87
104	0x1b	27
105	0xf5	-11
106	0xf7	-9
107	0x20	32
108	0x37	55
109	0xf1	-15
110	0xd2	-46
111	0x7f	127
112	0x01	1
113	0xac	-84
114	0x5f	95
115	0x1c	28
116	0xc5	-59
117	0xc6	-58
118	0xd8	-40
119	0x0d	13
120	0xb6	-74
121	0xfe	-2
122	0x04	4
123	0xb7	-73
124	0xf3	-13
125	0xdf	-33
126	0xd5	-43
127	0x0c	12
128	0xd1	-47
129	0x6a	106
130	0xf1	-15
131	0xf2	-14
132	0xc5	-59
133	0xfb	-5
134	0x56	86
135	0x2e	46
136	0xce	-50
137	0xd9	-39
138	0xba	-70
139	0xf5	-11
140	0xed	-19
141	0x28	40
142	0xe4	-28
143	0x1b	27
144	0x3d	61
145	0xfa	-6
146	0x0f	15
147	0x6a	106
148	0xe8	-24
149	0x5d	93
150	0xbe	-66
151	0x0a	10
152	0x0f	15
153	0x24	36
154	0x01	1
155	0x32	50
156	0x12	18
157	0x2f	47
158	0x28	40
159	0x0d	13
160	0xdd	-35
161	0x7f	127
162	0x64	100
163	0x37	55
164	0xd4	-44
165	0x3d	61
166	0xfc	-4
167	0xeb	-21
168	0x08	8
169	0xf4	-12
170	0x43	67
171	0x3a	58
172	0xe3	-29
173	0xf9	-7
174	0xe9	-23
175	0xd8	-40
176	0xef	-17
177	0x38	56
178	0x1f	31
179	0xfc	-4
180	0xf3	-13
181	0x66	102
182	0xea	-22
183	0xd7	-41
184	0xe3	-29
185	0xd8	-40
186	0x4e	78
187	0xc2	-62
188	0x18	24
189	0x22	34
190	0x12	18
191	0x00	0
192	0x03	3
193	0xbd	-67
194	0x3d	61
195	0x10	16
196	0x84	-124
197	0x93	-109
198	0x04	4
199	0xe2	-30
200	0xe1	-31
201	0xf3	-13
202	0xa6	-90
203	0xfb	-5
204	0xec	-20
205	0x30	48
206	0xf4	-12
207	0xf2	-14
208	0x02	2
209	0x0a	10
210	0x04	4
211	0x1a	26
212	0x0a	10
213	0xc2	-62
214	0xe9	-23
215	0x98	-104
216	0x16	22
217	0x47	71
218	0x97	-105
219	0x2a	42
220	0xed	-19
221	0x00	0
222	0xdb	-37
223	0xd8	-40
224	0x0a	10
225	0xdc	-36
226	0x1a	26
227	0x4b	75
228	0xc0	-64
229	0xd9	-39
230	0xfb	-5
231	0xd2	-46
232	0x0d	13
233	0x03	3
234	0x81	-127
235	0x18	24
236	0x41	65
237	0x1e	30
238	0xfc	-4
239	0x25	37
240	0x03	3
241	0xa2	-94
242	0xa1	-95
243	0x14	20
244	0xc0	-64
245	0x0c	12
246	0xe3	-29
247	0x09	9
248	0x1e	30
249	0x37	55
250	0x1c	28
251	0x06	6
252	0x15	21
253	0xe5	-27
254	0xbe	-66
255	0xe2	-30

model_2/conv2d_58/Conv2D i1 [64, 1, 1, 72]
0	0xbc	-68
1	0xf7	-9
2	0x23	35
3	0x01	1
4	0xc7	-57
5	0x0f	15
6	0xd8	-40
7	0x39	57
8	0xf9	-7
9	0xd2	-46
10	0xf8	-8
11	0x23	35
12	0x15	21
13	0x9b	-101
14	0xfb	-5
15	0x7f	127
16	0x15	21
17	0x59	89
18	0x3a	58
19	0x1f	31
20	0xc7	-57
21	0xca	-54
22	0x7e	126
23	0xa4	-92
24	0x57	87
25	0xeb	-21
26	0xa1	-95
27	0x24	36
28	0x2b	43
29	0xb0	-80
30	0xfd	-3
31	0xdf	-33
32	0x66	102
33	0xa4	-92
34	0xc0	-64
35	0xff	-1
36	0xee	-18
37	0xf6	-10
38	0x31	49
39	0x60	96
40	0x14	20
41	0xe8	-24
42	0xcf	-49
43	0xcd	-51
44	0x19	25
45	0x16	22
46	0xe6	-26
47	0xab	-85
48	0x13	19
49	0x35	53
50	0xec	-20
51	0x05	5
52	0x5c	92
53	0x2c	44
54	0x0f	15
55	0x0f	15
56	0xe3	-29
57	0x32	50
58	0x29	41
59	0xd8	-40
60	0xf9	-7
61	0xb1	-79
62	0xa9	-87
63	0x26	38
64	0x3c	60
65	0xf1	-15
66	0x5f	95
67	0x2d	45
68	0x64	100
69	0x2b	43
70	0xfa	-6
71	0x31	49
72	0xef	-17
73	0x32	50
74	0x10	16
75	0x18	24
76	0x25	37
77	0x70	112
78	0x1f	31
79	0x42	66
80	0xb3	-77
81	0xff	-1
82	0x2c	44
83	0x1b	27
84	0xec	-20
85	0x09	9
86	0xfc	-4
87	0x12	18
88	0xdd	-35
89	0xf7	-9
90	0xed	-19
91	0x4b	75
92	0xe6	-26
93	0x22	34
94	0x26	38
95	0x0d	13
96	0x3d	61
97	0xf3	-13
98	0x23	35
99	0xe4	-28
100	0xdc	-36
101	0x2d	45
102	0xcc	-52
103	0xda	-38
104	0x7f	127
105	0x3c	60
106	0x29	41
107	0xe0	-32
108	0x02	2
109	0x23	35
110	0xf5	-11
111	0x45	69
112	0x63	99
113	0x3e	62
114	0x1f	31
115	0x32	50
116	0x2c	44
117	0xe2	-30
118	0xfc	-4
119	0xeb	-21
120	0x3b	59
121	0x2e	46
122	0xd2	-46
123	0x25	37
124	0xe8	-24
125	0x68	104
126	0xe3	-29
127	0xe9	-23
128	0xed	-19
129	0xec	-20
130	0xdb	-37
131	0xe8	-24
132	0x38	56
133	0xd5	-43
134	0x47	71
135	0x4a	74
136	0xd7	-41
137	0x2c	44
138	0xec	-20
139	0x14	20
140	0x33	51
141	0xb8	-72
142	0xee	-18
143	0x13	19
144	0xde	-34
145	0xbf	-65
146	0x0a	10
147	0xa9	-87
148	0x59	89
149	0x2a	42
150	0xfe	-2
151	0xe4	-28
152	0x01	1
153	0x61	97
154	0x13	19
155	0xdf	-33
156	0x4a	74
157	0x29	41
158	0x1f	31
159	0xfd	-3
160	0x39	57
161	0xcc	-52
162	0x03	3
163	0xc2	-62
164	0x0d	13
165	0x34	52
166	0xa4	-92
167	0x29	41
168	0x42	66
169	0x05	5
170	0x0c	12
171	0x2d	45
172	0xbd	-67
173	0xc0	-64
174	0x58	88
175	0xf9	-7
176	0xf8	-8
177	0x3b	59
178	0xbe	-66
179	0xc9	-55
180	0xad	-83
181	0x76	118
182	0x3d	61
183	0x11	17
184	0xcc	-52
185	0x26	38
186	0x7f	127
187	0xdf	-33
188	0x5e	94
189	0x33	51
190	0xc4	-60
191	0x1f	31
192	0x15	21
193	0xdd	-35
194	0x3c	60
195	0xef	-17
196	0x21	33
197	0xeb	-21
198	0x37	55
199	0xdd	-35
200	0x04	4
201	0x14	20
202	0x9e	-98
203	0x10	16
204	0x3f	63
205	0xa4	-92
206	0xaf	-81
207	0x2b	43
208	0x33	51
209	0x35	53
210	0xc3	-61
211	0xc9	-55
212	0x23	35
213	0x10	16
214	0xaf	-81
215	0xea	-22
216	0x12	18
217	0x0b	11
218	0x0f	15
219	0x30	48
220	0x16	22
221	0x14	20
222	0x27	39
223	0xcd	-51
224	0xe5	-27
225	0xb5	-75
226	0xfc	-4
227	0xed	-19
228	0x1c	28
229	0x42	66
230	0x3d	61
231	0xfd	-3
232	0xe8	-24
233	0xbc	-68
234	0xb2	-78
235	0xf5	-11
236	0x81	-127
237	0x48	72
238	0xfc	-4
239	0x1b	27
240	0xfd	-3
241	0x11	17
242	0x18	24
243	0xdb	-37
244	0xfa	-6
245	0x2f	47
246	0xb1	-79
247	0x15	21
248	0x12	18
249	0x2d	45
250	0xd1	-47
251	0x39	57
252	0x18	24
253	0xba	-70
254	0x03	3
255	0x25	37

model_2/stream_28/conv2d_57/Conv2D i1 [24, 5, 1, 24]
0	0x50	80
1	0x00	0
2	0x03	3
3	0xe1	-31
4	0xf7	-9
5	0x46	70
6	0x04	4
7	0xfc	-4
8	0x29	41
9	0x29	41
10	0xf0	-16
11	0xad	-83
12	0xe3	-29
13	0xca	-54
14	0xf9	-7
15	0xaa	-86
16	0x46	70
17	0x74	116
18	0x3a	58
19	0xad	-83
20	0xbb	-69
21	0x7f	127
22	0xd8	-40
23	0x52	82
24	0x2c	44
25	0x39	57
26	0x03	3
27	0xd7	-41
28	0xd6	-42
29	0x33	51
30	0x0c	12
31	0xdf	-33
32	0x1e	30
33	0x02	2
34	0x1d	29
35	0xd8	-40
36	0xe6	-26
37	0x09	9
38	0xaa	-86
39	0xdc	-36
40	0x26	38
41	0x32	50
42	0x24	36
43	0xdf	-33
44	0xe0	-32
45	0x3d	61
46	0xe9	-23
47	0x27	39
48	0x38	56
49	0x17	23
50	0xe1	-31
51	0x03	3
52	0xda	-38
53	0xfd	-3
54	0xb9	-71
55	0xd5	-43
56	0xfa	-6
57	0xf4	-12
58	0x2d	45
59	0x22	34
60	0xf0	-16
61	0xda	-38
62	0xb9	-71
63	0xe7	-25
64	0xdd	-35
65	0x12	18
66	0x11	17
67	0x08	8
68	0x16	22
69	0x1c	28
70	0xd7	-41
71	0x1f	31
72	0x4a	74
73	0x08	8
74	0x04	4
75	0x12	18
76	0xe5	-27
77	0xab	-85
78	0x91	-111
79	0xf9	-7
80	0xfe	-2
81	0xfb	-5
82	0x1c	28
83	0x57	87
84	0x08	8
85	0xeb	-21
86	0x1a	26
87	0x1e	30
88	0xbc	-68
89	0xb6	-74
90	0x1c	28
91	0x3b	59
92	0x31	49
93	0xf7	-9
94	0xdb	-37
95	0x00	0
96	0x1c	28
97	0xec	-20
98	0x0a	10
99	0x1c	28
100	0x2b	43
101	0x9b	-101
102	0xaa	-86
103	0xe9	-23
104	0xfa	-6
105	0xed	-19
106	0x1e	30
107	0x40	64
108	0xc3	-61
109	0x02	2
110	0x3e	62
111	0x03	3
112	0xd3	-45
113	0xcd	-51
114	0xe2	-30
115	0x63	99
116	0x4f	79
117	0x8b	-117
118	0x0d	13
119	0xc2	-62
120	0x5c	92
121	0x8a	-118
122	0x28	40
123	0xd8	-40
124	0x19	25
125	0x71	113
126	0x17	23
127	0x0e	14
128	0x26	38
129	0x07	7
130	0xe4	-28
131	0x30	48
132	0x3f	63
133	0xfe	-2
134	0x06	6
135	0x14	20
136	0xd7	-41
137	0x70	112
138	0x7f	127
139	0xb5	-75
140	0x0e	14
141	0x14	20
142	0xf6	-10
143	0x23	35
144	0xf2	-14
145	0xbc	-68
146	0x08	8
147	0x18	24
148	0xe7	-25
149	0x16	22
150	0xf0	-16
151	0x04	4
152	0x39	57
153	0xe5	-27
154	0x08	8
155	0x20	32
156	0x04	4
157	0xec	-20
158	0x0a	10
159	0x08	8
160	0xf2	-14
161	0x21	33
162	0x07	7
163	0x15	21
164	0x13	19
165	0xe5	-27
166	0x0c	12
167	0xf8	-8
168	0x19	25
169	0xea	-22
170	0x09	9
171	0x07	7
172	0xd6	-42
173	0x25	37
174	0xd9	-39
175	0x18	24
176	0x1a	26
177	0xd4	-44
178	0x0b	11
179	0x1e	30
180	0x1a	26
181	0x03	3
182	0x01	1
183	0x0e	14
184	0x11	17
185	0x27	39
186	0x09	9
187	0x0c	12
188	0xf7	-9
189	0x03	3
190	0xe3	-29
191	0xf0	-16
192	0x27	39
193	0xd7	-41
194	0x15	21
195	0x0f	15
196	0xed	-19
197	0x0e	14
198	0xd4	-44
199	0xec	-20
200	0x11	17
201	0x01	1
202	0x11	17
203	0x13	19
204	0xff	-1
205	0x10	16
206	0x31	49
207	0x05	5
208	0xed	-19
209	0x1f	31
210	0xf6	-10
211	0x2f	47
212	0x25	37
213	0x0c	12
214	0xe8	-24
215	0x0d	13
216	0x1b	27
217	0xed	-19
218	0xfc	-4
219	0x06	6
220	0xfa	-6
221	0xeb	-21
222	0xd8	-40
223	0xf8	-8
224	0xdf	-33
225	0xf6	-10
226	0x32	50
227	0x1c	28
228	0x12	18
229	0xfc	-4
230	0x0e	14
231	0xec	-20
232	0xfc	-4
233	0xec	-20
234	0xf7	-9
235	0x19	25
236	0x16	22
237	0x1b	27
238	0xf7	-9
239	0xf8	-8
240	0x2e	46
241	0xc1	-63
242	0x81	-127
243	0xc1	-63
244	0x15	21
245	0x40	64
246	0x1b	27
247	0x91	-111
248	0xde	-34
249	0x3e	62
250	0xaf	-81
251	0x63	99
252	0x60	96
253	0x0c	12
254	0x34	52
255	0xf7	-9

model_2/stream_27/conv2d_56/Conv2D i1 [24, 5, 1, 24]
0	0x01	1
1	0x2d	45
2	0x7f	127
3	0x1f	31
4	0x43	67
5	0xe4	-28
6	0xe7	-25
7	0x1f	31
8	0xea	-22
9	0xee	-18
10	0xe2	-30
11	0x48	72
12	0x07	7
13	0x2a	42
14	0x14	20
15	0xd8	-40
16	0xf2	-14
17	0xbd	-67
18	0xaa	-86
19	0x13	19
20	0x16	22
21	0xd4	-44
22	0xc7	-57
23	0x28	40
24	0xe5	-27
25	0x08	8
26	0x10	16
27	0xfc	-4
28	0x10	16
29	0x08	8
30	0xcc	-52
31	0x0d	13
32	0xe6	-26
33	0xfc	-4
34	0xd3	-45
35	0x00	0
36	0x0e	14
37	0xfd	-3
38	0x05	5
39	0xfc	-4
40	0xf7	-9
41	0xe3	-29
42	0x08	8
43	0x0d	13
44	0x05	5
45	0xe8	-24
46	0x01	1
47	0x10	16
48	0xf8	-8
49	0xd6	-42
50	0xfb	-5
51	0xfe	-2
52	0x0a	10
53	0x26	38
54	0xe7	-25
55	0xf2	-14
56	0x21	33
57	0xf0	-16
58	0xea	-22
59	0xf9	-7
60	0x03	3
61	0xf1	-15
62	0x13	19
63	0x03	3
64	0x18	24
65	0x09	9
66	0x14	20
67	0xe5	-27
68	0x1d	29
69	0xf7	-9
70	0x19	25
71	0xe8	-24
72	0x00	0
73	0xcf	-49
74	0xdb	-37
75	0xec	-20
76	0xe5	-27
77	0x28	40
78	0xf1	-15
79	0x11	17
80	0x0c	12
81	0x1d	29
82	0x08	8
83	0xea	-22
84	0xdf	-33
85	0x0b	11
86	0xee	-18
87	0xff	-1
88	0x18	24
89	0x1f	31
90	0x04	4
91	0xe2	-30
92	0x21	33
93	0xed	-19
94	0x11	17
95	0x05	5
96	0x16	22
97	0xd9	-39
98	0x0b	11
99	0xfb	-5
100	0xe7	-25
101	0x37	55
102	0x18	24
103	0xfb	-5
104	0x23	35
105	0x28	40
106	0x00	0
107	0x04	4
108	0xcd	-51
109	0xe2	-30
110	0xf7	-9
111	0xf4	-12
112	0xf3	-13
113	0x30	48
114	0x0b	11
115	0x07	7
116	0x00	0
117	0x1d	29
118	0x10	16
119	0x08	8
120	0xa5	-91
121	0xb0	-80
122	0xe9	-23
123	0xc4	-60
124	0x1a	26
125	0xfe	-2
126	0xc3	-61
127	0xbe	-66
128	0xd9	-39
129	0x25	37
130	0x0f	15
131	0x81	-127
132	0x9f	-97
133	0xb8	-72
134	0xc3	-61
135	0x25	37
136	0xf6	-10
137	0xec	-20
138	0xd6	-42
139	0x30	48
140	0x39	57
141	0x38	56
142	0x7e	126
143	0x10	16
144	0xed	-19
145	0xbc	-68
146	0x0a	10
147	0xcd	-51
148	0xf7	-9
149	0x03	3
150	0x15	21
151	0xf2	-14
152	0xfc	-4
153	0x0f	15
154	0x09	9
155	0xc4	-60
156	0xa7	-89
157	0xd2	-46
158	0xe5	-27
159	0xef	-17
160	0xd6	-42
161	0xba	-70
162	0xee	-18
163	0x0c	12
164	0x1f	31
165	0x48	72
166	0x14	20
167	0x14	20
168	0x19	25
169	0xd6	-42
170	0xfb	-5
171	0xcd	-51
172	0xd2	-46
173	0xe4	-28
174	0x1d	29
175	0xe4	-28
176	0x04	4
177	0x1f	31
178	0x10	16
179	0xe4	-28
180	0xd2	-46
181	0xf1	-15
182	0xe3	-29
183	0x0d	13
184	0xe7	-25
185	0xed	-19
186	0x10	16
187	0x14	20
188	0x17	23
189	0x10	16
190	0xf9	-7
191	0xf5	-11
192	0x15	21
193	0xfd	-3
194	0x04	4
195	0xc1	-63
196	0xbf	-65
197	0xd9	-39
198	0x2d	45
199	0xf5	-11
200	0x03	3
201	0x22	34
202	0x03	3
203	0x07	7
204	0xf2	-14
205	0xc9	-55
206	0x22	34
207	0x1d	29
208	0x18	24
209	0x09	9
210	0x08	8
211	0xd4	-44
212	0xd9	-39
213	0x3a	58
214	0xe1	-31
215	0x05	5
216	0x24	36
217	0xed	-19
218	0x1c	28
219	0xd4	-44
220	0xd8	-40
221	0xe5	-27
222	0x33	51
223	0x31	49
224	0x12	18
225	0x20	32
226	0x15	21
227	0x04	4
228	0x11	17
229	0xdd	-35
230	0x4a	74
231	0x1d	29
232	0x43	67
233	0x05	5
234	0x22	34
235	0xc5	-59
236	0xc4	-60
237	0xff	-1
238	0x08	8
239	0xf4	-12
240	0xfc	-4
241	0x0f	15
242	0xf7	-9
243	0xef	-17
244	0x05	5
245	0xbf	-65
246	0x05	5
247	0x22	34
248	0xf0	-16
249	0x3d	61
250	0x25	37
251	0xb0	-80
252	0xef	-17
253	0xf5	-11
254	0xf2	-14
255	0x7f	127

model_2/conv2d_55/Conv2D i1 [24, 1, 1, 32]
0	0x0f	15
1	0x09	9
2	0xeb	-21
3	0xba	-70
4	0x39	57
5	0x4d	77
6	0xfc	-4
7	0x7a	122
8	0x24	36
9	0xb9	-71
10	0x2a	42
11	0xb4	-76
12	0xd8	-40
13	0xe6	-26
14	0x71	113
15	0xfc	-4
16	0x25	37
17	0x0e	14
18	0x2a	42
19	0xbb	-69
20	0xbd	-67
21	0xa4	-92
22	0x34	52
23	0xe9	-23
24	0x86	-122
25	0xb6	-74
26	0xec	-20
27	0x61	97
28	0x22	34
29	0x7f	127
30	0x57	87
31	0x65	101
32	0x96	-106
33	0x46	70
34	0xb1	-79
35	0x42	66
36	0x27	39
37	0xeb	-21
38	0x3b	59
39	0xa2	-94
40	0x91	-111
41	0x7f	127
42	0xf9	-7
43	0x40	64
44	0x03	3
45	0x9d	-99
46	0x2a	42
47	0x45	69
48	0xfa	-6
49	0xbf	-65
50	0xeb	-21
51	0xc9	-55
52	0xe6	-26
53	0xcc	-52
54	0xe2	-30
55	0x02	2
56	0xfd	-3
57	0x40	64
58	0xc1	-63
59	0xf9	-7
60	0x02	2
61	0x3b	59
62	0xc2	-62
63	0x30	48
64	0xaa	-86
65	0xda	-38
66	0x62	98
67	0xfe	-2
68	0x05	5
69	0x2d	45
70	0x44	68
71	0xb5	-75
72	0xaa	-86
73	0x16	22
74	0x4b	75
75	0x0b	11
76	0x08	8
77	0xd3	-45
78	0x08	8
79	0x1e	30
80	0xeb	-21
81	0xd1	-47
82	0xa6	-90
83	0xf6	-10
84	0x14	20
85	0xa6	-90
86	0x7f	127
87	0x0f	15
88	0x32	50
89	0xa6	-90
90	0x01	1
91	0x1e	30
92	0x4c	76
93	0x01	1
94	0xfb	-5
95	0x02	2
96	0x50	80
97	0x64	100
98	0x9f	-97
99	0x7f	127
100	0xa1	-95
101	0x4f	79
102	0xf3	-13
103	0xad	-83
104	0x23	35
105	0x51	81
106	0x67	103
107	0xb4	-76
108	0x28	40
109	0x13	19
110	0xb4	-76
111	0xf7	-9
112	0x1d	29
113	0xe5	-27
114	0xf5	-11
115	0xf1	-15
116	0x6b	107
117	0xea	-22
118	0x3d	61
119	0x2e	46
120	0xf9	-7
121	0xe1	-31
122	0x3a	58
123	0xf6	-10
124	0x99	-103
125	0xfa	-6
126	0xea	-22
127	0x00	0
128	0xde	-34
129	0x5d	93
130	0x0a	10
131	0xe4	-28
132	0xdf	-33
133	0xe3	-29
134	0x5f	95
135	0xec	-20
136	0xbc	-68
137	0x0e	14
138	0x2b	43
139	0x59	89
140	0x2a	42
141	0xd8	-40
142	0xe7	-25
143	0xd8	-40
144	0x06	6
145	0xfb	-5
146	0x00	0
147	0x16	22
148	0xe9	-23
149	0x50	80
150	0xf5	-11
151	0xcb	-53
152	0x06	6
153	0x81	-127
154	0xbb	-69
155	0xd9	-39
156	0x07	7
157	0xa0	-96
158	0xdb	-37
159	0x11	17
160	0xee	-18
161	0x15	21
162	0xfb	-5
163	0xfe	-2
164	0xd9	-39
165	0x00	0
166	0x3f	63
167	0x10	16
168	0xc3	-61
169	0x3f	63
170	0x47	71
171	0xcd	-51
172	0xee	-18
173	0x53	83
174	0x17	23
175	0xce	-50
176	0xb4	-76
177	0x2f	47
178	0x59	89
179	0xf5	-11
180	0xe0	-32
181	0x0a	10
182	0xf7	-9
183	0xd4	-44
184	0x12	18
185	0x2b	43
186	0x55	85
187	0x7f	127
188	0x00	0
189	0x94	-108
190	0x20	32
191	0x38	56
192	0x0a	10
193	0xc4	-60
194	0x38	56
195	0x33	51
196	0xd7	-41
197	0x67	103
198	0x37	55
199	0x7f	127
200	0x67	103
201	0x4e	78
202	0x1c	28
203	0x02	2
204	0xd8	-40
205	0x2d	45
206	0x57	87
207	0x0f	15
208	0xce	-50
209	0x1c	28
210	0xd4	-44
211	0x34	52
212	0xd5	-43
213	0xbe	-66
214	0x33	51
215	0xc2	-62
216	0x08	8
217	0x99	-103
218	0xcc	-52
219	0x21	33
220	0x16	22
221	0x05	5
222	0xd6	-42
223	0x3c	60
224	0x29	41
225	0x1f	31
226	0x16	22
227	0x12	18
228	0x18	24
229	0xf4	-12
230	0xee	-18
231	0xe6	-26
232	0x09	9
233	0xef	-17
234	0xee	-18
235	0xdf	-33
236	0xdb	-37
237	0xe9	-23
238	0xd2	-46
239	0x2b	43
240	0xe0	-32
241	0x1f	31
242	0xfa	-6
243	0x30	48
244	0xe6	-26
245	0xd1	-47
246	0xea	-22
247	0x25	37
248	0x21	33
249	0xe2	-30
250	0x7f	127
251	0x18	24
252	0x06	6
253	0x1e	30
254	0x0a	10
255	0x22	34

model_2/stream_26/conv2d_54/Conv2D i1 [24, 5, 1, 24]
0	0xce	-50
1	0x00	0
2	0x51	81
3	0x17	23
4	0x1b	27
5	0xdf	-33
6	0xeb	-21
7	0x51	81
8	0xc5	-59
9	0xb7	-73
10	0x1e	30
11	0x81	-127
12	0xd6	-42
13	0x26	38
14	0x52	82
15	0xf2	-14
16	0xc5	-59
17	0x4a	74
18	0xce	-50
19	0x2d	45
20	0xf1	-15
21	0xd1	-47
22	0x2c	44
23	0x3a	58
24	0xef	-17
25	0x16	22
26	0x4e	78
27	0x01	1
28	0xf2	-14
29	0x02	2
30	0xf8	-8
31	0x35	53
32	0xe5	-27
33	0xf8	-8
34	0x0e	14
35	0xce	-50
36	0xc3	-61
37	0x1f	31
38	0x3a	58
39	0xfb	-5
40	0xec	-20
41	0xf7	-9
42	0x08	8
43	0x1c	28
44	0x1e	30
45	0xf2	-14
46	0xf8	-8
47	0x42	66
48	0xe0	-32
49	0x15	21
50	0x39	57
51	0xf0	-16
52	0xea	-22
53	0x0a	10
54	0xf8	-8
55	0x12	18
56	0x1d	29
57	0xff	-1
58	0x08	8
59	0x06	6
60	0xeb	-21
61	0x25	37
62	0x28	40
63	0x2a	42
64	0x20	32
65	0x03	3
66	0x03	3
67	0x2e	46
68	0x0f	15
69	0x19	25
70	0xf2	-14
71	0x45	69
72	0xe4	-28
73	0x01	1
74	0x20	32
75	0xf8	-8
76	0xe1	-31
77	0x15	21
78	0xf3	-13
79	0x17	23
80	0xfe	-2
81	0x0e	14
82	0x14	20
83	0x18	24
84	0xe4	-28
85	0x04	4
86	0x11	17
87	0x27	39
88	0x14	20
89	0x00	0
90	0x25	37
91	0x2e	46
92	0x29	41
93	0x1f	31
94	0xcb	-53
95	0x18	24
96	0x0f	15
97	0xc8	-56
98	0x42	66
99	0xc7	-57
100	0xd9	-39
101	0x23	35
102	0xda	-38
103	0x36	54
104	0x2f	47
105	0xf7	-9
106	0x32	50
107	0x3b	59
108	0xdc	-36
109	0x14	20
110	0x19	25
111	0x05	5
112	0x2b	43
113	0x0a	10
114	0x11	17
115	0x1e	30
116	0x0f	15
117	0x01	1
118	0xda	-38
119	0x05	5
120	0x43	67
121	0xf6	-10
122	0xd5	-43
123	0xe7	-25
124	0x00	0
125	0x94	-108
126	0x33	51
127	0xf7	-9
128	0x9e	-98
129	0xed	-19
130	0xae	-82
131	0x74	116
132	0x0a	10
133	0xef	-17
134	0xe7	-25
135	0xbc	-68
136	0x08	8
137	0x13	19
138	0x26	38
139	0xd3	-45
140	0xf0	-16
141	0xf8	-8
142	0x24	36
143	0x11	17
144	0x31	49
145	0xe6	-26
146	0x07	7
147	0x28	40
148	0xf1	-15
149	0xe0	-32
150	0x4f	79
151	0x0f	15
152	0xd4	-44
153	0xe7	-25
154	0xba	-70
155	0x68	104
156	0x4d	77
157	0x14	20
158	0xff	-1
159	0xd6	-42
160	0x0d	13
161	0x29	41
162	0x28	40
163	0xdb	-37
164	0xd0	-48
165	0xe7	-25
166	0x3a	58
167	0xdb	-37
168	0x14	20
169	0x16	22
170	0xff	-1
171	0x0f	15
172	0x26	38
173	0xd9	-39
174	0x03	3
175	0xf2	-14
176	0xd3	-45
177	0xeb	-21
178	0xe2	-30
179	0x1e	30
180	0x00	0
181	0x2b	43
182	0xdf	-33
183	0x04	4
184	0x0f	15
185	0x14	20
186	0x22	34
187	0x01	1
188	0xf0	-16
189	0xf2	-14
190	0xc1	-63
191	0xaa	-86
192	0xee	-18
193	0x0f	15
194	0x03	3
195	0x15	21
196	0xfa	-6
197	0xbf	-65
198	0xf4	-12
199	0x22	34
200	0xf0	-16
201	0x0d	13
202	0x25	37
203	0x11	17
204	0x22	34
205	0x0f	15
206	0xe4	-28
207	0x19	25
208	0xfd	-3
209	0xe5	-27
210	0x05	5
211	0x21	33
212	0xd6	-42
213	0xcd	-51
214	0xd7	-41
215	0x05	5
216	0xdf	-33
217	0x7f	127
218	0xfe	-2
219	0x4e	78
220	0xe3	-29
221	0xe1	-31
222	0xf8	-8
223	0x0c	12
224	0xe0	-32
225	0xf9	-7
226	0x2b	43
227	0xea	-22
228	0x0c	12
229	0xd9	-39
230	0xf0	-16
231	0x2d	45
232	0x1c	28
233	0xc0	-64
234	0x13	19
235	0xd2	-46
236	0xc6	-58
237	0xf6	-10
238	0xbd	-67
239	0x4e	78
240	0x3d	61
241	0xf7	-9
242	0x9c	-100
243	0x26	38
244	0x1a	26
245	0x1d	29
246	0xff	-1
247	0x1a	26
248	0x9e	-98
249	0xe2	-30
250	0xf7	-9
251	0x2a	42
252	0x0d	13
253	0xff	-1
254	0x55	85
255	0xc6	-58

model_2/conv2d_53/Conv2D i1 [24, 1, 1, 32]
0	0xd0	-48
1	0xac	-84
2	0x65	101
3	0x9e	-98
4	0x3e	62
5	0xce	-50
6	0xfb	-5
7	0x2b	43
8	0x41	65
9	0xd1	-47
10	0x49	73
11	0xbf	-65
12	0xca	-54
13	0x81	-127
14	0xc1	-63
15	0x14	20
16	0xb9	-71
17	0x7b	123
18	0x88	-120
19	0x74	116
20	0x52	82
21	0xa0	-96
22	0xda	-38
23	0xd6	-42
24	0x49	73
25	0x13	19
26	0x45	69
27	0x0f	15
28	0x32	50
29	0x8f	-113
30	0xe0	-32
31	0x1e	30
32	0xab	-85
33	0x51	81
34	0x23	35
35	0x0e	14
36	0x92	-110
37	0xbb	-69
38	0x27	39
39	0x47	71
40	0x25	37
41	0x2e	46
42	0x7f	127
43	0x48	72
44	0x37	55
45	0xda	-38
46	0xc6	-58
47	0xdf	-33
48	0xbc	-68
49	0x47	71
50	0xd0	-48
51	0x3c	60
52	0xa3	-93
53	0xbb	-69
54	0x35	53
55	0xe5	-27
56	0xc2	-62
57	0x87	-121
58	0x40	64
59	0xfe	-2
60	0x07	7
61	0xa8	-88
62	0x13	19
63	0xe1	-31
64	0xf9	-7
65	0xc7	-57
66	0xd9	-39
67	0x63	99
68	0x9a	-102
69	0x09	9
70	0x12	18
71	0x2c	44
72	0x12	18
73	0x22	34
74	0xf0	-16
75	0xfa	-6
76	0x55	85
77	0x57	87
78	0x2a	42
79	0x22	34
80	0xf3	-13
81	0x16	22
82	0x18	24
83	0xfd	-3
84	0x1f	31
85	0xb2	-78
86	0xc0	-64
87	0x4c	76
88	0x81	-127
89	0x53	83
90	0xe6	-26
91	0x38	56
92	0x18	24
93	0xb8	-72
94	0x12	18
95	0x03	3
96	0x7f	127
97	0xdf	-33
98	0x05	5
99	0xe7	-25
100	0xca	-54
101	0xf9	-7
102	0xf7	-9
103	0xef	-17
104	0x53	83
105	0x73	115
106	0xe9	-23
107	0xd5	-43
108	0xd4	-44
109	0xcb	-53
110	0x39	57
111	0x82	-126
112	0x24	36
113	0x37	55
114	0xee	-18
115	0xe2	-30
116	0xc2	-62
117	0xdd	-35
118	0x31	49
119	0xa7	-89
120	0x3e	62
121	0xd5	-43
122	0x98	-104
123	0xf8	-8
124	0xaf	-81
125	0x00	0
126	0xdd	-35
127	0x13	19
128	0xa5	-91
129	0x37	55
130	0x00	0
131	0x8d	-115
132	0x3e	62
133	0xbb	-69
134	0xfb	-5
135	0x08	8
136	0xa6	-90
137	0xbd	-67
138	0xee	-18
139	0xc6	-58
140	0x15	21
141	0x7f	127
142	0x42	66
143	0x00	0
144	0x11	17
145	0x69	105
146	0x18	24
147	0x9e	-98
148	0xfc	-4
149	0x8b	-117
150	0x1d	29
151	0x87	-121
152	0x25	37
153	0xdd	-35
154	0x2c	44
155	0xfe	-2
156	0x88	-120
157	0xe1	-31
158	0xe6	-26
159	0xbb	-69
160	0x1e	30
161	0x60	96
162	0xc0	-64
163	0xc8	-56
164	0x23	35
165	0x4c	76
166	0xfe	-2
167	0xbd	-67
168	0xd7	-41
169	0x0e	14
170	0x0b	11
171	0x0e	14
172	0x26	38
173	0xe9	-23
174	0xb0	-80
175	0x20	32
176	0x45	69
177	0xb3	-77
178	0x01	1
179	0x3a	58
180	0x98	-104
181	0xf6	-10
182	0xed	-19
183	0xe3	-29
184	0x17	23
185	0xb6	-74
186	0x2c	44
187	0x33	51
188	0x05	5
189	0x7f	127
190	0x06	6
191	0x54	84
192	0xd5	-43
193	0xe0	-32
194	0xea	-22
195	0x0b	11
196	0xc6	-58
197	0xdc	-36
198	0x52	82
199	0x45	69
200	0x17	23
201	0xea	-22
202	0x94	-108
203	0x16	22
204	0xb6	-74
205	0xc2	-62
206	0xb9	-71
207	0xc4	-60
208	0x06	6
209	0x42	66
210	0x54	84
211	0x34	52
212	0x51	81
213	0x00	0
214	0xcf	-49
215	0xf7	-9
216	0x7f	127
217	0xbb	-69
218	0xef	-17
219	0x5d	93
220	0x7e	126
221	0x0a	10
222	0xd4	-44
223	0xa9	-87
224	0xeb	-21
225	0xc0	-64
226	0xf9	-7
227	0x91	-111
228	0x81	-127
229	0xf8	-8
230	0x00	0
231	0xc5	-59
232	0x23	35
233	0x31	49
234	0xf1	-15
235	0xe6	-26
236	0x32	50
237	0x22	34
238	0xeb	-21
239	0xf7	-9
240	0xa9	-87
241	0x25	37
242	0x13	19
243	0xe4	-28
244	0xfb	-5
245	0x65	101
246	0x07	7
247	0xcf	-49
248	0x06	6
249	0x1b	27
250	0xd5	-43
251	0xaf	-81
252	0x2e	46
253	0x52	82
254	0xe4	-28
255	0x23	35

model_2/conv2d_52/Conv2D i1 [24, 1, 1, 32]
0	0xdb	-37
1	0x45	69
2	0x08	8
3	0x0b	11
4	0x29	41
5	0xbc	-68
6	0xc1	-63
7	0xeb	-21
8	0xc8	-56
9	0x60	96
10	0xe9	-23
11	0x32	50
12	0x1c	28
13	0x36	54
14	0xfc	-4
15	0x7f	127
16	0x1a	26
17	0x62	98
18	0x35	53
19	0x99	-103
20	0x72	114
21	0xd7	-41
22	0xf9	-7
23	0xf3	-13
24	0x13	19
25	0x45	69
26	0x5d	93
27	0x0d	13
28	0xe5	-27
29	0x35	53
30	0x0e	14
31	0x42	66
32	0x81	-127
33	0x51	81
34	0x2a	42
35	0xf4	-12
36	0xf0	-16
37	0x0c	12
38	0x08	8
39	0xec	-20
40	0xde	-34
41	0x8a	-118
42	0x28	40
43	0x03	3
44	0x53	83
45	0xf3	-13
46	0xaa	-86
47	0x0e	14
48	0xc4	-60
49	0xf7	-9
50	0x43	67
51	0x1d	29
52	0xe7	-25
53	0xe3	-29
54	0x0a	10
55	0x70	112
56	0x81	-127
57	0xe2	-30
58	0x3d	61
59	0x27	39
60	0x42	66
61	0xdf	-33
62	0x03	3
63	0x9d	-99
64	0x14	20
65	0x28	40
66	0x89	-119
67	0xff	-1
68	0xd8	-40
69	0x0a	10
70	0x7f	127
71	0xfc	-4
72	0x54	84
73	0x41	65
74	0xb9	-71
75	0xff	-1
76	0xe0	-32
77	0x94	-108
78	0xe4	-28
79	0xdb	-37
80	0xfe	-2
81	0x23	35
82	0x43	67
83	0x03	3
84	0x24	36
85	0xc6	-58
86	0x37	55
87	0xa8	-88
88	0x0d	13
89	0x28	40
90	0xca	-54
91	0xf2	-14
92	0x34	52
93	0x14	20
94	0xdc	-36
95	0x8d	-115
96	0x60	96
97	0x40	64
98	0xd9	-39
99	0x41	65
100	0xfe	-2
101	0xe7	-25
102	0x29	41
103	0x09	9
104	0x4f	79
105	0xf4	-12
106	0xd5	-43
107	0x3c	60
108	0xdf	-33
109	0x15	21
110	0xcc	-52
111	0x01	1
112	0x6b	107
113	0xff	-1
114	0x10	16
115	0x0c	12
116	0x26	38
117	0x14	20
118	0x26	38
119	0x8e	-114
120	0x7f	127
121	0xf8	-8
122	0x24	36
123	0x2e	46
124	0xd0	-48
125	0x0b	11
126	0x21	33
127	0xd4	-44
128	0x05	5
129	0x06	6
130	0x54	84
131	0x0d	13
132	0x81	-127
133	0xd8	-40
134	0xbe	-66
135	0x03	3
136	0xf3	-13
137	0xef	-17
138	0x00	0
139	0x09	9
140	0xfb	-5
141	0x36	54
142	0x8d	-115
143	0xf4	-12
144	0xb6	-74
145	0xfb	-5
146	0x15	21
147	0x98	-104
148	0x32	50
149	0xe6	-26
150	0x99	-103
151	0x1f	31
152	0x4d	77
153	0x06	6
154	0x19	25
155	0x06	6
156	0x87	-121
157	0xac	-84
158	0x01	1
159	0x49	73
160	0x22	34
161	0x00	0
162	0x7f	127
163	0x25	37
164	0x92	-110
165	0x04	4
166	0x9c	-100
167	0xc6	-58
168	0x53	83
169	0x5d	93
170	0x21	33
171	0x12	18
172	0x4d	77
173	0xb0	-80
174	0x3f	63
175	0x07	7
176	0xa6	-90
177	0xa6	-90
178	0xea	-22
179	0x17	23
180	0x34	52
181	0xba	-70
182	0x18	24
183	0x23	35
184	0x23	35
185	0xe1	-31
186	0x5b	91
187	0xe1	-31
188	0xec	-20
189	0x46	70
190	0x17	23
191	0xe7	-25
192	0x3d	61
193	0x23	35
194	0xb4	-76
195	0x9d	-99
196	0xf9	-7
197	0xc2	-62
198	0x74	116
199	0xc9	-55
200	0xcc	-52
201	0xea	-22
202	0x40	64
203	0xb7	-73
204	0x5a	90
205	0xd9	-39
206	0xf3	-13
207	0x1e	30
208	0x19	25
209	0xe7	-25
210	0x71	113
211	0xbf	-65
212	0x3d	61
213	0x5e	94
214	0xe6	-26
215	0xa7	-89
216	0x0e	14
217	0xdd	-35
218	0x51	81
219	0xf0	-16
220	0x9e	-98
221	0x8f	-113
222	0x19	25
223	0x7f	127
224	0xeb	-21
225	0x03	3
226	0x13	19
227	0x0a	10
228	0xa1	-95
229	0x5e	94
230	0x18	24
231	0xa7	-89
232	0x68	104
233	0x90	-112
234	0x0e	14
235	0x04	4
236	0x58	88
237	0xf3	-13
238	0xa8	-88
239	0xe8	-24
240	0xb4	-76
241	0x65	101
242	0x09	9
243	0x33	51
244	0x81	-127
245	0xa2	-94
246	0xc2	-62
247	0xcf	-49
248	0xc6	-58
249	0x52	82
250	0x3f	63
251	0x67	103
252	0x09	9
253	0x2a	42
254	0xec	-20
255	0xcc	-52
